p3/ckpt/actor.pth (torch_old, 87384 bytes, 18 tensors)

bn0.weight f4 [24]
0	0x3f759b9e	0.9594058
1	0x3f77fcb2	0.9686996
2	0x3f464182	0.77443707
3	0x3f59023f	0.8476905
4	0x3f9c7a5b	1.222484
5	0x3f96c619	1.1779205
6	0x3f4837a2	0.7820989
7	0x3f42077c	0.7579267
8	0x3f7cbac7	0.987225
9	0x3f6f23a4	0.9341376
10	0x3f65add6	0.8971838
11	0x3f7b00d3	0.9804813
12	0x3f907e88	1.1288614
13	0x3f7e3220	0.99295235
14	0x3f3eeb35	0.7457765
15	0x3f65a24c	0.8970077
16	0x3f86a20c	1.0518203
17	0x3f65af0c	0.89720225
18	0x3f545f21	0.82957655
19	0x3f7cedba	0.9880024
20	0x3fa1de68	1.2645998
21	0x3f9350b0	1.1508999
22	0x3f5a1ee5	0.8520339
23	0x3f7fcc8f	0.99921507

bn0.bias f4 [24]
0	0x36900869	4.2925135e-06
1	0x3853b303	5.0473038e-05
2	0x383ff73d	4.5768207e-05
3	0xb7ce2992	-2.4576471e-05
4	0x3911a338	0.00013889081
5	0x385a6580	5.206978e-05
6	0xb82e4347	-4.154749e-05
7	0xb89d678a	-7.505629e-05
8	0x35b2a8c3	1.331115e-06
9	0x35aa527f	1.2689997e-06
10	0xb8c03ee3	-9.166987e-05
11	0x37549962	1.2671897e-05
12	0xb9059c43	-0.0001274208
13	0x38985792	7.264236e-05
14	0x38453254	4.701533e-05
15	0xb73cf32c	-1.1262291e-05
16	0x38a9c493	8.095163e-05
17	0xb80a3f1c	-3.296054e-05
18	0x37d9e278	2.5973874e-05
19	0x37f1918c	2.8797214e-05
20	0x39553bc9	0.00020335535
21	0x39abb945	0.00032753698
22	0x3914c4d2	0.00014187701
23	0xb8ad398c	-8.260002e-05

bn0.running_mean f4 [24]
0	0xc07a9e5f	-3.9159162
1	0xbf61e11d	-0.8823412
2	0x414ac39e	12.672758
3	0x3d09cdd6	0.033643566
4	0xbdb90cba	-0.090356305
5	0x406e4502	3.722962
6	0x414ac39e	12.672758
7	0x3d09cdd6	0.033643566
8	0xc07d0524	-3.9534388
9	0xbf66d109	-0.9016271
10	0x41567c25	13.405309
11	0xbc0bab5d	-0.008524743
12	0xbd7d1125	-0.06178393
13	0x406fdddd	3.7479165
14	0x41567c25	13.405309
15	0xbc0bab5d	-0.008524743
16	0xc0804fed	-4.0097566
17	0xbf6d9f68	-0.9282136
18	0x415c6207	13.773932
19	0xbd41922b	-0.047258537
20	0xbd855125	-0.06509618
21	0x40719a0c	3.7750273
22	0x415c6207	13.773932
23	0xbd41922b	-0.047258537

bn0.running_var f4 [24]
0	0x417e2ad5	15.885457
1	0x3f8bd6de	1.0924947
2	0x43dc383f	440.43942
3	0x412b9fb2	10.726488
4	0x41edded7	29.733809
5	0x40384fed	2.8798783
6	0x43dc383f	440.43942
7	0x412b9fb2	10.726488
8	0x417cfac1	15.811219
9	0x3f8b2e10	1.0873432
10	0x43da1014	436.1256
11	0x412ece6b	10.925395
12	0x41f93c6b	31.154501
13	0x4039cfc0	2.903305
14	0x43da1014	436.1256
15	0x412ece6b	10.925395
16	0x417a215f	15.633147
17	0x3f89f042	1.0776446
18	0x43dcb0bc	441.38074
19	0x41369f3e	11.4138775
20	0x420402b2	33.002632
21	0x4042ac29	3.0417578
22	0x43dcb0bc	441.38074
23	0x41369f3e	11.4138775

fc1.weight f4 [128, 24]
0	0xbe52a7f0	-0.20571876
1	0x3a8055a6	0.000979115
2	0x3cc02301	0.023454191
3	0x3dacf939	0.08445973
4	0x3dfcbb4c	0.123404115
5	0xbe144f0b	-0.14483277
6	0xbcc2758a	-0.023737688
7	0x3b2bfdce	0.0026243809
8	0x3e159df5	0.14611037
9	0x3d7cd38c	0.061725184
10	0xbe8548c6	-0.26032084
11	0x3d4be742	0.04978109
12	0x3de48073	0.11157312
13	0x3d649609	0.055807147
14	0x3e1a738f	0.15083145
15	0xbc3ba422	-0.0114527065
16	0xbde4da1f	-0.11174416
17	0xba02f066	-0.00049949286
18	0x3c109d77	0.008826605
19	0xbe30c66e	-0.17263195
20	0x3d42cbac	0.047557518
21	0x3de0cb07	0.109762244
22	0x3da76700	0.081739426
23	0xbec20395	-0.37893358
24	0x3db8e309	0.090276785
25	0xbde99444	-0.114052325
26	0xbbc72d12	-0.006078371
27	0x3c3a8011	0.0113830725
28	0xbd985773	-0.074385546
29	0xbd2edbfa	-0.042690255
30	0x3c459f37	0.012061886
31	0xbcf35ea5	-0.029708216
32	0x3e1d62db	0.15369742
33	0x3e35513f	0.17706774
34	0xbd24323c	-0.04008697
35	0x3e14067e	0.14455602
36	0x3cef747f	0.029230354
37	0x3eb0450e	0.34427685
38	0x3e0fd688	0.14046681
39	0xbdc22d00	-0.09481239
40	0xbcd0ba91	-0.025479587
41	0x3df9c5af	0.12195908
42	0x3e4f8249	0.20264544
43	0x3e8ea434	0.27859652
44	0xbe2dd214	-0.1697467
45	0x3e910975	0.28327528
46	0xbda3f3b1	-0.08005465
47	0xbd6ab5fa	-0.057302453
48	0x3ba6f4d8	0.0050951056
49	0xbe29a563	-0.16566996
50	0xbde858f1	-0.11345089
51	0x3d38cfde	0.045120113
52	0x3e8a44ab	0.27005515
53	0xbc5a32ae	-0.013317747
54	0xbc1ce932	-0.0095770825
55	0xbe5be18e	-0.21472761
56	0xbe06ed89	-0.1317655
57	0x3d0032ac	0.031298324
58	0xbd2bbf4b	-0.041930478
59	0xbd23a2e4	-0.039950266
60	0x3da89b9c	0.08232805
61	0x3e54555e	0.2073569
62	0x3e2810bd	0.16412635
63	0x3c2a95d2	0.0104116965
64	0xbde49d26	-0.11162786
65	0xbd805678	-0.062664926
66	0x3ddeeee9	0.10885412
67	0x3e07a9df	0.13248394
68	0xbdbb89eb	-0.09157165
69	0xbe4c5ae0	-0.19956541
70	0x3c8447a7	0.016147448
71	0x3e3f4ba1	0.18681194
72	0xbdf8ae9c	-0.12142679
73	0xbe0c9c9b	-0.13731615
74	0x3da1a025	0.07891873
75	0x3d9ef748	0.07762009
76	0xbddecc0d	-0.10878763
77	0x3e286f6d	0.16448756
78	0xbdd61560	-0.10453296
79	0x3c67f5c8	0.01415772
80	0xbe05addb	-0.13054602
81	0x3dac7157	0.08420055
82	0x3da8e380	0.08246517
83	0x3e08f580	0.13374901
84	0xbebed186	-0.3726923
85	0xbd9da657	-0.076977424
86	0xbd194341	-0.037417654
87	0xbdc0a2e5	-0.0940607
88	0x3e8be2c1	0.27321437
89	0xbd1b0f51	-0.037856404
90	0x3d7c5df7	0.06161305
91	0xbe29abe7	-0.16569482
92	0xbe76226e	-0.24036571
93	0x3ea582f9	0.32326487
94	0xbdcac04d	-0.0989996
95	0xbdd909eb	-0.10597595
96	0xbd9c9ecc	-0.076474756
97	0xbe126f78	-0.14300334
98	0x3de8a44d	0.11359463
99	0xbd2df40c	-0.04246907
100	0x3c8f4be8	0.01749225
101	0xbdc7914d	-0.09744511
102	0xbe00460b	-0.1252672
103	0xbe5de20d	-0.21668263
104	0x3d9eb1b2	0.077487364
105	0x3e061a70	0.13096023
106	0xbd0602e5	-0.032717604
107	0x3d9019f7	0.070362024
108	0x3eb2f9c6	0.34956187
109	0xbe9d34f8	-0.30704474
110	0x3e2e18d2	0.17001656
111	0x3daefe2d	0.08544574
112	0xbe113ade	-0.14182612
113	0x3e5581b0	0.20850253
114	0xbb9cadd3	-0.0047814636
115	0xbe0638e0	-0.13107634
116	0xbd40b209	-0.047044788
117	0xbe8d03e1	-0.27542022
118	0xbce464a7	-0.027880026
119	0xbda5d1f4	-0.08096686
120	0xbea6fcbe	-0.32614702
121	0x3cea7033	0.028617954
122	0xbd717fc5	-0.05895974
123	0x3e4320e4	0.19055516
124	0x3e53533c	0.2063722
125	0x3d745972	0.059655614
126	0x3d8e44a7	0.06946688
127	0xbc82cfd4	-0.01596824
128	0xbda1271f	-0.0786879
129	0x3d808f79	0.06277365
130	0x3ddf8568	0.10914117
131	0x3d9dd5cb	0.077067934
132	0x3e8b14af	0.27164218
133	0x3d42e0ab	0.04757754
134	0xbe23f6d8	-0.16012132
135	0x3d751850	0.05983764
136	0xbd92db83	-0.07170775
137	0xbd5db3d5	-0.05412658
138	0xbe51b794	-0.20480186
139	0x3c69e2ac	0.014275234
140	0x3d4238d2	0.04741747
141	0x3be68395	0.007034729
142	0xbe3e78c9	-0.18600763
143	0x3e285188	0.16437352
144	0x3e54e325	0.20789774
145	0xbd69b317	-0.05705556
146	0x3e3a70cb	0.1820709
147	0xbc863f62	-0.016387645
148	0x3da33d5e	0.07970689
149	0x3ebbd9f9	0.36689737
150	0x3b8ba0ad	0.0042610974
151	0x3d3c455e	0.04596459
152	0xbe9340ad	-0.2876028
153	0xbd91cc03	-0.0711899
154	0x3b7bd26e	0.0038424986
155	0x3d4fe001	0.050750736
156	0xbd9a18f9	-0.075242944
157	0x3dc5d908	0.09660536
158	0xbd6f6f09	-0.0584555
159	0xbdd5526b	-0.104161106
160	0xbdaa2f94	-0.08309856
161	0x3d26c99e	0.04071962
162	0x3d0667d5	0.032813866
163	0x3d2304fd	0.03979968
164	0xbe363c51	-0.17796446
165	0xbdd6b146	-0.10483031
166	0xbdf81023	-0.12112453
167	0x3e771ae0	0.24131346
168	0xbe0fdd5e	-0.14049289
169	0x3d31e555	0.0434316
170	0x3afd0650	0.001930425
171	0x3cf2b981	0.02962947
172	0xbe817f00	-0.25292206
173	0x3e7be679	0.24599637
174	0xbdab7175	-0.083712496
175	0xbe2b2ccf	-0.16716312
176	0xbd397fc5	-0.045287866
177	0xbc577929	-0.013151445
178	0x3c7bdc41	0.015372337
179	0xbcc5fd1e	-0.024168547
180	0xbdfe4d15	-0.12417046
181	0x3cc767fe	0.02434158
182	0xbd9d87d5	-0.076919235
183	0xbd2fbbe8	-0.04290381
184	0xbe063003	-0.13104253
185	0x3e5c5872	0.21518114
186	0x3e2e977b	0.17049973
187	0x3dc135a0	0.09434056
188	0xbc307eed	-0.010772449
189	0xbdfda5a1	-0.12385107
190	0xbe04ce6b	-0.12969367
191	0xbdd238fd	-0.10264776
192	0x3d292a36	0.04130002
193	0x3d81dfda	0.063415244
194	0xbdf66f31	-0.12032927
195	0x3e06febf	0.13183115
196	0xbe09580c	-0.13412493
197	0xbd423e78	-0.047422856
198	0x3dc1418b	0.094363295
199	0xbdba2ec0	-0.09090948
200	0xbd67d1f2	-0.056596704
201	0x3df04b28	0.11733085
202	0xbd9992e5	-0.07498721
203	0x3dd24ed1	0.10268939
204	0x3dfd0df5	0.12356178
205	0xbd797b08	-0.060908347
206	0x3da147cb	0.078750215
207	0xbce00fd8	-0.027351305
208	0xbd8f98fe	-0.07011603
209	0xbd91fb41	-0.07128001
210	0xbe1b2227	-0.15149747
211	0xbd6eb648	-0.058279306
212	0xbe882c7d	-0.26596442
213	0x3e7fd27d	0.24982639
214	0x3d6cee90	0.0578447
215	0xbdf52ef0	-0.11971843
216	0xbd8306a7	-0.06397753
217	0xbe165a02	-0.14682773
218	0xbd09ea1c	-0.03367053
219	0xbd32814a	-0.04358033
220	0xbc1b5e41	-0.009482921
221	0xbddbbc53	-0.10729279
222	0xbe2eafc4	-0.17059237
223	0xbc975f7d	-0.01847815
224	0x3da4d60e	0.0804864
225	0x3d0f948e	0.035053782
226	0x3bb35b2e	0.005473516
227	0xbd5315fc	-0.051534638
228	0xbb39222d	-0.002824913
229	0xbd0fb058	-0.035080284
230	0xbe1aad9c	-0.15105289
231	0x3de314dd	0.11087964
232	0xbe2e3f43	-0.1701632
233	0xbdbbce1b	-0.09170171
234	0xbe727de3	-0.23680834
235	0x3daaaa4a	0.08333261
236	0x3ea08153	0.31348667
237	0xbc0191ff	-0.007908343
238	0xbd49c3a2	-0.049258836
239	0x3e4a1fca	0.19738689
240	0x3dc30fe5	0.09524516
241	0xbda06c80	-0.07833195
242	0xbdad5c6b	-0.08464893
243	0x3e06ce64	0.1316467
244	0x3e090298	0.13379896
245	0xbe1ccb1a	-0.15311852
246	0xbd846d16	-0.06466119
247	0xbe5b06df	-0.2138934
248	0xbbc3ef33	-0.0059794425
249	0xbdc8311f	-0.09774994
250	0xbda1c8f6	-0.078996584
251	0x3deb8b9a	0.11501236
252	0xbd86863b	-0.06568571
253	0x3d804631	0.06263388
254	0x3d4ec3d9	0.050479744
255	0x3bbcea41	0.00576523

fc1.bias f4 [128]
0	0x3c253324	0.010082994
1	0x3c235888	0.009969838
2	0x3c23d097	0.009998462
3	0x3c233282	0.0099607725
4	0x3c24d7e0	0.010061234
5	0x3c23aff7	0.009990684
6	0x3c235845	0.009969776
7	0x3c231fcb	0.0099563105
8	0x3c248275	0.010040869
9	0x3c238726	0.009980952
10	0x3c233508	0.009961374
11	0x3c245e63	0.010032269
12	0x3c234ac8	0.00996656
13	0x3c23ba0a	0.009993086
14	0x3c23c518	0.009995721
15	0x3c23a843	0.009988847
16	0x3c236c3e	0.009974537
17	0x3c23fc88	0.010008939
18	0x3c23df41	0.010001958
19	0x3c23b80c	0.009992611
20	0x3c236fbf	0.009975373
21	0x3c22dc1f	0.009940176
22	0x3c245eb8	0.010032348
23	0x3c24601b	0.010032679
24	0x3c245618	0.010030292
25	0x3c245ef6	0.010032406
26	0x3c226399	0.009911441
27	0x3c23b2ac	0.009991329
28	0x3c240bec	0.010012608
29	0x3c23a926	0.009989059
30	0x3c23ea29	0.010004559
31	0x3c22e157	0.0099414205
32	0x3c23f85f	0.010007947
33	0x3c245e9b	0.010032321
34	0x3c23d56f	0.009999617
35	0x3c2436d9	0.010022842
36	0x3c2379dd	0.009977785
37	0x3c23c52b	0.009995739
38	0x3c23a985	0.009989147
39	0x3c23d23a	0.009998852
40	0x3c232031	0.0099564055
41	0x3c2316a5	0.009954129
42	0x3c2436cd	0.010022831
43	0x3c242b5d	0.010020104
44	0x3c23cf37	0.009998134
45	0x3c23bf2e	0.009994311
46	0x3c248156	0.010040602
47	0x3c24705b	0.010036553
48	0x3c23b5bf	0.009992062
49	0x3c23d17a	0.009998674
50	0x3c24adb5	0.010051181
51	0x3c235afe	0.009970425
52	0x3c239345	0.009983842
53	0x3c23257b	0.0099576665
54	0x3c235186	0.009968167
55	0x3c23cb17	0.009997151
56	0x3c245b50	0.010031536
57	0x3c232b3a	0.0099590365
58	0x3c238677	0.009980789
59	0x3c23a448	0.009987898
60	0x3c23c6b9	0.00999611
61	0x3c23e715	0.010003825
62	0x3c240cd4	0.010012824
63	0x3c23cb56	0.0099972095
64	0x3c23bf19	0.009994292
65	0x3c22a767	0.009927607
66	0x3c22a308	0.009926565
67	0x3c23b250	0.0099912435
68	0x3c24636a	0.010033468
69	0x3c244be5	0.01002786
70	0x3c242b89	0.010020145
71	0x3c237ec2	0.009978952
72	0x3c24135a	0.010014379
73	0x3c240402	0.010010721
74	0x3c2426db	0.0100190295
75	0x3c24d1b6	0.010059765
76	0x3c239f68	0.009986736
77	0x3c2393a9	0.009983935
78	0x3c23c19c	0.009994891
79	0x3c23e136	0.010002425
80	0x3c2464e8	0.010033824
81	0x3c233224	0.009960685
82	0x3c23a28f	0.009987487
83	0x3c223857	0.009901128
84	0x3c24728d	0.010037077
85	0x3c2410e1	0.01001379
86	0x3c24240e	0.010018362
87	0x3c23031a	0.00994947
88	0x3c237e22	0.009978803
89	0x3c23a35b	0.009987677
90	0x3c250d82	0.010074021
91	0x3c23c66f	0.009996041
92	0x3c24042b	0.010010759
93	0x3c23c653	0.009996015
94	0x3c240c03	0.010012629
95	0x3c235812	0.009969728
96	0x3c241002	0.010013582
97	0x3c24d6ec	0.010061007
98	0x3c238807	0.009981162
99	0x3c23cb3a	0.009997183
100	0x3c24e661	0.010064692
101	0x3c23a76f	0.00998865
102	0x3c22b50c	0.00993086
103	0x3c23f5bc	0.010007318
104	0x3c23b50d	0.009991896
105	0x3c2338ad	0.009962243
106	0x3c23b1a0	0.00999108
107	0x3c23ffa9	0.010009685
108	0x3c23e5c0	0.010003507
109	0x3c23eba5	0.0100049125
110	0x3c23c4d4	0.009995658
111	0x3c24e11e	0.010063438
112	0x3c24d952	0.010061579
113	0x3c2389e2	0.009981604
114	0x3c234502	0.009965183
115	0x3c240325	0.010010515
116	0x3c23828e	0.009979857
117	0x3c22570f	0.009908452
118	0x3c239044	0.009983126
119	0x3c238809	0.009981164
120	0x3c223651	0.009900645
121	0x3c23eced	0.010005218
122	0x3c2466e3	0.010034296
123	0x3c2396fa	0.009984726
124	0x3c236296	0.009972235
125	0x3c240e1b	0.010013129
126	0x3c239797	0.009984872
127	0x3c254173	0.010086405

bn1.weight f4 [128]
0	0x3f88f457	1.0699567
1	0x3f8bfa74	1.0935807
2	0x3f75fc44	0.9608805
3	0x3f9620a6	1.1728714
4	0x3f839025	1.0278364
5	0x3f650c00	0.89471436
6	0x3f7d3112	0.98903
7	0x3f7e85bd	0.9942282
8	0x3f8693e0	1.0513878
9	0x3f70df7a	0.94091
10	0x3f811019	1.0083038
11	0x3f72d781	0.9486008
12	0x3f705d5f	0.93892473
13	0x3f8b8430	1.0899715
14	0x3f808db0	1.004324
15	0x3f82a335	1.0206057
16	0x3f83b486	1.0289466
17	0x3f7b0a27	0.98062366
18	0x3f6b9ef4	0.9203942
19	0x3f8c54fd	1.0963436
20	0x3f9c15a1	1.2194101
21	0x3f8465b3	1.0343536
22	0x3f81596b	1.0105413
23	0x3f6f76ea	0.93540823
24	0x3f83250b	1.024568
25	0x3f83c85b	1.0295519
26	0x3f825da1	1.0184823
27	0x3f9002ac	1.1250815
28	0x3f5eb34f	0.86992353
29	0x3f76226b	0.9614627
30	0x3f6ce208	0.92532396
31	0x3f83a459	1.028453
32	0x3f6d26df	0.9263744
33	0x3f7627fa	0.9615475
34	0x3f8de087	1.1084145
35	0x3f7f1d50	0.996541
36	0x3f8ad909	1.0847484
37	0x3f654682	0.8956071
38	0x3f874ea0	1.057087
39	0x3f827486	1.019181
40	0x3f8d6153	1.1045326
41	0x3f70dc3f	0.9408607
42	0x3f8563b3	1.0421051
43	0x3f6ffa46	0.9374126
44	0x3f7b2ae7	0.9811234
45	0x3f69ddbf	0.9135398
46	0x3f7754f8	0.9661403
47	0x3f850ba6	1.039418
48	0x3f7e0aae	0.99235046
49	0x3f5fb627	0.8738732
50	0x3f6f9e4c	0.93600917
51	0x3f83a7d6	1.0285594
52	0x3f740bc1	0.95330435
53	0x3f8835c2	1.0641406
54	0x3f85052c	1.0392203
55	0x3f65c7de	0.897581
56	0x3f84091f	1.0315284
57	0x3f7d00de	0.9882945
58	0x3f77051e	0.96492183
59	0x3f883491	1.0641042
60	0x3f764d4a	0.96211684
61	0x3f7f82a9	0.99808747
62	0x3f736f8c	0.9509208
63	0x3f761f41	0.9614144
64	0x3f7612e6	0.96122587
65	0x3f8dc5e7	1.107602
66	0x3f8d8a48	1.1057825
67	0x3f6f35c4	0.93441415
68	0x3f7919ee	0.9730519
69	0x3f5babe1	0.8580914
70	0x3f741c78	0.9535594
71	0x3f7e1d87	0.99263805
72	0x3f63d4e5	0.88996726
73	0x3f9c44c6	1.2208488
74	0x3f885ef5	1.0653979
75	0x3f8920b6	1.0713108
76	0x3f63c2a1	0.88968855
77	0x3f81cb53	1.0140175
78	0x3f78b1fb	0.97146577
79	0x3f64de67	0.8940186
80	0x3f732645	0.9498027
81	0x3f984249	1.1895229
82	0x3f822708	1.0168161
83	0x3f7189aa	0.94350684
84	0x3f7d2de2	0.98898137
85	0x3f80d3d5	1.0064646
86	0x3f816018	1.010745
87	0x3f8375ce	1.0270326
88	0x3f7f8ed2	0.998273
89	0x3f838e91	1.0277883
90	0x3f8ed099	1.1157409
91	0x3f7af98e	0.9803704
92	0x3f82b700	1.0212097
93	0x3f74add0	0.95577717
94	0x3f7524de	0.9575938
95	0x3f8c88a3	1.0979198
96	0x3f6489cd	0.8927277
97	0x3f7a98bb	0.978893
98	0x3f76e1c0	0.9643822
99	0x3f8323c9	1.0245296
100	0x3f87cf0b	1.061006
101	0x3f77b410	0.9675913
102	0x3f91875c	1.1369433
103	0x3f59690e	0.84925926
104	0x3f79b44f	0.97540754
105	0x3f84922f	1.0357112
106	0x3f79502f	0.97387975
107	0x3f6cc5db	0.92489403
108	0x3f966545	1.1749655
109	0x3f71c5bd	0.9444235
110	0x3f67e8bd	0.90589505
111	0x3f7f9ea3	0.99851435
112	0x3f7f4ac5	0.99723464
113	0x3f7a76b8	0.978374
114	0x3f6bda97	0.92130417
115	0x3f89ecff	1.077545
116	0x3f82fc99	1.0233337
117	0x3f86d931	1.0535032
118	0x3f890d67	1.0707215
119	0x3f8b2582	1.0870821
120	0x3f8dd2d2	1.1079962
121	0x3f79c2e0	0.9756298
122	0x3f85e8d3	1.0461677
123	0x3f6c2540	0.9224434
124	0x3f78c819	0.97180325
125	0x3f81c398	1.0137815
126	0x3f81b09b	1.0132021
127	0x3f8c662c	1.096868

bn1.bias f4 [128]
0	0xbd5c195f	-0.053735133
1	0x3cdbc407	0.026826872
2	0x3d8312e0	0.064000845
3	0xbd266727	-0.040625717
4	0xbdde2371	-0.10846604
5	0xbdb23279	-0.08701033
6	0x3cf6def4	0.03013561
7	0xbd8182e1	-0.06323791
8	0xbe34f4cc	-0.17671508
9	0xbe36513d	-0.17804427
10	0x3d19cb04	0.037547126
11	0xbe4fc002	-0.20288089
12	0xbdd3ce95	-0.10342137
13	0xbccd5f73	-0.025069928
14	0xbdee1f65	-0.11627082
15	0xbdfb75fc	-0.12278363
16	0xbe132a46	-0.14371595
17	0xbc63dd0f	-0.013907685
18	0xbd7258c8	-0.0591667
19	0x390d7348	0.00013489753
20	0xbd7d6122	-0.06186021
21	0x3c3d31ac	0.011547487
22	0xbe315721	-0.17318393
23	0xbe0217ba	-0.12704363
24	0xbc281987	-0.010259992
25	0xbe8374ba	-0.25674993
26	0xbd66da39	-0.056360457
27	0xbd932b33	-0.07185974
28	0xbe4837eb	-0.19552581
29	0xbd7f3cb6	-0.062313758
30	0xbe2394c4	-0.15974718
31	0xbdeadc50	-0.114678025
32	0x3d5a9e14	0.05337341
33	0xbe3e1798	-0.18563688
34	0xbe8a9148	-0.27063966
35	0xbe078b65	-0.13236769
36	0xbdcb7e94	-0.09936252
37	0xbdc3fb43	-0.09569409
38	0xbd6dfe81	-0.058104042
39	0xbde852e0	-0.11343932
40	0x3c4a6712	0.012353675
41	0xbe4f662c	-0.20253819
42	0xbd07fd4d	-0.03320055
43	0xbd1dfbbe	-0.03857016
44	0xbd5125cc	-0.051061437
45	0xbe26fb23	-0.16306739
46	0xbd843bdf	-0.06456732
47	0xbcde9a66	-0.027173232
48	0xbe25d9d5	-0.16196378
49	0xbe64380e	-0.22287008
50	0xbe122733	-0.14272766
51	0xbe13877e	-0.14407155
52	0xbd23ffb5	-0.040038783
53	0x39801310	0.00024428265
54	0xbd6391a9	-0.055558834
55	0x3ced6ad8	0.028981611
56	0xbe986c2b	-0.29770026
57	0xbd88fca4	-0.066888124
58	0xbe0e5db3	-0.13902931
59	0xbdbe4492	-0.092904225
60	0xbdc552f2	-0.09634961
61	0xbbebeaf5	-0.00719964
62	0xbe60ca8f	-0.2195227
63	0xbe06e51e	-0.13173339
64	0xbda90f9a	-0.08254929
65	0xbe1f3c26	-0.15550289
66	0x3e0cd8de	0.13754603
67	0xbe4411eb	-0.1914746
68	0xbe4db76f	-0.20089506
69	0xbdfe11bc	-0.12405726
70	0x3c46056e	0.0120862555
71	0xbea86de8	-0.32896352
72	0xbd2e9d1d	-0.042630304
73	0x3cdee1e6	0.027207326
74	0x3c7d9604	0.015477661
75	0xbe48630c	-0.19569033
76	0xbe2f5ea4	-0.17125946
77	0xbc411d70	-0.011786804
78	0x3dfb9735	0.122847
79	0xbe29f8bd	-0.16598792
80	0xbe102b4c	-0.14079016
81	0xbe19fa09	-0.15036787
82	0xbd7f9b77	-0.062404122
83	0xbda682cb	-0.081304155
84	0xbb73d684	-0.0037206719
85	0x3bd05fc2	0.0063590715
86	0x3c025a38	0.00795608
87	0xbe4d2801	-0.20034792
88	0xbe20e779	-0.157133
89	0xbdd2740a	-0.10276039
90	0x3df730f0	0.12069881
91	0x3d1b36d0	0.03789407
92	0x3dbe5fe8	0.092956364
93	0x3da08b96	0.07839124
94	0x3e05d603	0.1306992
95	0xbdb07a64	-0.08617094
96	0xbd8b4bc2	-0.06801559
97	0xbe0b5ef2	-0.13610438
98	0x3dd18ef1	0.10232342
99	0xbda03b1c	-0.07823774
100	0xbdad63ab	-0.08466276
101	0xbe4d6a69	-0.20060124
102	0xbdb0a0cc	-0.086244196
103	0xbd69d7f5	-0.05709072
104	0xbd168300	-0.036746025
105	0xbd386b7d	-0.045024384
106	0x3c0a8212	0.008453863
107	0xbcf04178	-0.029328093
108	0x3d3844bf	0.044987436
109	0xbdb03477	-0.08603757
110	0xbe438986	-0.1909543
111	0xbe236058	-0.15954721
112	0x3d917a85	0.07103447
113	0xbd2f509f	-0.042801496
114	0xba08b927	-0.0005215578
115	0xbdd51b05	-0.10405544
116	0xbe5f9c36	-0.21836933
117	0xbcd750a4	-0.02628357
118	0x3dab31fa	0.08359142
119	0x3dcdd156	0.10049693
120	0xbc832c52	-0.016012345
121	0xbdd0c805	-0.10194401
122	0xbde0d273	-0.1097764
123	0xbd9dd6e6	-0.07707004
124	0xbd6b0aeb	-0.05738346
125	0x3d970086	0.07373147
126	0x3d7b4517	0.061345186
127	0xbd25aee5	-0.040449996

bn1.running_mean f4 [128]
0	0x3c26e889	0.010187277
1	0x3c24a1df	0.010048359
2	0x3c2316ae	0.009954138
3	0x3c24cccc	0.010058593
4	0x3c224224	0.0099034645
5	0x3c22a783	0.009927633
6	0x3c22448f	0.009904041
7	0x3c2235d1	0.009900526
8	0x3c2496c2	0.010045709
9	0x3c23a01f	0.009986906
10	0x3c234a5f	0.009966462
11	0x3c23b563	0.009991976
12	0x3c2386db	0.0099808825
13	0x3c249395	0.010044952
14	0x3c22e30b	0.009941827
15	0x3c22e1cd	0.00994153
16	0x3c22f3b9	0.009945803
17	0x3c24b161	0.010052056
18	0x3c23ae86	0.00999034
19	0x3c26aa32	0.010172414
20	0x3c258dd4	0.010104615
21	0x3c258a39	0.010103756
22	0x3c226346	0.009911364
23	0x3c241a59	0.010016047
24	0x3c25b65a	0.010114277
25	0x3c233ed6	0.009963712
26	0x3c217afc	0.009855982
27	0x3c248c29	0.010043182
28	0x3c23ed6e	0.010005338
29	0x3c22e8ad	0.00994317
30	0x3c22fd96	0.009948155
31	0x3c22074f	0.009889438
32	0x3c23bd79	0.009993904
33	0x3c22df61	0.009940953
34	0x3c2227b4	0.009897161
35	0x3c22efe9	0.009944894
36	0x3c23fb7a	0.010008687
37	0x3c22619d	0.009910968
38	0x3c24b916	0.010053894
39	0x3c2476c8	0.010038085
40	0x3c239889	0.009985098
41	0x3c21db07	0.00987888
42	0x3c22ed82	0.009944322
43	0x3c22058b	0.009889017
44	0x3c253e61	0.010085673
45	0x3c2430cf	0.0100214025
46	0x3c24d357	0.010060153
47	0x3c267121	0.010158808
48	0x3c20eedb	0.009822573
49	0x3c224081	0.009903074
50	0x3c241661	0.010015101
51	0x3c228f8b	0.009921919
52	0x3c231232	0.009953069
53	0x3c2211ca	0.009891937
54	0x3c20cd4e	0.009814573
55	0x3c229778	0.009923808
56	0x3c23d52c	0.009999555
57	0x3c2408c4	0.0100118555
58	0x3c22a71c	0.009927537
59	0x3c22366e	0.009900672
60	0x3c254972	0.0100883115
61	0x3c233bd7	0.009962997
62	0x3c264bb3	0.010149884
63	0x3c24e4e2	0.010064336
64	0x3c224eae	0.009906454
65	0x3c212166	0.009834623
66	0x3c2135d1	0.009839491
67	0x3c228073	0.00991832
68	0x3c260d96	0.010135075
69	0x3c21fa81	0.009886385
70	0x3c240a86	0.010012275
71	0x3c22511a	0.009907031
72	0x3c22464b	0.009904454
73	0x3c24e736	0.010064891
74	0x3c236d88	0.009974845
75	0x3c2223eb	0.009896259
76	0x3c227b68	0.009917118
77	0x3c20a806	0.009805685
78	0x3c25a5b6	0.010110309
79	0x3c215b70	0.009848461
80	0x3c22cae1	0.009936065
81	0x3c239ca6	0.009986078
82	0x3c23c9bd	0.009996829
83	0x3c20ce7b	0.009814854
84	0x3c26dc4c	0.010184359
85	0x3c23b00e	0.009990705
86	0x3c264535	0.010148336
87	0x3c216a48	0.009852
88	0x3c2191c5	0.009861414
89	0x3c24fdae	0.010070248
90	0x3c27e8ee	0.010248406
91	0x3c2494c6	0.010045236
92	0x3c253151	0.010082559
93	0x3c2642be	0.0101477485
94	0x3c247ab0	0.010039017
95	0x3c22dcd8	0.009940349
96	0x3c245ea9	0.010032334
97	0x3c24a54c	0.0100491755
98	0x3c24df0d	0.010062945
99	0x3c25f4a2	0.010129126
100	0x3c242980	0.01001966
101	0x3c241a23	0.010015997
102	0x3c237614	0.0099768825
103	0x3c23e2f6	0.010002842
104	0x3c25a32b	0.010109703
105	0x3c2174ae	0.009854479
106	0x3c23cfba	0.009998256
107	0x3c248496	0.010041377
108	0x3c23570d	0.009969485
109	0x3c23a34d	0.009987664
110	0x3c246a83	0.01003516
111	0x3c24359e	0.010022549
112	0x3c2775b5	0.010220935
113	0x3c247b62	0.010039182
114	0x3c22fbc5	0.009947722
115	0x3c25f4b0	0.010129139
116	0x3c23c54a	0.009995768
117	0x3c21ad55	0.009867986
118	0x3c24c8b1	0.010057614
119	0x3c23e0c7	0.010002322
120	0x3c1f25ba	0.009713585
121	0x3c242fc9	0.0100211585
122	0x3c27c318	0.010239385
123	0x3c25067d	0.010072348
124	0x3c22c613	0.00993492
125	0x3c25b36d	0.010113579
126	0x3c21c6c8	0.009874053
127	0x3c253bf9	0.010085099

bn1.running_var f4 [128]
0	0x3eb1c056	0.34717053
1	0x3f0e3fdc	0.5556619
2	0x3e8336a7	0.25627634
3	0x3f6708c4	0.9024775
4	0x3f38e26c	0.7222049
5	0x3f129a39	0.57266575
6	0x3f08aafe	0.53385913
7	0x3f42bf0a	0.7607275
8	0x3ea8d4b2	0.32974774
9	0x3ec0b0b0	0.37634802
10	0x3e9085d4	0.28227103
11	0x3f139ba3	0.5765936
12	0x3f08733b	0.5330083
13	0x3f06bbea	0.52630484
14	0x3f727533	0.9471008
15	0x3ec17358	0.37783313
16	0x3f096acb	0.5367858
17	0x3fac1c0f	1.3446063
18	0x3f259ddf	0.6469402
19	0x3f38e71e	0.72227657
20	0x3ed5987b	0.41717896
21	0x3f29afc4	0.6628382
22	0x3eb877ad	0.36028805
23	0x3e0bd47c	0.13655275
24	0x3ea3f59a	0.32023317
25	0x3f5b9dff	0.8578796
26	0x3ea30803	0.3184205
27	0x3f6ffcd2	0.9374515
28	0x3e67d4f9	0.22639836
29	0x3ea1d77a	0.31609708
30	0x3ef7228c	0.48268545
31	0x3ebb9a4b	0.36641154
32	0x3f4bcedc	0.7961252
33	0x3eb285d8	0.3486774
34	0x3e925d40	0.2858677
35	0x3fc8fdaf	1.5702418
36	0x3f16e285	0.5893939
37	0x3f7d16d4	0.9886296
38	0x3f61dc61	0.88226897
39	0x3ea2bbb8	0.31783843
40	0x3e6f6fae	0.23382446
41	0x3e6bcb29	0.23026718
42	0x3f10b919	0.56532437
43	0x3f8b8dc2	1.0902636
44	0x3ef4749d	0.4774522
45	0x3ec78698	0.38969874
46	0x3f09043d	0.5352209
47	0x3eec9d89	0.4621394
48	0x3f056092	0.5210048
49	0x3f945857	1.1589459
50	0x3e68dbe3	0.2274013
51	0x3f6c9954	0.9242146
52	0x3f7ac15c	0.97951293
53	0x3ef91c25	0.48654285
54	0x3ea8e8f4	0.3299023
55	0x3f72ee2c	0.9489467
56	0x3f0169b0	0.5055189
57	0x3f9fea5a	1.2493393
58	0x3f0bba26	0.54580915
59	0x3f626224	0.88431
60	0x3e55e585	0.20888336
61	0x3f213d30	0.6298399
62	0x3f347fc7	0.7050747
63	0x3ee5c812	0.44879204
64	0x3f5d9169	0.86550003
65	0x3f297412	0.66192734
66	0x3dfae21f	0.122501604
67	0x3f9594b9	1.1686012
68	0x3f014a21	0.50503737
69	0x3edebc31	0.43502954
70	0x3ec14834	0.377504
71	0x3ec46238	0.38356185
72	0x3f62f793	0.8865902
73	0x3f1031a6	0.5632576
74	0x3ecab804	0.39593518
75	0x3f3a1d25	0.7270072
76	0x3eac3f96	0.33642262
77	0x3f5d5c64	0.864691
78	0x3ed5d721	0.41765693
79	0x3ec00211	0.37501577
80	0x400c35f0	2.190792
81	0x3e62cfa3	0.2214952
82	0x3edcb319	0.4310539
83	0x3f571cde	0.8402842
84	0x3eac7421	0.3368235
85	0x3f49f833	0.78894347
86	0x3f7c1a1b	0.98477334
87	0x3f110795	0.56652194
88	0x3eebede0	0.46079922
89	0x3e20dcac	0.1570918
90	0x3e8b4780	0.27202988
91	0x3f1c4b4e	0.61052406
92	0x3f073079	0.5280834
93	0x3f887632	1.066107
94	0x3f37396e	0.71572006
95	0x3ebd4946	0.36969966
96	0x3e37ebb2	0.17961004
97	0x3ebc4b58	0.36776233
98	0x3f0cda8d	0.5502098
99	0x3f4d7758	0.8026023
100	0x3f441b33	0.76604
101	0x3f23c9fb	0.6398007
102	0x3e4123ee	0.18861362
103	0x3efb2ae4	0.4905616
104	0x3e42f739	0.1903962
105	0x3f4924be	0.7857169
106	0x3e40335b	0.1876959
107	0x3ee3719f	0.44422624
108	0x3ee1c0d4	0.4409243
109	0x3f844ff5	1.0336901
110	0x3e844c6a	0.2583955
111	0x3f319038	0.69360685
112	0x3f0a4f66	0.540274
113	0x3f07aaf9	0.5299526
114	0x3f089be8	0.53362894
115	0x3ec237ac	0.379331
116	0x3e922e21	0.2855082
117	0x3eb101da	0.34571725
118	0x3f313ffe	0.6923827
119	0x3f2251bd	0.6340597
120	0x3f9ab733	1.2087158
121	0x3eacaa9f	0.33723924
122	0x3f7dc69c	0.9913118
123	0x3f11ade3	0.56905955
124	0x3ef3e133	0.4763275
125	0x3f0326ee	0.51231277
126	0x3f5d1306	0.8635715
127	0x3e3125cc	0.17299575

fc2.weight f4 [128, 128]
0	0x3d363f30	0.044493854
1	0x3dbbc476	0.09168331
2	0xbd87b0b3	-0.066254996
3	0xbdf97170	-0.121798396
4	0x3e2bf584	0.16792876
5	0x3dbe7ac2	0.09300758
6	0xbddfe6c8	-0.1093269
7	0x3c18eb5d	0.009333459
8	0xbe945350	-0.28969812
9	0xbdfff7cc	-0.124984354
10	0x3d28d951	0.041222874
11	0xbe8f0814	-0.2793585
12	0xbd1e5f6b	-0.038665216
13	0x3df04515	0.11731926
14	0x3d4a0707	0.049323108
15	0xbce455de	-0.027872976
16	0x3c9957f7	0.018718703
17	0x3d37b072	0.044846006
18	0x3d0db332	0.034594722
19	0x3dce3f7a	0.10070701
20	0xbcdcd554	-0.026957192
21	0x3e231724	0.15926796
22	0x3cb6455c	0.02224987
23	0xbdcd20c7	-0.100160174
24	0xbd55dc19	-0.052211855
25	0x3e0a5b98	0.13511503
26	0x3cc8e2f7	0.024522288
27	0x3e2a0e13	0.16606931
28	0x3cb88d9e	0.022528466
29	0x3e4dacd6	0.20085463
30	0xbe0c4d9e	-0.13701484
31	0xbd6e8415	-0.058231432
32	0x3d86144a	0.065468386
33	0xbd764d44	-0.06013228
34	0xbd4090fb	-0.047013264
35	0xbc100646	-0.008790558
36	0xbd545cfb	-0.051846486
37	0x3cc81f0c	0.024428867
38	0x3ce1dbc7	0.027570618
39	0xbc5f923e	-0.013645707
40	0x3d5af8b9	0.053459857
41	0xbcf82442	-0.030290727
42	0xbdebfb33	-0.11522522
43	0x3cc39744	0.02387584
44	0xbe2c4942	-0.1682482
45	0xbcab016b	-0.0208747
46	0xbe681b47	-0.22666655
47	0xbe1e2c83	-0.15446667
48	0xbdfa4db6	-0.122218534
49	0xbd25c0f1	-0.040467206
50	0x3c3c1ad6	0.011481008
51	0x3e07d199	0.13263549
52	0xbc97f860	-0.018551052
53	0xbd1a1f6d	-0.037627626
54	0x3e2b6f14	0.16741592
55	0xbe530671	-0.20607926
56	0xbdec8587	-0.11548906
57	0x3e325c4c	0.17418021
58	0xbd8c7d62	-0.068598524
59	0xbd4bd492	-0.04976327
60	0xbd23fea7	-0.040037777
61	0x3be32852	0.006932297
62	0x3df7b909	0.120958395
63	0x3d92e469	0.07172472
64	0x3e430f12	0.19048718
65	0x3e0f7292	0.14008549
66	0x3d40b112	0.047043867
67	0x3b906d3c	0.004407553
68	0x3c2946f4	0.010331858
69	0xbbbe39a8	-0.005805213
70	0xbe3b1e49	-0.18273272
71	0x3d6548df	0.0559777
72	0x3dc40558	0.09571332
73	0x3cc22492	0.023699079
74	0xbd1a2907	-0.037636783
75	0xbd51986f	-0.051170763
76	0x3c8c5e92	0.017134938
77	0x3e01344b	0.12617604
78	0xbd546c49	-0.05186108
79	0xbe6638c2	-0.22482589
80	0xbdd1d690	-0.10246003
81	0xbc86d4a9	-0.016458826
82	0xbda68874	-0.08131495
83	0x3dbb2675	0.091381945
84	0x3e0c53c6	0.13703832
85	0xbdf92df2	-0.121669665
86	0x3d4923b2	0.049106307
87	0x3deb1097	0.11477774
88	0xbd3b042a	-0.045658268
89	0x3dc5d426	0.09659605
90	0x3e116302	0.14197925
91	0xbdb88204	-0.090091735
92	0x3d8eb015	0.06967179
93	0xbcc8046e	-0.024416175
94	0x3e0e798f	0.13913558
95	0x3e403782	0.18771175
96	0x3d2e0c5d	0.04249226
97	0x3e0539ce	0.13010332
98	0xbe0cfd5f	-0.13768528
99	0xbd8fcc59	-0.07021398
100	0x3dc9776e	0.098372325
101	0xbc9039cd	-0.017605687
102	0x3d1fa9c9	0.03898028
103	0x3db7be05	0.0897179
104	0xbe08a2c3	-0.13343339
105	0x3de7a8b2	0.11311473
106	0xbd2fd972	-0.04293198
107	0xbe08399d	-0.13303228
108	0x3e089f86	0.13342103
109	0xbdf0363a	-0.11729093
110	0xbcd98f5a	-0.026557613
111	0xbc983267	-0.018578721
112	0xbc307970	-0.01077114
113	0x3d9ce862	0.07661511
114	0x3d99253a	0.074778035
115	0xbc95fb2f	-0.01830825
116	0x3b207784	0.00244853
117	0x3db8116b	0.08987697
118	0x3d2656fd	0.040610302
119	0x3d8afb6c	0.06786236
120	0x3ca0b4ce	0.019617464
121	0x3df2f9bb	0.118640386
122	0x3dfe221c	0.124088496
123	0xbe396198	-0.18103635
124	0xbdede082	-0.11615087
125	0xbcb1485b	-0.021640947
126	0xbd9efe10	-0.07763302
127	0x3e2f1bb8	0.17100418
128	0x3e1f2e2a	0.15544954
129	0xbbb7190f	-0.005587704
130	0x3e09e69a	0.13466874
131	0x3d944903	0.072404884
132	0xbe229445	-0.15876873
133	0xbdb77f0b	-0.089597784
134	0x3d4fa751	0.050696675
135	0x3cb491e4	0.022042222
136	0x3db0e11a	0.08636685
137	0xbd3f29b8	-0.046670645
138	0x3e010e95	0.12603219
139	0x3d747596	0.05968245
140	0x3c02b35b	0.007977332
141	0x3de930ff	0.113862984
142	0x3b8d6769	0.004315306
143	0xbe2a9481	-0.16658212
144	0x3d49ca8b	0.049265426
145	0x3e32854b	0.1743366
146	0x3dbde7af	0.09272706
147	0x3e8ed1e2	0.27894503
148	0x3dd18a35	0.10231439
149	0xbd22ee3c	-0.03977798
150	0xbc244d2d	-0.010028166
151	0x3b985e84	0.004649939
152	0xbe1d9efa	-0.15392676
153	0x3c5df223	0.013546499
154	0xbd370dc4	-0.044690862
155	0x3e0c0a26	0.13675746
156	0x3d1ec685	0.03876354
157	0xbd7f98a7	-0.06240144
158	0x3df023ef	0.11725604
159	0x3e8899ee	0.2667994
160	0x3dfdb161	0.12387348
161	0xbdeb8a4a	-0.11500986
162	0x3d2dbef5	0.04241844
163	0xbe0a50f1	-0.13507439
164	0x3d231e09	0.039823566
165	0xbd9e57f9	-0.07731623
166	0xbd873fb6	-0.06603949
167	0xbd7fb0c2	-0.06242443
168	0x3def975e	0.11698793
169	0xbd85c138	-0.06530994
170	0xbe6ce043	-0.23132424
171	0xbc42e515	-0.011895438
172	0xbdf905b9	-0.12159295
173	0x3bca90ed	0.0061818273
174	0x3e1b38fa	0.15158454
175	0xbd81ddd2	-0.06341137
176	0xbe1ede8f	-0.15514587
177	0x3cc951b3	0.02457509
178	0xbcf16091	-0.029464992
179	0x3e59f914	0.21286422
180	0xbde80cf5	-0.11330596
181	0xbd567fda	-0.052368023
182	0x3d2f0a10	0.042734206
183	0xbc11585a	-0.008871162
184	0x3c95fa83	0.01830793
185	0xbd158d4b	-0.0365117
186	0x3e15dc63	0.14634852
187	0x3de46167	0.111513905
188	0xbcaec629	-0.021334725
189	0xbe234893	-0.15945654
190	0x3dcb0f3d	0.09915016
191	0x3d311305	0.04323103
192	0x3ddbf624	0.10740307
193	0x3e3546b3	0.17702751
194	0x3e85bf6c	0.26122606
195	0x3db0ceee	0.08633219
196	0xbdb5d255	-0.08878008
197	0x3db36882	0.08760168
198	0xbddc7e8e	-0.10766326
199	0x3de41b6b	0.11138042
200	0xbdc0f788	-0.09422213
201	0x3d9e7cf8	0.0773868
202	0xbd43e6fa	-0.0478277
203	0xbd45de8b	-0.048307937
204	0xbd62d56f	-0.055379327
205	0x3d4ca13b	0.04995845
206	0xbd57e55f	-0.05270898
207	0x3d9f3d19	0.07775325
208	0x3c9debee	0.01927754
209	0x3dd74eec	0.105131
210	0x3e2a95f1	0.1665876
211	0xbd876d21	-0.066126116
212	0x3e3b4d94	0.18291312
213	0xbc32981b	-0.010900523
214	0x3d8863e2	0.06659676
215	0x3e12c785	0.14333923
216	0x3dfa067a	0.122082666
217	0xbde5b601	-0.11216355
218	0xbc27db21	-0.0102451155
219	0x3dcee34a	0.10101946
220	0x3d63b4fa	0.055592515
221	0x3d7c889c	0.06165372
222	0xbdf60c3c	-0.12014052
223	0xbc88ef08	-0.016715541
224	0xbd9b49b2	-0.07582416
225	0xbdca2e6f	-0.09872138
226	0x3dfff9f4	0.12498847
227	0xbe094439	-0.13404931
228	0xbc8292f3	-0.015939211
229	0x3e0894cd	0.13338013
230	0xb90964ab	-0.0001310284
231	0x3c65edbb	0.01403373
232	0xbdc77049	-0.097382136
233	0xbd1b6fa8	-0.03794828
234	0xbd6d552a	-0.057942547
235	0xbe95319e	-0.29139417
236	0x3e1020e5	0.14075048
237	0x3e641dd4	0.22277004
238	0xbde461b5	-0.11151449
239	0x3dc03f9b	0.09387132
240	0x3df9e0a6	0.122010514
241	0xbd4f6900	-0.050637245
242	0xbd728a1c	-0.059213743
243	0xbe0356fc	-0.1282615
244	0xbd9d6563	-0.076853536
245	0x3d8360c5	0.06414942
246	0x3d7ecd74	0.062207654
247	0x3dd40aeb	0.10353645
248	0x3da3b8b3	0.07994213
249	0x3e4c2846	0.19937238
250	0xbe203a76	-0.15647301
251	0x3d2a1af6	0.04152962
252	0x3df0b418	0.117531
253	0x3d81e586	0.06342606
254	0x3d80cc4a	0.06288965
255	0xbdb49da8	-0.08819133

fc2.bias f4 [128]
0	0x3c23b440	0.009991705
1	0x3c23b09c	0.009990837
2	0x3c235d51	0.009970979
3	0x3c238475	0.009980311
4	0x3c23bf2d	0.00999431
5	0x3c23d9eb	0.010000686
6	0x3c23d207	0.009998805
7	0x3c23b810	0.009992614
8	0x3c23bef1	0.009994254
9	0x3c2434fc	0.010022398
10	0x3c25d1f7	0.01012086
11	0x3c23823d	0.009979782
12	0x3c23b0de	0.009990899
13	0x3c259fef	0.010108932
14	0x3c23d782	0.010000112
15	0x3c241734	0.010015298
16	0x3c23c7f9	0.009996408
17	0x3c2405dc	0.010011163
18	0x3c234e01	0.009967328
19	0x3c240b1d	0.010012415
20	0x3c23f02a	0.01000599
21	0x3c23f34b	0.010006736
22	0x3c23d8b6	0.010000398
23	0x3c241877	0.0100155985
24	0x3c23b135	0.00999098
25	0x3c245191	0.010029213
26	0x3c239693	0.00998463
27	0x3c23b247	0.009991235
28	0x3c247a67	0.010038949
29	0x3c216b85	0.009852295
30	0x3c23d855	0.010000308
31	0x3c2467b6	0.010034492
32	0x3c2476c5	0.0100380825
33	0x3c24312e	0.010021491
34	0x3c2419e4	0.010015938
35	0x3c23f4b1	0.010007069
36	0x3c241058	0.010013662
37	0x3c23ddb7	0.010001591
38	0x3c239ed3	0.009986597
39	0x3c2397ee	0.009984953
40	0x3c2447eb	0.010026912
41	0x3c23fa1b	0.01000836
42	0x3c244e8d	0.010028494
43	0x3c240a32	0.010012196
44	0x3c239265	0.009983634
45	0x3c2308e7	0.009950853
46	0x3c240b69	0.010012486
47	0x3c242850	0.010019377
48	0x3c2369ad	0.009973926
49	0x3c231ded	0.009955865
50	0x3c23e1b0	0.010002539
51	0x3c23a3ad	0.009987754
52	0x3c248fc1	0.010044039
53	0x3c2281f6	0.00991868
54	0x3c241821	0.010015518
55	0x3c23c9f3	0.009996879
56	0x3c250a44	0.010073248
57	0x3c238bc3	0.009982052
58	0x3c2401e9	0.010010221
59	0x3c23b4c5	0.009991829
60	0x3c23c46a	0.009995559
61	0x3c23b2e9	0.009991386
62	0x3c239975	0.0099853175
63	0x3c23fffa	0.01000976
64	0x3c23e83a	0.010004098
65	0x3c2401f2	0.010010229
66	0x3c2356a4	0.009969387
67	0x3c23a217	0.009987376
68	0x3c23fee6	0.010009503
69	0x3c23d56c	0.009999614
70	0x3c23f535	0.010007192
71	0x3c239bd2	0.009985881
72	0x3c231b12	0.0099551845
73	0x3c237136	0.009975722
74	0x3c231aac	0.00995509
75	0x3c23c85c	0.0099965
76	0x3c25189c	0.010076668
77	0x3c24e7a3	0.010064992
78	0x3c24769a	0.010038042
79	0x3c248f88	0.010043986
80	0x3c23d65b	0.009999837
81	0x3c240eac	0.010013264
82	0x3c23e14e	0.010002447
83	0x3c22e967	0.009943343
84	0x3c23f793	0.010007757
85	0x3c23e811	0.010004059
86	0x3c23bbbe	0.009993492
87	0x3c2365ec	0.009973031
88	0x3c240d3b	0.01001292
89	0x3c23ea31	0.010004566
90	0x3c235c2e	0.009970708
91	0x3c244e59	0.010028445
92	0x3c235736	0.009969523
93	0x3c23b5c9	0.009992071
94	0x3c23b82a	0.009992639
95	0x3c23f568	0.01000724
96	0x3c23b158	0.0099910125
97	0x3c2267d6	0.009912452
98	0x3c23d070	0.009998426
99	0x3c240273	0.01001035
100	0x3c234aba	0.009966547
101	0x3c241fcb	0.010017346
102	0x3c23609d	0.009971765
103	0x3c23dac4	0.010000888
104	0x3c23dfbf	0.010002076
105	0x3c23ca8e	0.009997023
106	0x3c2404c0	0.010010898
107	0x3c24033f	0.01001054
108	0x3c235438	0.00996881
109	0x3c246214	0.010033149
110	0x3c2444a3	0.01002613
111	0x3c23d4d7	0.009999475
112	0x3c23eb1a	0.010004783
113	0x3c23844d	0.009980273
114	0x3c238903	0.009981397
115	0x3c2381c0	0.009979665
116	0x3c249210	0.01004459
117	0x3c242f95	0.01002111
118	0x3c23513d	0.009968099
119	0x3c240806	0.010011679
120	0x3c248251	0.0100408355
121	0x3c239d01	0.009986163
122	0x3c23135b	0.009953345
123	0x3c2429c9	0.010019728
124	0x3c23dbd4	0.010001142
125	0x3c23f131	0.010006235
126	0x3c23e3ff	0.010003089
127	0x3c23c028	0.009994544

bn2.weight f4 [128]
0	0x3fd20763	1.6408504
1	0x3fae3044	1.360848
2	0x3fc9ef64	1.5776181
3	0x3fb68b35	1.4261233
4	0x3faf10ba	1.367698
5	0x4001dd2d	2.0291245
6	0x3fbbb49b	1.4664491
7	0x3fcf17d1	1.6179143
8	0x3fa565d9	1.2921706
9	0x3fb35e9b	1.4013246
10	0x40051b4c	2.079791
11	0x3f993efa	1.1972344
12	0x3fb75407	1.4322518
13	0x3fe23175	1.7671343
14	0x3fad0df8	1.3519888
15	0x3fbe782d	1.4880425
16	0x3fbec351	1.4903356
17	0x3fd5c60a	1.6701062
18	0x3fbca87d	1.4738919
19	0x3fd57cbf	1.6678694
20	0x3faebe24	1.3651776
21	0x3fc29834	1.5202699
22	0x3fa39184	1.2778783
23	0x3fb59ec8	1.4189081
24	0x3fea8b08	1.8323679
25	0x3fc023a9	1.5010883
26	0x3fc95201	1.5728151
27	0x3f99e1fe	1.2022092
28	0x3fbf9d87	1.4969949
29	0x3fdb28b5	1.7121798
30	0x3fa01920	1.2507668
31	0x3fb9b8ac	1.4509482
32	0x3fee4778	1.861556
33	0x3fb5cf67	1.4203919
34	0x3fa648b0	1.2990932
35	0x3fa8cf29	1.318822
36	0x3ffaf5c5	1.9606253
37	0x3fbdddab	1.4833273
38	0x3fb807c5	1.4377371
39	0x3fb5aa87	1.4192666
40	0x3fb3da50	1.4050999
41	0x3fc7a3f5	1.5596911
42	0x3fcbf8be	1.5935285
43	0x3fbbe125	1.4678084
44	0x3fe62375	1.7979571
45	0x3fd4a357	1.6612347
46	0x3fb94ea3	1.4477123
47	0x3fa2dc15	1.2723414
48	0x3fbda71c	1.4816623
49	0x3ff36890	1.9016285
50	0x3f9ed0b8	1.2407446
51	0x3fb361d6	1.4014232
52	0x3fa76703	1.3078312
53	0x3fcff19f	1.6245612
54	0x3fca8db6	1.5824497
55	0x3fc4b1f1	1.5366803
56	0x3fc9f911	1.5779134
57	0x3fa1b116	1.2632167
58	0x3faf033c	1.3672862
59	0x3fbbf38e	1.4683702
60	0x3f9e41f6	1.236388
61	0x3fa59a69	1.2937747
62	0x3feaa6b9	1.833213
63	0x4006e5a8	2.107767
64	0x3fab6c4f	1.3392428
65	0x3fd48914	1.6604333
66	0x400b87e2	2.1801686
67	0x3fc86704	1.5656438
68	0x3fb129c1	1.3840867
69	0x3fc371b6	1.5269077
70	0x3fbf5260	1.4947014
71	0x3fcb5eb4	1.5888276
72	0x3ff1aa01	1.8880006
73	0x3fac8608	1.3478403
74	0x3ffecf19	1.9906951
75	0x3fe2fc22	1.7733195
76	0x3fcf87be	1.62133
77	0x3fce055f	1.6095389
78	0x3fadd324	1.358006
79	0x3fe3d334	1.7798829
80	0x3fb38f1f	1.4028052
81	0x3fb8caa0	1.4436836
82	0x3faa0ed8	1.328578
83	0x3fd9c2d2	1.701258
84	0x3fbf75f6	1.4957874
85	0x3fea8bd1	1.8323919
86	0x3fd1d9bc	1.6394572
87	0x3fb90609	1.4454967
88	0x3fbb46c1	1.4630967
89	0x3faafb2f	1.3357905
90	0x3feb9846	1.8405845
91	0x3fb12664	1.3839841
92	0x3fc564ea	1.5421422
93	0x3fde44c2	1.7364733
94	0x3fdfc3ac	1.7481589
95	0x3fb5f374	1.4214921
96	0x3fa90b04	1.3206487
97	0x3fd3a032	1.6533263
98	0x3fb5d5bb	1.420585
99	0x3faf4104	1.3691716
100	0x3fca877c	1.5822597
101	0x3fb57f33	1.4179443
102	0x3fbcd180	1.4751434
103	0x3fd64095	1.6738459
104	0x3fbe971a	1.4889863
105	0x3fadad60	1.3568535
106	0x3fe6b76e	1.8024728
107	0x3fa91fcd	1.321283
108	0x3fb55aee	1.4168375
109	0x3fd79476	1.6842182
110	0x3fc99b4c	1.5750518
111	0x3fb28f9d	1.3950077
112	0x3ff1dfff	1.8896483
113	0x3fc48190	1.5352039
114	0x3fb2554f	1.3932284
115	0x3fafe01f	1.3740271
116	0x3fbfb18d	1.4976059
117	0x3fdeca03	1.7405399
118	0x3fd0ca48	1.6311731
119	0x3fc0f195	1.5073725
120	0x3fcf6d4b	1.6205229
121	0x3fc21009	1.5161144
122	0x3fa57529	1.292638
123	0x3fccf5b1	1.6012479
124	0x3fc40dca	1.5316708
125	0x3fcec189	1.6152812
126	0x3fb637dc	1.4235797
127	0x3fd8435b	1.6895555

bn2.bias f4 [128]
0	0x3dffc976	0.124895975
1	0x3ce150a6	0.027504276
2	0xbd6194a3	-0.05507339
3	0x3c151436	0.009099057
4	0x3da42139	0.08014149
5	0x3dfab6f3	0.12241926
6	0xbe1243ab	-0.14283626
7	0x3d507fda	0.05090318
8	0x3c03a199	0.008034133
9	0x3cfacda1	0.03061563
10	0x3e237f3d	0.15966506
11	0x3d1dc7a6	0.038520478
12	0x3dee7cdd	0.116449095
13	0x3de5b708	0.11216551
14	0x3e327913	0.17428999
15	0xbbe6d3aa	-0.0070442753
16	0x3dcb5d54	0.0992991
17	0x3e65ca69	0.22440495
18	0x3e0350d6	0.12823805
19	0x3e93d7f5	0.288757
20	0x3db1f8a4	0.086900026
21	0x3e7d3173	0.24725895
22	0x3e1354ec	0.14387864
23	0x3e02af0e	0.1276209
24	0x3e18b90b	0.14914338
25	0x3da5a7bd	0.08088634
26	0xbb1480ac	-0.0022659702
27	0xbbbdc34e	-0.0057911044
28	0x3d7dc745	0.061957616
29	0x3cf7e7ff	0.030261992
30	0x3dcce5d5	0.100047745
31	0x3be0417e	0.006843745
32	0x3d68ac7f	0.05680513
33	0x3e04e869	0.12979282
34	0x3d554a4a	0.0520728
35	0x3c8fc148	0.017548218
36	0x3e0bd487	0.13655291
37	0x3d49e45b	0.049290042
38	0x3d401f24	0.046904698
39	0x3db0718e	0.08615409
40	0x3cb9e75b	0.022693327
41	0x3d5cfb6a	0.053950705
42	0x3e0b996d	0.13632746
43	0x3d1770e1	0.036972884
44	0x3e39251b	0.18080561
45	0x3dd2fb75	0.10301868
46	0x3da362c0	0.079778194
47	0x3dbf4b38	0.09340519
48	0x3d9e38ca	0.077256754
49	0x3e080673	0.1328371
50	0x3e137ce1	0.14403106
51	0x3cbb3dd6	0.022856634
52	0x3c8e4a59	0.017369436
53	0x3de35e71	0.11101998
54	0xbd0ba617	-0.034093942
55	0x3d8d697e	0.06904887
56	0xbc6d84a3	-0.014496955
57	0x3d3521cc	0.044221684
58	0x3da5fc79	0.08104796
59	0xbcf05584	-0.029337652
60	0x3e022c6e	0.12712261
61	0x3df2fbac	0.11864409
62	0xbb717f93	-0.0036849722
63	0x3e8ab761	0.27093032
64	0x3ceb5c2c	0.028730474
65	0x3e133864	0.1437698
66	0x3e2a08dc	0.16604942
67	0x3e211842	0.1573191
68	0x3e08b102	0.13348773
69	0x3d8c966c	0.06864628
70	0x3d82c0a3	0.06384399
71	0x3e762675	0.24038108
72	0xbb911479	-0.0044274894
73	0xb9849418	-0.0002528734
74	0x3def8bd2	0.116965905
75	0xbdc4a252	-0.09601273
76	0x3e31145a	0.1729292
77	0x3e41e97c	0.18936723
78	0xbc0fc29b	-0.008774425
79	0x3b1917ab	0.0023360054
80	0xbbfd04dc	-0.0077215265
81	0x3dbbea2e	0.091755256
82	0x3d1d6288	0.038424045
83	0x3e2d3b37	0.1691712
84	0x3e0cf6f6	0.13766083
85	0x3e58fc14	0.2118991
86	0x3c21a942	0.009867014
87	0xbdd49555	-0.10380045
88	0x3d3adb3b	0.04561923
89	0x3d554d9e	0.052075975
90	0x3de6dc7f	0.11272525
91	0x3d915295	0.070958294
92	0x3b955bbd	0.004558055
93	0x3dcad160	0.09903216
94	0x3c35514f	0.011066749
95	0x3da119da	0.07866259
96	0xbd3e31f8	-0.046434373
97	0x3e3fcc29	0.18730225
98	0x3e0de9b8	0.13858688
99	0x3d9b04e6	0.07569294
100	0x3d36b5e4	0.04460706
101	0x3db6b1ae	0.089206085
102	0x3d9b2943	0.075762294
103	0x3d228652	0.03967888
104	0x3d0ee682	0.034887798
105	0x3b65675d	0.0035004236
106	0x3dbd6caa	0.09249242
107	0x3c84196a	0.0161254
108	0x3d2c5431	0.04207248
109	0x3e1bdece	0.15221712
110	0x3d9c78eb	0.07640251
111	0x3e0d96c6	0.13827047
112	0x3e8b21fe	0.2717437
113	0x3ce5d160	0.02805394
114	0x3d7c3015	0.061569292
115	0xbd2bfffa	-0.041992165
116	0x3e0c0fc9	0.13677897
117	0x3c2740f4	0.010208357
118	0x3d4330f7	0.04765412
119	0x3d8023a1	0.06256796
120	0x3e6f4cdf	0.23369168
121	0x3d8bc905	0.06825451
122	0x3c4d84c4	0.012543861
123	0x3e923cbe	0.28561968
124	0x3da2259e	0.07917331
125	0xbcc26822	-0.023731295
126	0x3d3b7829	0.04576889
127	0x3e27fd43	0.16405205

bn2.running_mean f4 [128]
0	0x3e8942e0	0.26808834
1	0x3f861168	1.0474062
2	0x3f0f78ef	0.56043905
3	0x3f29dccc	0.66352534
4	0xbf13b85b	-0.5770318
5	0x3ec18f02	0.3780442
6	0x3ea79f7a	0.32738858
7	0xbece36c5	-0.4027616
8	0x3f6615f8	0.8987727
9	0x3f3a5651	0.7278796
10	0xbf132fc1	-0.5749474
11	0xbf80bc56	-1.0057476
12	0xbf6f9bf2	-0.9359733
13	0xbf794949	-0.9737745
14	0xbddc9a3a	-0.10771604
15	0x3eaed3c4	0.3414594
16	0x3f89b9a4	1.0759778
17	0xbea57142	-0.3231297
18	0xbec4c971	-0.38434938
19	0xbe68bc38	-0.2272805
20	0xbf321fc5	-0.69579726
21	0xbe359a84	-0.17734724
22	0xbf5635f1	-0.8367606
23	0xbe01a68e	-0.12661192
24	0xbd6c0faa	-0.057632126
25	0xbd835eb0	-0.064145446
26	0x3e5e78f2	0.21725824
27	0x3ec0aac1	0.37630275
28	0x3f4ab53d	0.791828
29	0x3f73e4aa	0.9527079
30	0x3cf5a279	0.0299847
31	0x3fb5bb02	1.4197695
32	0xbeeba24d	-0.46022263
33	0xbe91072e	-0.2832579
34	0x3da282b5	0.07935087
35	0x3eb42405	0.3518373
36	0x3f878cfc	1.05899
37	0x3dd8f74f	0.10594045
38	0xbec12750	-0.37725306
39	0x3ec63c4f	0.38717887
40	0xbf010f64	-0.5041411
41	0x3f9ef414	1.2418237
42	0x3e5ae7fd	0.21377559
43	0xbe897f85	-0.26855102
44	0x3ecd9cd6	0.4015872
45	0x3f601b5a	0.87541735
46	0xbf7e1305	-0.9924777
47	0xbea9bc89	-0.33151653
48	0xbee64739	-0.44976214
49	0xbf2b94bd	-0.6702383
50	0x3ea516ba	0.32243901
51	0x3ef3bba2	0.4760409
52	0xbf645a5c	-0.8920038
53	0xbf73b9ed	-0.95205575
54	0x3ddc1229	0.10745651
55	0xbf566e95	-0.83762485
56	0x3e31d89d	0.17367788
57	0xbeeeef19	-0.46666792
58	0xbe7b3534	-0.24532014
59	0x3ca4b7d2	0.020107184
60	0xbeb659ac	-0.3561529
61	0xbea23ca9	-0.31686905
62	0x3de98e3e	0.11404084
63	0x3c4cf945	0.012510602
64	0xbf3057f2	-0.68884194
65	0x3fa49065	1.2856566
66	0xbdf03c82	-0.11730291
67	0x3e85d7ae	0.26141113
68	0x3df4cb92	0.119528905
69	0x3f01f0df	0.50758165
70	0x3f0855fd	0.5325621
71	0xbe943a9d	-0.28950968
72	0xbdbf0765	-0.09327582
73	0x3e1672a4	0.1469217
74	0x3dfede7a	0.12444778
75	0xbd442a48	-0.047891885
76	0x3f7e1fd6	0.9926733
77	0x3f875e98	1.0575743
78	0x3f85287f	1.0402983
79	0x3f80001e	1.0000036
80	0x3e792b8a	0.24333015
81	0xbf23c71f	-0.6397571
82	0xbf1b0c97	-0.60566086
83	0xbec2a2fc	-0.38014972
84	0x3fd8f006	1.6948249
85	0x3db9bc19	0.0906908
86	0x3ed94f85	0.4244348
87	0xbea6206d	-0.32446614
88	0xbed177fe	-0.4091186
89	0x3ee1a0d5	0.44068018
90	0x3e8210bd	0.25403395
91	0xbe908910	-0.2822957
92	0xbf34869b	-0.7051789
93	0xbe874992	-0.26423317
94	0x3fad1894	1.3523126
95	0xbf9f92ac	-1.2466636
96	0x3e71de06	0.23619851
97	0x3f0cfe3e	0.5507544
98	0xbf06beef	-0.5263509
99	0x3e4e2136	0.20129856
100	0xbf490207	-0.7851872
101	0x3f9847e8	1.1896944
102	0x3eee7562	0.4657393
103	0xbca53b4b	-0.020169875
104	0xbd56529c	-0.052324876
105	0xbe4cd471	-0.20002915
106	0xbf20c47f	-0.6279983
107	0x3db3ea91	0.08784974
108	0xbb06be44	-0.0020560184
109	0xbf1a462b	-0.6026332
110	0xbd641b06	-0.055689834
111	0x3ecb2587	0.3967707
112	0x3f4d46a8	0.8018594
113	0x3ec6791f	0.38764283
114	0xbf105228	-0.5637536
115	0x3f2214f5	0.6331323
116	0xbec737ad	-0.38909665
117	0x3d3a3ef0	0.045470178
118	0x3ef18157	0.4716899
119	0x3f481582	0.7815782
120	0xbf2b8d59	-0.67012554
121	0xbf052651	-0.5201159
122	0x3f8bbc6c	1.0916877
123	0xbf01a8e7	-0.5064835
124	0x3eee75a6	0.46574134
125	0x3caee152	0.021347675
126	0x3eba92a4	0.36440003
127	0xbeee469e	-0.46538252

bn2.running_var f4 [128]
0	0x3ef887c7	0.4854109
1	0x3f190f5b	0.59789056
2	0x3e96e7aa	0.2947362
3	0x3fc2cc56	1.5218608
4	0x3f76447d	0.96198255
5	0x3f4980d3	0.78712195
6	0x3f870370	1.0547924
7	0x3f7368c7	0.9508175
8	0x3fa6400e	1.2988298
9	0x3f80f43e	1.0074537
10	0x3e91db0d	0.28487435
11	0x3f02d92f	0.51112646
12	0x3f90d591	1.1315175
13	0x3eac760d	0.33683816
14	0x4003e16c	2.0606337
15	0x3f67a3d0	0.90484333
16	0x3f7780e7	0.96681064
17	0x3ec7f053	0.3905054
18	0x3eb8d6be	0.36101335
19	0x3f1a9e03	0.60397357
20	0x3f4b1139	0.79323155
21	0x3efb1d9b	0.49046025
22	0x3ffbeefc	1.9682307
23	0x3f13dd28	0.5775933
24	0x3f670ad6	0.9025091
25	0x3f0fefd8	0.5622535
26	0x3fb683fa	1.4259026
27	0x3f9ba49a	1.2159607
28	0x3ef34b3f	0.47518346
29	0x3f15ef0c	0.5856788
30	0x3f3252de	0.69657695
31	0x3eedc830	0.46441793
32	0x3eeab81f	0.45843598
33	0x3f679099	0.90455014
34	0x4002c811	2.043461
35	0x3f1f9f7a	0.62352717
36	0x3f10037d	0.5625532
37	0x3f055376	0.52080476
38	0x3ee520cb	0.44751582
39	0x3f7e135a	0.9924828
40	0x3ed5e2cf	0.41774604
41	0x3eeaf136	0.45887154
42	0x3f1e50e4	0.6184218
43	0x3ec9693b	0.39338097
44	0x3f3d3454	0.7390797
45	0x3f2ce6bf	0.6753959
46	0x3f84d0a0	1.0376167
47	0x3f875c8f	1.0575122
48	0x3ed60431	0.41800073
49	0x3ef6d72b	0.48211035
50	0x403e1061	2.9697497
51	0x3f04051e	0.5157031
52	0x3f87ed63	1.061932
53	0x3f54362c	0.8289516
54	0x3f076014	0.5288098
55	0x3e9eeab5	0.31038442
56	0x3ec5ba4e	0.38618702
57	0x3f8358a8	1.0261431
58	0x3f98aabe	1.1927106
59	0x3ea256f9	0.3170698
60	0x40522fa6	3.2841582
61	0x3f94986e	1.1609018
62	0x3f8eedba	1.1166298
63	0x3f093224	0.53592134
64	0x3f1d1e0c	0.6137397
65	0x3ec3c274	0.38234293
66	0x3f38ca23	0.72183436
67	0x3f7e7677	0.99399513
68	0x3ead47ab	0.3384374
69	0x3f269f9c	0.65087295
70	0x3f72394c	0.9461868
71	0x3f7712b1	0.96512896
72	0x3e985743	0.29754075
73	0x3fa1bf09	1.2636424
74	0x3ea55eb0	0.32298803
75	0x3f66ac7c	0.9010694
76	0x3f93c02a	1.1543019
77	0x3f2a649f	0.66559786
78	0x3f620154	0.88283277
79	0x3edf7fdf	0.43652245
80	0x3eedd9a8	0.4645512
81	0x3ed3c2b3	0.4135948
82	0x3f1ee674	0.62070394
83	0x3e9eb844	0.3099996
84	0x3f656460	0.89606285
85	0x3ed26aed	0.41097203
86	0x3fa05c0e	1.2528093
87	0x3fa7e7ad	1.3117577
88	0x3fb316f2	1.3991377
89	0x3f14049a	0.5781952
90	0x3edc8434	0.43069613
91	0x3f283d11	0.6571818
92	0x3e83c257	0.25734207
93	0x3ea79c15	0.3273627
94	0x3f5f26fc	0.8716886
95	0x3eab7a1b	0.33491597
96	0x3e3f7727	0.18697797
97	0x3e930d52	0.287211
98	0x3f6e6132	0.9311706
99	0x3fb56896	1.4172542
100	0x3f61d17e	0.88210285
101	0x3f264a46	0.6495708
102	0x3eec61d2	0.4616838
103	0x3f226abf	0.6344413
104	0x3ecd1fd0	0.40063334
105	0x3f5c7220	0.8611164
106	0x3fb20d31	1.3910276
107	0x3f140fa4	0.57836366
108	0x3eb55daf	0.35423037
109	0x3ef0dddc	0.47044265
110	0x3e5d30aa	0.21600595
111	0x3f5c9ce4	0.86176896
112	0x3e924466	0.2856781
113	0x3eb8dc55	0.361056
114	0x3f001ec0	0.5004692
115	0x3f00000f	0.5000009
116	0x3f0867b5	0.53283244
117	0x3f0ea3e8	0.5571885
118	0x3f77bc2f	0.9677152
119	0x3f81ea89	1.01497
120	0x3e99b22c	0.30018747
121	0x3efe1045	0.49621788
122	0x3f42416c	0.75881076
123	0x401251f3	2.2862518
124	0x3e9fd56f	0.31217524
125	0x3f947f75	1.1601397
126	0x3facda41	1.3504106
127	0x3f8e9f53	1.1142372
