p3/ckpt/critic_backup.pth (torch_old, 82515 bytes, 9 tensors)

bn0.weight f4 [24]
00000000: a99a ee3e bd12 ea3e 423c e53d 03b0 cb3c
00000010: 11ca d03f 2681 703f 589d 0b3e 0874 793e
00000020: f46b c43e 9862 383e 6f52 783e 3d10 393e
00000030: fda2 9e3f 7456 083f 38fd 233e e10b 363e
00000040: 5707 613f 884e 1e3f 099a a63e 7fc4 143f
00000050: af26 e63f a1d8 8a3f 6340 8a3e 0ccb f43e
0.4660237 0.4571742 0.11193134 0.024864202 1.6311666 0.93947065 0.1363424 0.24360669
0.38363612 0.1800636 0.24250196 0.180726 1.239349 0.53256917 0.16014564 0.17777969
0.87901825 0.6183858 0.32539394 0.5811233 1.7980555 1.084736 0.27002248 0.47811162

bn0.bias f4 [24]
00000000: 691a 583e 7898 d1bd 04c7 d13d 5c6e 87be
00000010: 4a0a b03c 836d 91bc 9dcb ac3d d096 6bbb
00000020: 5fda 533d 9fbd 10be eb90 23bd 1ac7 8ebd
00000030: a1e5 9e3d 8ffb 57be c069 9d3e 2486 68bd
00000040: eb8d 433e 1f6f ccbe 5c0d 843e a792 af3d
00000050: 2918 2d3e 2389 4b3e 5280 17be c821 8ebe
0.21103825 -0.10234159 0.10243037 -0.26451385 0.021489281 -0.017752415 0.08437274 -0.0035948046
0.051721927 -0.14134835 -0.039933126 -0.06971569 0.07758642 -0.21092056 0.30744743 -0.05676855
0.19097106 -0.3992853 0.25791442 0.085728936 0.16903748 0.19876532 -0.14795044 -0.27760148

bn0.running_mean f4 [24]
00000000: 7762 7bc0 8b5b 60bf 113c 4a41 4b96 e33c
00000010: d2d4 71bd 3daf 6e40 113c 4a41 4b96 e33c
00000020: 37a1 7bc0 ead5 65bf 435c 5b41 ba44 abbc
00000030: 6f4b a2bc d937 7140 435c 5b41 ba44 abbc
00000040: 2f8f 7ec0 143b 6dbf fb1c 5d41 13d4 8dbd
00000050: 6fe0 0abd 35c2 7340 fb1c 5d41 13d4 8dbd
-3.9278848 -0.87639683 12.639665 0.027781626 -0.059040852 3.7294457 12.639665 0.027781626
-3.9317148 -0.8977953 13.710025 -0.020906795 -0.01981136 3.7690337 13.710025 -0.020906795
-3.9774892 -0.9266827 13.819575 -0.069252156 -0.033905443 3.8087285 13.819575 -0.069252156

bn0.running_var f4 [24]
00000000: a05b 7e41 59f1 8c3f b788 da43 6cc1 2a41
00000010: 3c41 eb41 eb0c 3840 b788 da43 6cc1 2a41
00000020: b4ad 7a41 0afb 8b3f 36eb d643 dc0a 2c41
00000030: ae9b f541 3462 3640 36eb d643 dc0a 2c41
00000040: c763 7741 a00c 8a3f bf80 dd43 aeaf 3541
00000050: 53da 0142 6257 3c40 bf80 dd43 aeaf 3541
15.897369 1.1011153 437.06808 10.672222 29.406853 2.8757885 437.06808 10.672222
15.667408 1.0935986 429.8376 10.752651 30.701015 2.8497438 429.8376 10.752651
15.46186 1.0785103 443.00583 11.355391 32.463207 2.9428334 443.00583 11.355391

fc1.weight f4 [128, 24]
00000000: 15df d0bd 4cba 5c3e 08be 6ebd 8dc0 c53d
00000010: b474 d2bd 23ff 0cbe 8791 df3e b25e 2b3e
00000020: 45e5 3e3d 3d29 95ba acf4 d6bc 18eb 2bbe
00000030: 2c64 a03d 138b 993d 1ad2 4bbe c877 62be
00000040: 1ed2 463e 8a38 a9bd 291a 7d3e 83dc 40be
00000050: cd92 7fbd ada7 6bbe 7134 e93d 742c b53d
00000060: ad94 55be 91d6 16bd 249a 3dbe 903e 863e
00000070: d17b cf38 8f8c e63b 0cb7 09bc d6bf 97bc
00000080: a49e 3c3e 6e07 ad3d 08ee 44bd 13f8 263d
00000090: 4864 1a3e de30 af3c a42d d2be 1a73 41bd
000000a0: c3b2 e43d 1d29 8f3c 621e cfbe bdb2 22be
000000b0: 5856 1fbf 4291 023e 1cbe 723e 0447 203e
000000c0: 8b8c 743e 46a4 96bc 8136 dbbe cc0f d33c
000000d0: 2bfc 8c3e ad89 c93d d974 aebe 9d5c a5bd
000000e0: 3480 cd3e f411 8cbd 6717 b3be 8b03 9a3d
000000f0: 53ac f53d ff34 f1bd 35c4 c8be 2457 543c
00000100: f266 c13e e984 97bd 1287 a0be c5d8 35be
00000110: 327d babe ae73 aabe 462e 10be 4d90 443d
00000120: a433 08bf 1389 133e a88d 8dbe 5ef8 2cbd
00000130: 3cc8 d43e 3b99 803d f06c 21bf 9fbe 2fbb
00000140: b2d3 5cbe 52aa 073f 88df 21be e156 59be
00000150: 4d64 073e 250d af3e 659c 39bc 0f52 163e
00000160: 18f0 b0be 423e 983e e582 24be 5f75 1dbe
00000170: 6b0d 823e 9510 8fbe 7914 a23c d0a1 6f3d
00000180: d9d5 61be 78fd a03d b9e3 81bd 15fd 49ba
00000190: 6da7 b73e a0e9 3dbe 3ee4 30be 5e5a 0c3e
000001a0: c2ac 82be 4081 d43d f2f2 31be 1aa9 3d3d
000001b0: ec6a 473f 9c6b e8bc ef50 5ebe 56c7 f3bd
000001c0: e936 f83d 1504 e6bd f733 e93d 33cc 0ebe
000001d0: ea62 bf3e 2e63 0a3e d206 8c3e 9304 15bd
000001e0: b085 3b3d cfc0 933e 6a87 06be 45d5 453e
000001f0: 35c8 e73e f7f2 273d 7e29 b93d d9e5 203c
00000200: 22ad 873d b6f7 18be 727b 693e dc4f 05bd
00000210: 4c1d 9ebc 474f fb3d 891d 05be 8c10 d43d
00000220: aefc 213e 98bf 0fbe 1f27 6bbd a779 bf3d
00000230: 9200 3fbf c347 e0bd ec45 a53e c56e 1bbe
00000240: a501 18be f79c 3fbd bd29 023e 7335 7a3e
00000250: 0e28 10be c492 cf3c 33b1 9a3e 0f44 99bd
00000260: c166 493e 6a1c 023d 5f94 673e c154 0ebd
00000270: b53b de3d 02ed c03e 8394 98be e9d7 f43c
00000280: 07f5 febd 7a7f 603e 4abc d93d 2d6e 9c3c
00000290: a4d0 043f ea18 7b3e 761a 4e3e 174c 573e
000002a0: 1cd3 f63e 4197 d4bd 1dfb 773e 4ed2 ab3d
000002b0: f0ee dc3d d95c f83e ee18 843e 6a97 8e3e
000002c0: 44b9 6a3e 7f7e 593c 8087 f13e 71d4 0e3e
000002d0: 6ca2 99bc 0dfa b83d ed99 3e3e 37f9 82bb
000002e0: 991b d23e 983d e2bd dd4a c33e c4e6 993d
000002f0: d497 c2be a655 38be f437 373f 56a4 d13b
00000300: c18c 9b3d 57fe a43e 0e5e c7bd 4b10 1b3e
00000310: 0f9b 263f 622d 413e 11cc 073d e1b2 80be
00000320: 33ef 913b c2bf 943e 7ebe c53e 0e46 8fbd
00000330: 3479 1f3e 14e9 d63d 1ab7 833c 3f70 a03c
00000340: 6218 a3bd daa7 0e3f a1d7 63bc a455 de3e
00000350: e5cf 3abe 97c5 f5bd ae16 f53d cef7 333f
00000360: 4421 dd3d 664f 00be 80e3 2abe a5db 773d
00000370: 6b70 3ebc 4a69 9b3e c8e7 913d 96e1 fc3d
00000380: 1bc5 89bc 906f dc3d 93ec dc3d 0b07 8a3e
00000390: f60b 1e3e 2fe3 e1be b642 cd3d fb45 2c3d
000003a0: 72cc 363e da83 89be 7632 0c3e 5d9e 46bd
000003b0: 9500 8ebe 4499 edbe 19e5 b0bd 2313 06be
000003c0: 7a5e 4e3c 500c 92be 55f3 d0be 43f2 573e
000003d0: fc89 6e3e 9426 dabd 8ac6 60be 0750 3c3e
000003e0: a4bd 19be 6b48 c9be 3131 633d 6885 5ebc
000003f0: e436 7a3e 9531 a53e a97d 97be 63d9 463e
-0.101987995 0.21555442 -0.058286697 0.09655867 -0.102761656 -0.13769202 0.43665716 0.16735342
0.046605367 -0.0011380088 -0.026239716 -0.167889 0.07831606 0.074972294 -0.19904366 -0.22116005
0.19416091 -0.08262737 0.2471701 -0.18834119 -0.06239586 -0.23013182 0.113869555 0.088463694
-0.20857497 -0.03682572 -0.18515831 0.26219606 9.893592e-05 0.007035799 -0.008405458 -0.018524092
0.18419892 0.08448683 -0.048078567 0.040763926 0.15077317 0.021385606 -0.41050446 -0.04722891
0.111669086 0.017475659 -0.40452868 -0.15888496 -0.62241125 0.12750724 0.23705333 0.1565209
0.23881738 -0.018388879 -0.4281502 0.025764368 0.2753614 0.09840713 -0.34073523 -0.08074305
0.40136874 -0.06839362 -0.34978792 0.07520207 0.11995759 -0.11777686 -0.39212194 0.012960229
0.37773854 -0.073983975 -0.3135305 -0.17758472 -0.3642364 -0.33291382 -0.14080152 0.04798918
-0.532038 0.14407758 -0.27647138 -0.04222905 0.41559017 0.062792264 -0.6305685 -0.00268165
-0.2156513 0.52994263 -0.15807927 -0.21224548 0.13221855 0.34189716 -0.011328791 0.1467974
-0.34558177 0.29735 -0.16065557 -0.15376805 0.25400862 -0.2794234 0.019785153 0.058503926
-0.22054233 0.07860845 -0.06342263 -0.00077052537 0.35869923 -0.18546152 -0.17274567 0.13706347
-0.2552243 0.10376215 -0.17377833 0.046303846 0.77897525 -0.028371625 -0.21710561 -0.11903255
0.12119848 -0.11231247 0.11386865 -0.13945083 0.37380153 0.13514397 0.27348953 -0.036381315
0.04578179 0.2885804 -0.13137594 0.19319637 0.45269933 0.041003194 0.09041117 0.009820425
0.06624819 -0.14938244 0.22800997 -0.032546863 -0.01930108 0.1227098 -0.12999548 0.103547186
0.15819046 -0.14037931 -0.057410356 0.09349375 -0.74610245 -0.109511875 0.3227991 -0.15178974
-0.14844377 -0.046780553 0.12711234 0.24434452 -0.1407778 0.025338538 0.30213317 -0.07483684
0.19668104 0.03176538 0.22615193 -0.034748796 0.10851232 0.37680823 -0.29800805 0.02988811
-0.12449079 0.21923628 0.106316164 0.019095505 0.5188086 0.24521223 0.20127282 0.2102512
0.4820794 -0.10380412 0.24216886 0.08389722 0.10787761 0.48508337 0.2580027 0.27849895
0.22922236 0.013274788 0.4717369 0.13948227 -0.018754207 0.090320684 0.18613406 -0.003996994
0.4103668 -0.11046904 0.38143054 0.07514718 -0.3800646 -0.18001422 0.7156975 0.006397764
0.07595206 0.32225296 -0.097347364 0.15142934 0.6508035 0.18864968 0.033153597 -0.25136474
0.0044535636 0.2905255 0.38621897 -0.06995784 0.15573579 0.10493675 0.01607852 0.019584773
-0.07963635 0.5572487 -0.01390639 0.43424714 -0.18243368 -0.12000578 0.119672164 0.70299995
0.107973605 -0.12530288 -0.16688347 0.060512204 -0.011623482 0.30353767 0.07124287 0.123477146
-0.01681762 0.10763466 0.107873105 0.26958498 0.1543425 -0.4411864 0.1002249 0.042058926
0.17851427 -0.26858407 0.13691124 -0.04849087 -0.2773482 -0.46405995 -0.08637447 -0.13093238
0.012595767 -0.2852502 -0.40810648 0.2108851 0.23294824 -0.106518894 -0.21950737 0.18389903
-0.15013748 -0.39313063 0.055466834 -0.013581611 0.24435002 0.3226439 -0.2958806 0.19418864

fc1.bias f4 [128]
00000000: 62f6 ecbd 4d30 35bf 1f73 e5be 56b1 84be
00000010: 5960 e8bd ce91 1abf d46a 93be d6df 7a3d
00000020: b369 3dbe 2947 85bc b6ba a2be 94ac 8bbd
00000030: 6514 34be d87b dcbe 02f3 1cbe 5e9e d9be
00000040: 66c4 65be 9aed a6be dc69 2dbe bedb 70be
00000050: e3e1 293d 80d1 f5bc 9627 aebe b668 fabd
00000060: 76c4 08bf 08c2 d0be ecc4 a4be 8c33 93be
00000070: 8f56 51be d797 1bbe f558 85be 0b55 c6be
00000080: b655 6fbe 5b39 5fbe 90fd c8bd f357 3bbe
00000090: 8472 cabe 4056 32be 89c7 27be 0d83 f8bd
000000a0: aaaa 29be a85b 6ebe 4d56 9dbe d2f4 25bf
000000b0: 02cf 2bbe fc22 7cbd 8bfe 123e 1355 03be
000000c0: 4a0f c9be 4136 3abe 733a 77bd bcef 34bd
000000d0: c5a3 67be adad 1dbe d4e6 12be 083d f0be
000000e0: 9942 86be 7a1f febe e689 edbd 633d 77be
000000f0: bb05 9cbd ca11 cebe e9f4 98bd ed87 7ebe
00000100: 448a dabe 194d 653d 74f6 d7bd 02de 63bd
00000110: 5c72 2abe 9719 42be 9c3e 03be cb17 7fbe
00000120: dfdb 34bf d372 a7be 1cce eabd 7555 683e
00000130: e83a 0ebe 37c0 f7bd dff5 6abd 3e4c 1bbe
00000140: d5c4 e7bd 8e38 adbe 8fbf 98bd f4db a6be
00000150: ebd2 92bd a982 28bd afe1 bdbd 38e0 1c3e
00000160: de99 e2bd 146e 78be 3b93 9a3d 5505 94be
00000170: 98e0 5bbe ce22 bebd 5acb 073d 6b70 eabe
00000180: 6155 5abd e27a 57be 81b5 90be 49e0 e8bd
00000190: 63a0 98be 6212 77be 8120 d6bd f1a5 cebe
000001a0: 6f5f 0fbe 8a88 54be 0729 67be ac00 babe
000001b0: 2f6b 84bd fc08 95bc 3447 9ebd d05a 57bd
000001c0: f9f8 c3bd 9855 cbbe 4291 2e3d ddb8 bebe
000001d0: 0c07 d1be b45b 6cbe e78c 94be 2cbb babe
000001e0: 4801 d8be cc2b 73be 065a 19bc 5147 0dbf
000001f0: f97b 4bbe 0a36 57be 9c9b 90be cb27 84be
-0.11570431 -0.70776826 -0.44814393 -0.25916547 -0.11346502 -0.6037873 -0.2879244 0.061248623
-0.18497352 -0.016269283 -0.31783074 -0.06820026 -0.17585905 -0.43063235 -0.15327075 -0.42503637
-0.22438201 -0.3260315 -0.16934913 -0.23521325 0.041475188 -0.030007124 -0.34014577 -0.12227003
-0.53424776 -0.40773034 -0.3218149 -0.28750265 -0.20443176 -0.15194641 -0.2604443 -0.38736758
-0.2337254 -0.21799223 -0.09813988 -0.18295269 -0.39540493 -0.17415714 -0.1638471 -0.12134371
-0.1656901 -0.23277152 -0.30729905 -0.6482669 -0.16778186 -0.0615568 0.14354913 -0.12825422
-0.39269477 -0.18184759 -0.060358476 -0.04417394 -0.22621067 -0.15398283 -0.14345866 -0.46921563
-0.26222685 -0.4963339 -0.11598568 -0.24144511 -0.076182805 -0.40247947 -0.07468588 -0.24856539
-0.42683613 0.05598173 -0.10545054 -0.055631645 -0.16645187 -0.18955074 -0.12816852 -0.2491142
-0.70647997 -0.3270479 -0.114650935 0.2268885 -0.13889658 -0.12097209 -0.057363387 -0.15165803
-0.113168396 -0.3383221 -0.07458412 -0.32589686 -0.07169136 -0.041140232 -0.09271561 0.15319908
-0.11064504 -0.24260741 0.07547613 -0.28910318 -0.21472394 -0.09283982 0.033152916 -0.45788893
-0.05330408 -0.2104297 -0.28263476 -0.11370904 -0.29809865 -0.24128106 -0.104554184 -0.40360978
-0.14001249 -0.2075521 -0.22574244 -0.36328638 -0.06465756 -0.01819276 -0.07728425 -0.05257684
-0.09568972 -0.3971374 0.042618997 -0.37250414 -0.4082569 -0.23081857 -0.2901375 -0.36470926
-0.42188478 -0.23747176 -0.009359842 -0.55186945 -0.1987151 -0.21016708 -0.2824372 -0.2581161

fc2.weight f4 [128, 130]
00000000: cf48 f9be d490 01bc 23d9 d33d 0cb9 68be
00000010: 3ff1 47bd c9ef 2b3f ddb9 193e 3a37 313e
00000020: 8b23 7f3e 5cab 84be f24c 1b3e b399 f4bc
00000030: 04ff e1be c7a3 6a3e ff41 893d 169b 923e
00000040: 34c9 a4be 83af d1be a4e8 3b3e 9a8c 5b3e
00000050: 1f43 913e fe7e 6dbe a8ab 683e 8da5 efbd
00000060: 44c2 6abf 1a17 673e db15 1dbf 00f9 683d
00000070: 0ca8 60be 9ffd aebd 1d16 0ebd 12fa c43e
00000080: d791 633e 5ed8 78bd 94c5 d93d 84e1 18bd
00000090: ece6 a33d 43f9 183e f97b 8cbe cde9 c3be
000000a0: f769 823e a31d 893e 729f 263d a6ab 8fbd
000000b0: cd35 adbd 2557 16bf 11d9 aabd 90db 3c3e
000000c0: f643 77be 97b6 0d3e a318 98be b388 28bf
000000d0: 5e8c b03d fbbe 2b3e a98c 1dbe 1619 e5bd
000000e0: fe1c cabe e5a3 fbbe 0724 bcbd 2720 b8bb
000000f0: 0b05 13be 4695 4dbe ec61 ea3c 45c9 a53d
00000100: 1e1b 67be e604 b73d cafa 79be 931e 85bc
00000110: eace a23d 86a7 5d3e f2c2 96bd a730 febe
00000120: 7867 81bd 944d d7be 432f 353e 0cb0 68be
00000130: 7e9d 9b3e dd23 edbe fbd1 883e 8954 ea3d
00000140: 0af9 84be 43ad 61bc 5993 78be e371 ba3d
00000150: 89ad fcbd 1b99 163e c83d 923e 4bde 27be
00000160: 4cb7 483e 5c3e a73d 91af 5e3e 781a 1bbf
00000170: 11d9 7f3c bf60 423e ae6c b63c 9621 82be
00000180: 759e 0f3f 22af eebe 21cb 223e a788 b43d
00000190: d57d 40bf 70ce 9dbe 3eaf 1b3e 6de7 723e
000001a0: 5567 e43a ccb5 52be 5950 883d dcba fbbe
000001b0: d87c 6e3e 7547 86bd c16b 0ebf b528 a33d
000001c0: 784f 143d 654c a8be 10c0 14bc fd59 8f3e
000001d0: 07d6 e7be 7d2e e9be 3924 013e 72de 983d
000001e0: e401 de3e 0357 d1bd c338 e9bd a855 2ebd
000001f0: c368 993d 994e 66be 2c52 da3d 8241 683e
00000200: f372 00bf 3923 a7bd b86e f5be 6815 6dbf
00000210: 6298 063f fc64 c9be 2c35 afbe 1088 73bf
00000220: 5d98 c4be 8bec c1bc 29c9 e8bb 5a9c ea3d
00000230: 8373 473e e3e2 f3bd 5685 243e a403 9b3d
00000240: 2df9 a9bd 3fa0 21bd 9cc4 6abf 873f 09bf
00000250: ba37 82be a9d2 78bd 4da4 92be 098a 16bf
00000260: f5a0 8abd bcf1 c93e 54d4 9fbe 071c dd3e
00000270: 2e09 8ebc 0ec1 343e d0cb a4be 196a c2bd
00000280: 0e7c aebe 90af 87be b0c9 4d3e 8b4b dbbe
00000290: 23bc 2c3e 88f0 993b 6a9a 3d3d 686f 2f3d
000002a0: af66 8ebe 8151 693d 10be 7bbe 4cfd 933e
000002b0: 628e 13bf 6938 f53d 5236 9d3e d042 38bf
000002c0: a9c2 c13c 877f 29be c7d2 68be 0667 303c
000002d0: cd56 f43d 7934 2abf 2b1b 8bbd 526c 403e
000002e0: 2de2 29bd bc9e f23d 6fc7 5cbd 5743 64be
000002f0: 53dc adbd 0751 0abe 449f 553e 37f9 cb3c
00000300: 7238 863e fead 7c3e c88c 08be 3577 ed3d
00000310: 4636 8dbe 3479 14bf b3ae 8e3d 4bdb ad3d
00000320: 9b5e 86bd 603c 33bd 8338 58bc 4e93 8dbe
00000330: 6eb5 513d 987e 4c3c 28b5 853e 85a2 583c
00000340: 2585 3bbf d289 b5be d0ce 2fbb b863 013e
00000350: 29ec 4c3e 191d a83d 9384 4cbf b0c9 86be
00000360: 4bc5 e0be f9c9 8d3d 520a 8cbe 96fe 28bc
00000370: 4852 f53d 8d96 7abe 2118 a9be 8a34 04bd
00000380: c2cd 03bf 0191 d5bd 9db1 4fbd e13b 123e
00000390: d984 2a3e d360 863e dfd2 6bbe ee0d a2be
000003a0: 1507 87be 93f5 c7be 8719 11bd 128b 5b3e
000003b0: 257c ebbe 277d 843c e9b4 d6bd f0ef 503d
000003c0: 72e3 c6be f5fc 4b3d 1902 13be 1fda aabe
000003d0: 1a46 a2bd 4c8e 46be 4eb4 423e 08c2 2cbd
000003e0: 6871 c13e 9706 a3be 6142 3ebc e8ae 62be
000003f0: 9db2 08bf 326c ddbd c0b2 93be 904f e7bc
-0.4868836 -0.007908065 0.1034415 -0.2272684 -0.048814055 0.6716276 0.15012307 0.17306224
0.24915902 -0.25911987 0.15166071 -0.029858446 -0.44139874 0.22914039 0.06702041 0.28633946
-0.32184756 -0.40954217 0.18350464 0.21440354 0.28371522 -0.23192975 0.22721732 -0.11701498
-0.91702676 0.22567406 -0.61361474 0.05687809 -0.21939105 -0.08544468 -0.034689058 0.38472039
0.22223602 -0.06075322 0.10633388 -0.037324443 0.08003029 0.14938836 -0.27438334 -0.38264313
0.2547147 0.26780424 0.040679403 -0.07015161 -0.08457527 -0.5872672 -0.083421834 0.18443131
-0.24147019 0.13839184 -0.29706296 -0.65833586 0.08620523 0.16772072 -0.15385689 -0.111864254
-0.39475244 -0.4914848 -0.09186559 -0.0056190672 -0.14357392 -0.20076475 0.028611146 0.0809503
-0.22568938 0.08936481 -0.24412075 -0.01624993 0.07949622 0.21645936 -0.073614016 -0.49646494
-0.06318563 -0.42051375 0.1769381 -0.22723407 0.30393595 -0.46316424 0.26722702 0.11441905
-0.25971252 -0.013774219 -0.24274959 0.091037534 -0.12337787 0.14706843 0.2856276 -0.16393392
0.19601172 0.08166191 0.21746661 -0.60587263 0.0156157175 0.18982218 0.02226862 -0.2541625
0.5610116 -0.4661799 0.158978 0.08815127 -0.75192004 -0.30821562 0.15203568 0.23721094
0.0017425815 -0.20577163 0.0665595 -0.49166 0.23289812 -0.06556598 -0.5563317 0.079667486
0.0362086 -0.32870784 -0.009078994 0.27998343 -0.45280477 -0.4554328 0.12611474 0.07464303
0.43360817 -0.10221674 -0.113877796 -0.042562157 0.07490685 -0.2249092 0.10660204 0.22681239
-0.501754 -0.08161015 -0.47936034 -0.9261079 0.5257627 -0.39334857 -0.34220254 -0.9512949
-0.38397494 -0.023672363 -0.0071040583 0.11455603 0.19477658 -0.119085096 0.16066489 0.07569054
-0.0829948 -0.039459463 -0.9170625 -0.5361256 -0.2543314 -0.060747776 -0.28640977 -0.58804375
-0.06768981 0.3944224 -0.3121668 0.43185446 -0.017338362 0.1765177 -0.32186747 -0.09492893
-0.3407902 -0.2650113 0.20096469 -0.42831072 0.16868643 0.004697863 0.04628984 0.042830855
-0.27812716 0.056962494 -0.24584222 0.28904188 -0.57639134 0.1197365 0.30705506 -0.7197695
0.023652392 -0.16552554 -0.22736655 0.01076675 0.119306184 -0.66486317 -0.06792291 0.18791321
-0.041475464 0.118466824 -0.053901132 -0.22291313 -0.08489289 -0.13507472 0.20861536 0.024899108
0.2621494 0.24675748 -0.13334954 0.115950026 -0.2758047 -0.5799744 0.06966915 0.084890924
-0.06561013 -0.04375875 -0.013197067 -0.27651447 0.051198415 0.012481354 0.26114774 0.013222341
-0.7325004 -0.3545671 -0.002682615 0.12635696 0.20011963 0.08208675 -0.7988979 -0.2632575
-0.43900523 0.06923289 -0.27351624 -0.010314604 0.119785845 -0.24471493 -0.3302622 -0.032276668
-0.51485837 -0.10428048 -0.050706495 0.14280654 0.1665224 0.26245746 -0.2302966 -0.31651253
-0.2637259 -0.39054546 -0.035424735 0.2143977 -0.45993152 0.016172959 -0.104837246 0.051010072
-0.38845402 0.049801785 -0.14356269 -0.33369538 -0.07923527 -0.1939022 0.19014093 -0.04217723
0.37781835 -0.31840965 -0.011612506 -0.22137034 -0.5339754 -0.10811652 -0.28847313 -0.02823618

fc2.bias f4 [128]
00000000: 273c f4bd 20b3 943d 5b8a 50bd 2594 b2bd
00000010: 6d4d 22bd 8452 1dbe 3c69 283e 76a5 1cbd
00000020: 7fa1 f8bd ad14 16be 398b 983c f70e 9cbd
00000030: 97c5 56bd 58f0 99bd fcc2 a5bd 882f 8c3e
00000040: bbcd a13b 5035 d6bd 0c12 10be 95f8 333d
00000050: 5a8d 13be 3e2b 96bd f36a bcbd 5860 acbd
00000060: aaef a33e e82e 04be ed1f 423e 54f6 b5bd
00000070: cc3d 22bd 75bf b2bd 6a4b 39be d63a 09be
00000080: 7a31 6dbd 1598 16be befe 59bd 6c47 8c3d
00000090: 2b29 c5bd 44ce 77bd c0ea 86bd 0229 49bd
000000a0: 25a4 e3bd 6ed4 4bbe f048 eabd eeaa fdbd
000000b0: 6f56 64bc 9f09 f2bd 61f8 283c ea45 dabd
000000c0: 0cec 0b3e 6b7c 26bd fc34 bf3c 319b 3dbd
000000d0: 3810 d8bb 00a2 20be 7b7a 86be 6586 bcbd
000000e0: 4855 3dbc f46e b6bd 3b87 05be 8f46 27bd
000000f0: 831c b8bd 71ea a0bd 84f8 a5bd 6aca 91bd
00000100: eb72 c4bd b3bf 8a3e 7153 27be 9752 b1bd
00000110: adb1 95bd 4e8d 1abe a27d bfbd ae6f 64bc
00000120: 2fc5 ddbd a09f 20be 876e 7abd e161 40bd
00000130: c258 76bd 58cc 0cbe 043a 41be 450d 393e
00000140: 2fc2 83bd f829 11be 97c5 d5bd 3552 fbbd
00000150: 8da8 65bd d0cd 07be 4a4b c8bd 3560 c0bd
00000160: 564e 86bd 7f45 c4bd 0436 8cbe 632d 94bd
00000170: aded 9bbd b132 6fbd 8943 053e 2415 d7bd
00000180: 374d 49be cf07 543d 279f a3bd fbdd 0bbe
00000190: 9e76 9dbd 9781 85bd fca7 73bd c387 b4bd
000001a0: d3ca 9abd c1f4 e5bd d6aa 86bd fa8c a5bd
000001b0: b270 b8bd d2e8 15bd 8bd6 e4bd 9d8b 9f3e
000001c0: b923 8a3e 8ba7 8fbd fd2f 08be d3f5 00bd
000001d0: 1103 3e3c 857b bbbd 2bc0 243e ff51 e5bd
000001e0: 75c4 59bd f1ca d53d 0c53 163e 3048 0cbe
000001f0: aaee d3bd 1429 9c3d d8e5 c1bd b0e4 d43d
-0.11925536 0.07260728 -0.050913196 -0.087196626 -0.03962462 -0.15363508 0.16446394 -0.038243733
-0.12140178 -0.14656325 0.018621074 -0.07620042 -0.05243453 -0.07516545 -0.08093831 0.27380013
0.004937855 -0.10459387 -0.14069384 0.04393824 -0.1440939 -0.073324665 -0.092000864 -0.084168136
0.32018787 -0.12908518 0.18957491 -0.08884874 -0.039609715 -0.08727924 -0.18095174 -0.1340135
-0.057908513 -0.14706452 -0.053221457 0.0684956 -0.09626993 -0.060499445 -0.06587744 -0.049111374
-0.111152925 -0.19905254 -0.11439693 -0.12386118 -0.013936623 -0.11818241 0.010313124 -0.10657866
0.13664263 -0.040645998 0.023340695 -0.04629058 -0.0065937303 -0.15686798 -0.2626532 -0.09205321
-0.011555977 -0.089078814 -0.13039868 -0.040838774 -0.08989813 -0.07857216 -0.08104041 -0.071186855
-0.09592231 0.2709938 -0.16340424 -0.08658331 -0.073092796 -0.15092966 -0.093501344 -0.013942642
-0.108286254 -0.15685892 -0.061140563 -0.046968345 -0.06014324 -0.13749826 -0.18869787 0.18071468
-0.06433522 -0.14176166 -0.10438078 -0.12271539 -0.056068946 -0.13262105 -0.09779985 -0.0939335
-0.0655791 -0.09583568 -0.2738496 -0.07235219 -0.076136924 -0.058397952 0.13014044 -0.10502079
-0.19658361 0.05176526 -0.0798934 -0.13658898 -0.0768864 -0.06518858 -0.059486374 -0.08814957
-0.07558217 -0.11228324 -0.06575553 -0.0808353 -0.0900587 -0.036598988 -0.11173733 0.31161204
0.2698038 -0.07014378 -0.13299556 -0.031484436 0.011597411 -0.09154419 0.16088931 -0.1119728
-0.05316587 0.104390986 0.14680117 -0.13699412 -0.10348256 0.076250225 -0.09467667 0.10395181

fc3.weight f4 [1, 128]
00000000: ccad f8bc 3610 713d 0da6 2a3d 0f9d 6c3c
00000010: 86f1 c43d 1576 4f3e 4c75 01bd eb22 c83b
00000020: caef c2bb d680 9bbd 30b3 f43d ea6a 64bc
00000030: 7cdf 22bc d47b 663c 76fa 10bc 36cc 543d
00000040: db06 ddbd dd40 883c 7bdb 0a3c bd2b 633d
00000050: a0ad ca3b 2bf9 aa3c ece7 cdbb 132b 37bb
00000060: 7fa4 953d 6716 b53c 0a0c 5b3d 4709 65bc
00000070: fcc2 e038 4a37 cd3d 0dd1 533d 1407 06bd
00000080: a7c8 9bbc 3219 c2bd 2916 583b bc3a a83c
00000090: 06b6 cdbc 7100 433d 87a3 833c 8e09 2c3d
000000a0: da4d cabc a42f b23d bcc1 9cbc bbc6 d7bc
000000b0: 02cd 19bd 409a b03c 7978 17bd 4e8f af3c
000000c0: 5699 033d 4128 27bc 0399 523d d41c fb3c
000000d0: 3e72 3f3d 75f3 853d a700 22bd c933 49bb
000000e0: f03d 30bd ac1a 973c bc16 00bc f2d2 d33c
000000f0: 81c7 a1bb 5acd 813c bac0 173d ebc4 b43c
00000100: 342a 5c3c 995b 243d e164 83bd 4e75 7abc
00000110: 48ed 59bc 0c93 a9bc 0c39 62bb 692a 323d
00000120: 4080 c0bb a1ee 6fbd 73ae e2bb b7d5 0a3c
00000130: abb3 00bd 53e0 a3bc 3373 67bd 66b2 88bd
00000140: 13d6 d6bb f964 beba 7eb6 993d 8b12 a2bc
00000150: f6ff 3a3c 0481 5cbd 4052 bc3c 2de5 063b
00000160: 260a 9dbc cf93 7bbd 44ca 83bd 8ae9 003d
00000170: ebc6 82bc 5bba 90bc 7a13 323d 670c d13c
00000180: b4b5 92bd ee3d 88bd db4b 20bd a971 56bd
00000190: 8775 b0bb 7fb7 d33c c297 c9bc 9f66 dbbb
000001a0: 33ce 313d e2f7 6b3c abed 0fbc 7e6a c2bb
000001b0: b6d6 bc3c cc47 a63c 7cd2 913b 0655 41bd
000001c0: 70eb a4bd e5f4 45bc 0a19 7a3c d935 ee3a
000001d0: 86fb 433d 7a34 15bd 8880 1f3d 3c62 fe3b
000001e0: c2e9 443c ad7b 41bd cf51 6f3d d888 1dbc
000001f0: 7c8c 313d 2554 6d3d 445d f23d d78e 83bd
-0.03035631 0.05885335 0.041662265 0.014441743 0.096163794 0.20259888 -0.031606004 0.006107678
-0.0059489952 -0.07592933 0.1194824 -0.013941506 -0.009940978 0.014067609 -0.008848777 0.051952563
-0.10792323 0.016632492 0.00847518 0.055461634 0.0061852485 0.020870766 -0.0062837508 -0.0027949258
0.07306766 0.022105409 0.05347828 -0.013979263 0.00010717471 0.10020311 0.05171304 -0.032721594
-0.019016577 -0.09477462 0.0032972193 0.02053582 -0.02511121 0.047607843 0.016069187 0.0420013
-0.024695326 0.08700493 -0.019135348 -0.02633988 -0.037549026 0.021557927 -0.036980126 0.021430638
0.032128654 -0.010202468 0.051415455 0.030653395 0.04673981 0.06540576 -0.039551403 -0.0030701032
-0.04302782 0.018445335 -0.00781792 0.025857423 -0.004937113 0.01584499 0.037049033 0.022066554
0.013437796 0.040126417 -0.064157255 -0.015286757 -0.013301201 -0.0207 -0.0034518866 0.043497477
-0.0058746636 -0.058577184 -0.0069177686 0.008473805 -0.031421345 -0.020004427 -0.056506347 -0.06674652
-0.0065562814 -0.0014525942 0.07505511 -0.019784233 0.011413565 -0.053833976 0.022988439 0.0020583377
-0.019169878 -0.061420258 -0.064350635 0.03147272 -0.015963992 -0.017666986 0.043475606 0.02551861
-0.07163563 -0.06652437 -0.03913484 -0.05235449 -0.005385104 0.025844334 -0.024608497 -0.006695583
0.043409538 0.014402362 -0.008784692 -0.005933105 0.0230516 0.020297907 0.0044501405 -0.047200225
-0.08052719 -0.012082313 0.015264759 0.0018174007 0.047847293 -0.036427 0.038940936 0.0077631753
0.012018623 -0.047237087 0.058427628 -0.009615146 0.043346867 0.057941575 0.11834195 -0.06423729
