p2/ckpt/prioritized/actor.pth (torch_old, 93168 bytes, 18 tensors)

bn0.weight f4 [33]
00000000: d89e 8e3f 58d6 243f b304 993f e5d6 653e
00000010: b94d 153e b1b3 ec3e 6563 483e 8cba a83d
00000020: 55a9 033e 7af3 1a3e 053c 673e 16ed 6d3e
00000030: 8763 843e a945 be3f 847b 8c3f 951d b33f
00000040: 1bde fb3d 5136 4a3d fe20 bb3d c967 5d3d
00000050: 77a3 213e ad02 b13d 8e70 9e3d 8177 373f
00000060: 4154 083f 285f 373f 0bfd b83f 0000 803f
00000070: ed08 b93f 0000 803f 0000 803f 0000 803f
00000080: 4410 d13f
1.1142225 0.6438956 1.1954559 0.22445257 0.1458043 0.46230844 0.19569166 0.08238706
0.12857564 0.15131941 0.2258149 0.23234972 0.25857183 1.4865009 1.0975194 1.3993403
0.12298223 0.049368206 0.09137152 0.054054055 0.15785013 0.086430885 0.07736312 0.71666723
0.5325356 0.7162957 1.4452223 1.0 1.4455849 1.0 1.0 1.0
1.6333089

bn0.bias f4 [33]
00000000: 29e3 5eba 24c4 c639 9a15 72ba 68d7 393a
00000010: 5402 fbb9 1aa0 9638 6c7b 91b9 e9a7 f0b9
00000020: a625 0f38 c705 1a3a d674 22ba 2dde 9d39
00000030: ce28 e3b8 24f4 323b d428 3dba f8ce 43bb
00000040: 8d2c ca39 a405 17ba d251 48b8 6a32 27b8
00000050: 85be 8b37 23fe 0aba 1aa1 b2b8 cf24 02b9
00000060: ed0c 8d39 663f 85b9 d398 d739 459f ec39
00000070: 169f cf39 9306 98b9 f72d c239 462a ffb9
00000080: 1ce5 9938
-0.00085024774 0.0003791164 -0.0009234786 0.0007089288 -0.00047876185 7.1823786e-05 -0.00027748512 -0.0004590147
3.412892e-05 0.00058754947 -0.00061972195 0.00030110907 -0.00010831804 0.0027306164 -0.00072158617 -0.0029878002
0.00038561635 -0.00057610334 -4.7759917e-05 -3.9862854e-05 1.6658809e-05 -0.00053021515 -8.517709e-05 -0.00012411478
0.00026903246 -0.00025414972 0.00041121859 0.00045132093 0.00039600645 -0.00028996597 0.0003703681 -0.00048668886
7.3382835e-05

bn0.running_mean f4 [33]
00000000: 2389 e03e 1d67 15c0 9c26 39bc c29e 573f
00000010: 5fad 673d 0343 9c3b 67cb b33a 8630 98ba
00000020: 6355 873c 0cbd 823b 41b4 6c3c 0b29 e03c
00000030: 422d acbc b155 c73e 930e f7bf c0c9 e6bc
00000040: 5f05 023c 3f02 cdbc 40bb 2d3d 7dd8 cf3e
00000050: 6e7f 1ebd c2c9 f93c 8d20 ed3c 174a 593d
00000060: a4b2 4a3e 0b60 18bc 6625 09bc fcff 7fbf
00000070: b620 35bc 0000 0000 fcff 7f3f 0000 0000
00000080: c00f 2abc
0.43854627 -2.3344185 -0.011300709 0.8422662 0.056561824 0.0047687306 0.0013717235 -0.0011611141
0.016520208 0.0039898213 0.014447273 0.02736332 -0.021017674 0.38932565 -1.9301323 -0.028172374
0.007935851 -0.025025485 0.042414904 0.40594855 -0.038695745 0.030491713 0.028946185 0.053049173
0.19794708 -0.009300242 -0.008370733 -0.99999976 -0.011055162 0.0 0.99999976 0.0
-0.010379732

bn0.running_var f4 [33]
00000000: 7776 9f40 7107 db3e d4ba 9f40 e683 8c3d
00000010: cd8b a73d 5a06 723c daa3 f93d 2bf9 af3e
00000020: cb71 9b3d 16d7 e43d 90e9 1340 bb28 963f
00000030: 052d 3340 989a ab41 63f0 ae3f 0c12 ad41
00000040: de76 8e3d 37d1 693e 7f21 8c3d 413b ef3e
00000050: 2f86 ed3f 1e02 6f3f 0c41 263f b0ba fe40
00000060: c6dc 8c40 6151 0541 652b fe41 0400 0000
00000070: c181 0042 0400 0000 0400 0000 0400 0000
00000080: ef51 ae3e
4.983211 0.42779115 4.991556 0.06861095 0.08180962 0.014772022 0.12189455 0.34369788
0.07590064 0.11173837 2.3111305 1.173118 2.7996228 21.450485 1.366711 21.633812
0.06956266 0.22833715 0.068423264 0.46724895 1.8556575 0.93362606 0.64943004 7.960289
4.40195 8.332368 31.771189 6e-45 32.126713 6e-45 6e-45 6e-45
0.34046885

fc1.weight f4 [128, 33]
00000000: f778 a4be a6e3 01be 2bb4 e5bd 8dd3 be3d
00000010: 7107 02be 4b68 93be f748 e0bd 6b69 093b
00000020: f91c 73bc 6a0e f23c e6ae 8cbd a640 f23d
00000030: 6ead 663d 5727 01be 79b4 d63e d0be 173e
00000040: 9fee 0bbe 2884 afbc 3771 51be 724f 233e
00000050: be36 02be a112 1ebb bf85 ff3c 3332 68bd
00000060: ee4f 7b3e 170a 073c 1bbf b53e b856 1f3d
00000070: e627 b6bd 69e3 233b 06fc b0bd de9a 72bc
00000080: 19f4 9f3d 29ce bd3d 2860 f13d 7f5f bb3d
00000090: 8cb9 d4bd 1fc9 32be f0d6 9cbe e3f4 b8bd
000000a0: ee63 57be 1ab4 a9bd 3d7c 743e a0fd 1bbd
000000b0: 227f 413b 7f3c f23b 35ef c13d 01b5 4bbe
000000c0: 0ef9 25be b46b 383e 3ad5 b93d 391e 9e3d
000000d0: 1d67 2bbe 56ba 4c3e d020 2dbd af44 8c3e
000000e0: 7b3c 283d 1c42 66be e145 10be 2d45 0cbe
000000f0: 8411 013d bcc3 ae3e 6904 1ebd 864d 153d
00000100: 2c47 3dbe ac2a 17be 10c2 a93d c512 cebd
00000110: 5337 7f3d 9667 97be 2383 b9bd 6970 17be
00000120: bdce 163e cd97 a33e d179 613d 16dc 533c
00000130: 4140 cb3d 21cb a33d bc77 a7bd 22b7 bfbd
00000140: 6696 32be e2fb 693e 8eba 403e 4019 e73e
00000150: a992 443d f8f7 123e 2492 943d 7170 713e
00000160: df64 253e 638a 143e e7c0 8e3d 8d8b 98bd
00000170: b85f 003e b542 253d 5a94 653e cd27 1abd
00000180: 5b7c d2bd ca54 97bc ab49 f5be 8add 33be
00000190: 5d2b cdbd e2ec 073d c0c8 473d ccf5 babd
000001a0: a326 42be 84f4 8ebd 8f99 3938 b478 efbd
000001b0: 032b 8a3d 276c 94bd 732d f53d 71f9 c33c
000001c0: 8bb2 903e 965b e93d 9fad 663d 42d4 94bd
000001d0: 9621 873d c9ef 7b3e 4d39 233e c7b7 25be
000001e0: 0405 01be 3115 2a3d c387 333e 3634 473d
000001f0: ce32 1abd 0fdd 79be c435 873d b1e9 66be
00000200: de2f d1bc 7eeb 913d 9882 0a3c a42d 033f
00000210: f577 403d 5983 5abe 7ee4 0abe 5104 18bd
00000220: 6fea 143e 72b8 ee3d 495a c7bd 79b0 ebbd
00000230: 35d8 bebe 1c5c 073e 0b5b ccbb 8e24 fb3d
00000240: 755c b2bd b3b5 0e3f 100d 8d3e 7e96 133e
00000250: e099 9fbe aa2c 39be 8d10 8ebd a29d 143e
00000260: c068 f7bd b433 16be 02a2 bd3d c5e3 383e
00000270: ef38 b13c 57ad ef3d 24a8 5dbe b055 8b3d
00000280: 38d3 ce3c 264b 853d fbdd 69ba 85a5 fdbd
00000290: a183 04be 3b96 343c c4a8 083d 4d57 803d
000002a0: 14ed 9e3e bc30 813d 7bd7 85bc 12d0 46be
000002b0: 023d 72bd d88e 1cbe 3bea 8ebd efee d03d
000002c0: df42 ad3c 968f 953c 3c91 8abe 6286 18bd
000002d0: 20bd c9bd e065 003e 9aee 623e 5d3a 0a3e
000002e0: d819 673a 9d1c c8bd 03d3 0c3e 3f22 9fbe
000002f0: 5ee1 a4bd 1de9 a33e 6bfb 8fbd 84f6 033e
00000300: 41ca 77bd fa5d a93e 9dc9 0a3e d139 1c3d
00000310: f4db c4bd e856 e73e 3e3a 0dbe f53a 3dbd
00000320: 82c0 943d 85b3 4a3d 378a 5dbe 744f 433d
00000330: 04cd b93d 4f87 7b3d aa2a ad3d 54da d33c
00000340: 0751 b7bc 2adf 74bd 0e0c 473c c30d 953e
00000350: a2ea 213d 2a82 d6be a5a7 88bd bee7 2d3e
00000360: b8ee 35be b9b0 003d 0a0c 2fbd 5171 6bbd
00000370: 82ef b73b e7a0 c33c f64b ebbb c2e0 3dbd
00000380: 6a64 acbd 578f bbbc 8353 db3e 7c63 7d3d
00000390: 8f3b 69bd d4a0 9f3d edb0 3bbd 0132 503e
000003a0: 8514 6d3e 0aa8 143d d25e 1dbe 6f72 013d
000003b0: 7479 02be b212 173e 278a debd f647 1a3e
000003c0: 5f83 043d 3119 a53c c202 d73d 2999 183e
000003d0: 2705 b7be b6d6 0dbe c356 1d3e f0c4 5abe
000003e0: ddc7 35bd cde7 083d 1087 99bb 462b 2dbe
000003f0: da06 58bd 818b bfbd 9686 18be d861 e6bd
-0.3212354 -0.12684497 -0.11216005 0.09317694 -0.12698151 -0.28790507 -0.10951417 0.0020967375
-0.014838451 0.029547889 -0.06869297 0.11828737 0.05631774 -0.12612663 0.41934565 0.14818883
-0.13665245 -0.021425322 -0.20453344 0.15948275 -0.12716195 -0.002411999 0.031191705 -0.0566885
0.2454221 0.008242152 0.35497364 0.03890106 -0.08894329 0.0025007373 -0.0864182 -0.014807431
0.0781023 0.092678376 0.117859185 0.09149074 -0.10386953 -0.17459534 -0.30632734 -0.090310834
-0.21034214 -0.08286305 0.23875518 -0.038083673 0.002952524 0.0073924656 0.09469453 -0.19893266
-0.16208288 0.18009835 0.09073873 0.07720608 -0.16738553 0.19992957 -0.04226762 0.2739615
0.041073304 -0.22486156 -0.14089157 -0.13698263 0.031510845 0.34133708 -0.038578425 0.036450885
-0.18484181 -0.14762372 0.082889676 -0.10062174 0.06230862 -0.29571217 -0.090582155 -0.14788975
0.14727302 0.31951752 0.055047814 0.012930891 0.09924365 0.07997728 -0.081771344 -0.09361102
-0.17440185 0.22849992 0.18821165 0.45136452 0.04799143 0.14352405 0.072544366 0.23578049
0.1615176 0.14505915 0.06970387 -0.07448492 0.12536514 0.04034682 0.22419873 -0.037635613
-0.10277625 -0.018473048 -0.47907767 -0.17564979 -0.100180365 0.033184893 0.048775434 -0.09128913
-0.18960051 -0.069802314 4.425045e-05 -0.11692944 0.06746485 -0.07247191 0.119715594 0.023922654
0.28261217 0.11394422 0.05631792 -0.072670475 0.06598203 0.2460319 0.15939827 -0.16183387
-0.1259957 0.041524116 0.17532258 0.048633777 -0.037646107 -0.24400733 0.06602052 -0.22550084
-0.02553552 0.07124995 0.008453988 0.5124152 0.0469894 -0.21339168 -0.13563725 -0.03711349
0.14542554 0.11656274 -0.097340174 -0.11508269 -0.37274328 0.1321873 -0.006236439 0.12262832
-0.08709041 0.55746 0.27549028 0.14412877 -0.31172085 -0.18083444 -0.069367506 0.14513257
-0.12080526 -0.1466816 0.09259416 0.18055637 0.021633593 0.11702984 -0.21646172 0.06803453
0.025247201 0.06508474 -0.00089213223 -0.12385086 -0.12940837 0.011022146 0.033364072 0.06266651
0.3104025 0.063081235 -0.0163381 -0.1941531 -0.059140213 -0.15288866 -0.0697827 0.10201823
0.02115005 0.018256944 -0.2706393 -0.037237532 -0.09850526 0.12538862 0.22161332 0.13498826
0.00088158017 -0.097710826 0.1375237 -0.31080815 -0.08050798 0.3201379 -0.07030376 0.12887007
-0.06049562 0.3307951 0.13553472 0.038141076 -0.09612265 0.45183492 -0.13791749 -0.046198804
0.072632805 0.04948761 -0.21634756 0.047683194 0.09072307 0.061408337 0.08455403 0.025860943
-0.022377504 -0.05978314 0.01214887 0.29112062 0.039530404 -0.41896182 -0.06672601 0.16982934
-0.17766845 0.031418536 -0.04273609 -0.057481114 0.0056132684 0.023880435 -0.007180686 -0.046356924
-0.0841759 -0.022895498 0.42837152 0.061862454 -0.056941565 0.077943474 -0.045823026 0.20331575
0.23152359 0.036293067 -0.15368202 0.031603273 -0.12741643 0.14753225 -0.10866194 0.15066513
0.032351848 0.020153614 0.10498573 0.14902176 -0.35746118 -0.13851437 0.15365128 -0.21364188
-0.044380058 0.033424187 -0.00468529 -0.16911039 -0.05274091 -0.0935278 -0.1489509 -0.11249131

fc1.bias f4 [128]
00000000: a0b4 213c 95f7 283c 0988 243c 32ab 2e3c
00000010: 04bf 203c 7c19 273c f5ef 2a3c 72b3 293c
00000020: 9ac3 1f3c d81a 283c 5db4 203c f56e 213c
00000030: e421 273c 7f8e 2a3c a680 273c 3d60 223c
00000040: a206 1d3c e0fc 253c b2d9 233c cc91 2d3c
00000050: ec2b 283c c8ba 233c 7294 203c 88cb 243c
00000060: b66c 113c 9680 283c 625a 213c f7de 1f3c
00000070: c584 233c 8a3f 233c 25d6 243c e7f8 273c
00000080: a936 283c 4dfa 263c 18f7 233c 55bf 213c
00000090: f330 233c 9d54 2a3c 2976 1d3c 07ec 1f3c
000000a0: 2d75 263c cf51 263c 59e9 1d3c cbb1 1e3c
000000b0: ae22 263c 6e33 223c 301a 243c 3720 223c
000000c0: 3d80 413c cdfe 273c cc2d 0d3c 78d7 173c
000000d0: 6c6b 1a3c 02a4 1c3c 4999 1e3c 519f 2b3c
000000e0: c35b 253c a844 293c 0cd1 263c 7eed 253c
000000f0: c204 233c 974d 253c a0c8 263c e34d 1b3c
00000100: 8610 273c 8a1d 2a3c 5175 1d3c d8a3 1b3c
00000110: c70e 253c 5fe8 1e3c 82d5 203c 0755 233c
00000120: f0fd 253c 0b56 1f3c 7d3f 213c 288f 283c
00000130: 2ae8 1f3c de50 293c dd76 283c c7d6 203c
00000140: 8e07 263c 7c20 233c 745b 283c 2449 243c
00000150: e91a 1b3c 1f0f 223c 7578 203c 482b 213c
00000160: e9e8 1c3c 18e1 213c 4d1e 253c ee73 243c
00000170: 6210 223c 7621 243c 4d6d 1f3c e35c 293c
00000180: 8c0b 1f3c b765 263c 9fc9 1e3c 925c 223c
00000190: b4d7 233c 27ea 243c 237a 293c 051f 203c
000001a0: 74b4 263c d820 2b3c ee1b 1f3c 54a4 2b3c
000001b0: d632 233c 0d1a 303c cb79 1c3c ae1f 263c
000001c0: 214a 263c 0ce1 1f3c a714 1f3c 8e4b 233c
000001d0: 71e7 263c d717 1b3c d103 283c f813 263c
000001e0: cf55 233c 5337 263c 1bf5 223c 8406 1f3c
000001f0: 6a17 193c 7d28 223c 0842 223c 71d0 243c
0.0098697245 0.010312934 0.010042199 0.010660933 0.009811167 0.010198947 0.010433187 0.0103577245
0.009751225 0.010260306 0.009808627 0.009853114 0.010200951 0.01040995 0.010223543 0.00991064
0.009584101 0.010131091 0.010000633 0.010593843 0.010264378 0.009993263 0.009801017 0.010058291
0.008876016 0.0102845635 0.009848209 0.009757749 0.009980385 0.009963879 0.010060822 0.010252214
0.010266938 0.010191512 0.010007642 0.009872277 0.009960401 0.01039615 0.009610691 0.009760863
0.010159773 0.010151341 0.009638154 0.009685944 0.010140104 0.009899957 0.010016009 0.009895376
0.01181036 0.01025362 0.008616876 0.00926768 0.009425025 0.009560587 0.009680101 0.010474996
0.0100926785 0.01033131 0.010181677 0.010127423 0.009949865 0.0100893 0.010179669 0.009479019
0.010196811 0.010383019 0.00961049 0.009499513 0.010074324 0.009698956 0.009816529 0.009969003
0.010131344 0.009725104 0.009841797 0.010288037 0.009759942 0.010334222 0.010282245 0.009816832
0.010133637 0.009956475 0.01027571 0.010027204 0.009466865 0.0098913 0.009794344 0.009836979
0.0095770145 0.009880327 0.010078025 0.010037405 0.009891601 0.010017743 0.009730649 0.010337087
0.009707343 0.010156087 0.009691625 0.009909766 0.010000158 0.010065592 0.010344061 0.009773021
0.010174859 0.010444842 0.009711249 0.010476191 0.009960851 0.0107483985 0.009550522 0.010139389
0.01014951 0.009758245 0.009709514 0.009966744 0.010187016 0.009466133 0.010254816 0.010136597
0.009969189 0.010145026 0.009946133 0.009706143 0.009343961 0.0098973485 0.009903438 0.010059462

bn1.weight f4 [128]
00000000: 0ad8 6b3f 7f5c 3b3f 882d 513f 78c8 843f
00000010: b989 513f a023 783f fbef 973f 8d44 803f
00000020: c484 6a3f caec 873f c293 863f 106a 6f3f
00000030: 588a 813f 9d67 4f3f ee81 7a3f 70c7 823f
00000040: d9ee 6e3f e60f 913f bf44 b43f 5764 863f
00000050: b7d5 ae3f 1576 903f 6cf7 473f e621 423f
00000060: 0828 6e3f 5c31 523f ec60 863f 5cdb 623f
00000070: 51c7 663f 27f5 853f ff7b 863f 5761 5e3f
00000080: 99b2 823f c875 493f 6139 843f 9407 5f3f
00000090: 90ee 563f 49f2 373f 2f8f 303f 1d0f 8a3f
000000a0: bcdd 603f c549 853f cbdf 7c3f 923e 7a3f
000000b0: 6765 5b3f 077e 863f 22f8 693f d4d4 743f
000000c0: 624e 823f 654a 5b3f df8f 853f 2d07 493f
000000d0: c00b 8e3f 00b4 953f ccda 833f 817f 6f3f
000000e0: e4ef 4e3f 7aef 723f 13cc 863f af0c 5a3f
000000f0: 2260 6e3f 9c76 7b3f b111 4d3f d625 803f
00000100: 6dcf 953f c2c7 813f 13cf 513f 2dbf 863f
00000110: 35a4 493f ff7a 5d3f c1c5 443f 50b7 283f
00000120: b859 663f 1e37 8b3f 12da 863f 5cc0 783f
00000130: 2453 8d3f 8f04 8b3f d2b9 4c3f a872 6b3f
00000140: 847e 523f 5bdf 5d3f ccb9 3b3f ac9a 6a3f
00000150: 97eb 833f 04f6 903f d3c1 873f 64e1 533f
00000160: b0b2 633f 70f8 4a3f d1f3 373f ea29 683f
00000170: 4ea7 e03e 6da9 2f3f e466 663f b199 563f
00000180: 5281 513f 7c10 693f a91a 933f 2ba2 853f
00000190: 7f3c 8c3f 4552 8a3f 8c16 543f e84d 663f
000001a0: cce1 663f 82ed 783f 817f 663f fa61 8a3f
000001b0: 05bc 6c3f 0492 073f af7b 333f d848 893f
000001c0: 7b6f 813f 1db5 4e3f 7942 833f a88e 7b3f
000001d0: c61a 653f 28db 9e3f 381e 663f 2680 873f
000001e0: 5169 863f 2dde 9f3f 1bd9 773f 053c 773f
000001f0: 2447 6c3f 1d64 863f e461 533f cd9a 303f
0.92126524 0.7318801 0.817101 1.0373678 0.81850773 0.9692936 1.1870111 1.002092
0.91608834 1.0619137 1.0513842 0.93521214 1.0120344 0.81017476 0.97854507 1.0217113
0.933332 1.1332977 1.408348 1.0499371 1.365897 1.1286036 0.7811191 0.75832975
0.9302983 0.82106566 1.0498328 0.88615966 0.9014788 1.046544 1.0506591 0.8686728
1.0210754 0.78695345 1.0330011 0.8712094 0.8395777 0.7185407 0.6896848 1.0785862
0.8783834 1.0413138 0.9877898 0.97751725 0.857016 1.050721 0.91394246 0.9563725
1.018017 0.8566039 1.0434531 0.78526574 1.1097336 1.1695557 1.0301147 0.9355393
0.80834794 0.9489666 1.0531029 0.85175604 0.9311544 0.9822786 0.8010512 1.0011547
1.1703926 1.0139086 0.81956595 1.0527092 0.78766185 0.865158 0.7686425 0.6590471
0.8998065 1.0876195 1.05353 0.9716852 1.1040998 1.0860766 0.7997104 0.91971827
0.822243 0.8666894 0.7333038 0.9164226 1.0306271 1.1325078 1.0606025 0.82765794
0.8894453 0.79285336 0.7185641 0.90688956 0.43877643 0.686179 0.9000075 0.83828264
0.8183795 0.9104078 1.1492511 1.0440115 1.0955962 1.0806357 0.82846904 0.89962626
0.9018829 0.9723741 0.90038306 1.081115 0.92474395 0.5295718 0.701106 1.0725355
1.0112146 0.80745107 1.0254661 0.9826455 0.8949398 1.2410631 0.8988986 1.0585983
1.050089 1.2489678 0.9681565 0.9657596 0.9229605 1.0499302 0.82571244 0.6898621

bn1.bias f4 [128]
00000000: b2ce 37bf 704e 9cbe c9d5 dabe 42b8 efbe
00000010: ebac 41be 46aa 0bbf 16d9 51be 764e 7ebf
00000020: d36f 143c 97e6 a2bf c141 0abf b108 11bf
00000030: f912 9ebe b7ed 1fbe ce7b 21bf a35d 773e
00000040: b59b b5be aa2a 43bf cc72 c53d 1ede 163e
00000050: e413 0abf 1ec6 c6be 83bf 603d ad98 c43e
00000060: 6fd4 99be 4e65 b9be 1833 35bf 74a3 c53e
00000070: 2676 dcbe c0bb f7be fddd 1cbe a552 c2be
00000080: 892f 703e 70a6 02be c8a8 e4be 1052 f8be
00000090: a84f d53e 20d2 c93e 1f48 46bd 33e3 8fbe
000000a0: 034d e3be e0fc 0fbf 1c8a ebbe 2c75 ffbe
000000b0: 0979 32bf a3c8 80be cdbe 02be 7abd f63c
000000c0: f930 10bc 1735 9dbe eabc cabe ea8e a8bc
000000d0: d824 4dbf 949a 17bf f188 89be afa5 863e
000000e0: a3a3 25bc 6719 78bf a16b f9bd 34b8 e9bd
000000f0: c223 80bd e682 09bf 75a9 e3be 249f 0cbf
00000100: eebb 52bf 58af 52bf fbd8 2b3e 53b8 203d
00000110: 6f1c 3d3e a0ff 30be 502e 723e 33a9 1cbe
00000120: eb66 fabe 351b c9be ba0d bdbe 2c59 f9bd
00000130: 5987 59bf 1ab9 e6be 7344 6a3e 78db 84be
00000140: da58 5fbe fce7 31bf 19b1 99be 790f 06be
00000150: cc2a 62be 80b0 fdbe 438a 82bd eacb cfbe
00000160: 01d0 07bf a272 27bf df8d a9be e5d6 ccbe
00000170: 949f d63e 2211 8e3c 1cf6 d5be 578c 073f
00000180: 0ca5 90bd ecb2 e9be bbc8 25bf ba88 2dbf
00000190: 0792 cebe 25af 1cbf 015b 08bf bbbf 073f
000001a0: 9b87 30be 6b7e 1d3c 825d 1bbe 5dec 07bf
000001b0: e117 26bf 0c7f ed3e ef03 923e dbf5 15bf
000001c0: edaa a3be e00d 8ebe ca41 a0be 0595 45be
000001d0: f8cf fdbe 3422 bebe 2730 2ebf 2a11 bfbe
000001e0: f2b1 433d 33a5 b2be cd44 663e 1ae3 0bbf
000001f0: e872 7a3e fb7f 1ebe 146f 8cbd 54e5 603d
-0.71799767 -0.30528593 -0.4274123 -0.46820265 -0.18913619 -0.5455669 -0.20492968 -0.9933847
0.009059864 -1.272662 -0.5400658 -0.5665389 -0.3087385 -0.15618025 -0.63079536 0.24156813
-0.35470358 -0.76236975 0.096410364 0.14733168 -0.539366 -0.38823026 0.05487014 0.38397732
-0.30044886 -0.36210102 -0.7078109 0.38601267 -0.4305889 -0.4838543 -0.15319057 -0.37953678
0.23455633 -0.12758803 -0.4466002 -0.4850011 0.41662335 0.39418125 -0.048408624 -0.28103027
-0.44394693 -0.5624523 -0.46003807 -0.49894083 -0.69715935 -0.25153074 -0.12768097 0.030119646
-0.0088007385 -0.30704567 -0.39597255 -0.02057596 -0.80134344 -0.5922024 -0.2686229 0.26298282
-0.010109815 -0.9691376 -0.12178732 -0.11412087 -0.0625682 -0.5371536 -0.44465223 -0.5493033
-0.8231801 -0.82298803 0.1678199 0.039238285 0.18467878 -0.17285013 0.2365048 -0.1529892
-0.48906645 -0.3927857 -0.36924535 -0.12175211 -0.8497215 -0.45063096 0.22877674 -0.2594869
-0.21811238 -0.69494605 -0.30017927 -0.1309184 -0.22086638 -0.4954872 -0.063740276 -0.40585262
-0.53051764 -0.6540929 -0.33116052 -0.40007702 0.41918623 0.017342154 -0.4178933 0.52948517
-0.0706273 -0.4564432 -0.64759415 -0.67786753 -0.40345785 -0.6120475 -0.5326386 0.5302693
-0.1723923 0.00961266 -0.15172389 -0.53095037 -0.64880186 0.46385992 0.28518626 -0.5857827
-0.31966344 -0.2774496 -0.31300193 -0.19295128 -0.4957273 -0.3713547 -0.68042225 -0.37317783
0.047777124 -0.34891662 0.22487183 -0.54643404 0.24457896 -0.15478508 -0.06857124 0.054906204

bn1.running_mean f4 [128]
00000000: a630 1b3c 091c 3d3c 34d5 0a3c eff8 393c
00000010: 0501 313c b733 253c fb9f 4d3c bf70 113c
00000020: 4397 3a3c 5449 2c3c 8fbd 283c 0880 2e3c
00000030: 99e2 283c 6ad1 503c e72d 453c f0b5 2a3c
00000040: 7958 283c eef9 2f3c 4c8a ff3b e328 2e3c
00000050: 3a14 2a3c 61ff 0d3c 9576 0b3c f419 1a3c
00000060: d6f9 1b3c 4d98 1f3c 28a1 093c 11d2 2b3c
00000070: b7e4 213c c2af 2e3c 0bc6 143c f42d 153c
00000080: d0d3 503c 5f3b 153c 691c 1e3c bbd8 3c3c
00000090: 5486 203c 6825 1f3c f686 0c3c 22ed 3a3c
000000a0: ba7f 2e3c 0468 433c 0d32 3b3c 3fae 2e3c
000000b0: 4f31 143c cbb2 323c b4b7 0f3c 0bf2 1e3c
000000c0: da5a 2f3c d298 2f3c 4c74 df3b bd47 253c
000000d0: 337c 183c 3620 143c 79aa 103c 0c82 4b3c
000000e0: 388c 273c 1508 2f3c 767c 373c 62e9 1a3c
000000f0: 22ba 2f3c 82f1 2b3c 66c3 223c 1f48 2f3c
00000100: efee 263c bfd0 243c 2fd8 193c 1395 033c
00000110: 8330 393c 3a86 f93b 7f9b 2d3c 8ed9 2a3c
00000120: 11a7 333c d426 113c 7dd4 283c cd89 333c
00000130: bf49 1e3c 5ed5 313c 6319 3a3c be21 323c
00000140: 3a7a 2f3c 1391 153c 487d 1b3c 92f1 453c
00000150: e111 173c 84a6 293c 2529 233c 02f2 2e3c
00000160: e555 023c ac9d 423c e093 273c d89a 133c
00000170: 441c 263c 7f03 273c 53bc 2f3c c418 3e3c
00000180: 5600 1c3c b91d 2d3c ea9c 233c f9fa 223c
00000190: 55c5 103c 84ec 333c 409c 303c 65aa 233c
000001a0: f676 1f3c fc0e 343c 8040 1b3c 9d51 443c
000001b0: a945 2c3c e30c 283c bbb7 1c3c 6e7d 273c
000001c0: cbb9 2c3c 40cb 1d3c 6029 1a3c b7cb 0b3c
000001d0: 5b36 373c bcf8 313c aab6 143c dde3 253c
000001e0: 6f84 2f3c 5be3 0a3c 8676 203c 58ae 223c
000001f0: 2ee5 e93b 5f8c 0d3c e87a 283c d0c6 283c
0.009472048 0.011542329 0.008473683 0.011350854 0.010803466 0.010083131 0.012550349 0.008876978
0.011388603 0.01051553 0.010299101 0.010650642 0.010307931 0.012745241 0.01203487 0.010419354
0.010275 0.01074074 0.0077984687 0.010629865 0.010380799 0.008666844 0.008512159 0.009405602
0.009520015 0.009740901 0.008400239 0.010487095 0.00988119 0.010662021 0.00908042 0.009105194
0.012745813 0.009108393 0.009650328 0.011526282 0.009797651 0.009713508 0.008577099 0.011409076
0.01065057 0.011926655 0.011425507 0.010661661 0.009044959 0.010906885 0.008771826 0.009701262
0.010702813 0.010717588 0.0068192836 0.0100879045 0.009306955 0.009040883 0.008829706 0.012421142
0.010226302 0.010683079 0.011199107 0.009455057 0.01072553 0.010494592 0.009934282 0.010698347
0.010188802 0.010059535 0.009389921 0.0080311475 0.01130307 0.007614878 0.010596155 0.010427846
0.010965125 0.008859355 0.010304567 0.010958147 0.009661137 0.010854093 0.011358592 0.010872303
0.010710293 0.009128827 0.009490319 0.012081521 0.009220571 0.010354642 0.00995854 0.010677816
0.007955049 0.011878412 0.010228127 0.009009086 0.010138575 0.010193705 0.010726052 0.011602584
0.0095215645 0.010566168 0.009986142 0.009947532 0.00883611 0.010981683 0.01077944 0.009989356
0.009732952 0.010989901 0.009475827 0.011982349 0.010514655 0.010256979 0.009565289 0.010222776
0.010542343 0.009630978 0.009409279 0.008532456 0.011182393 0.010862526 0.009076754 0.010125128
0.010712727 0.008477057 0.009793883 0.009929262 0.007137916 0.008639424 0.010283209 0.010301307

bn1.running_var f4 [128]
00000000: 6a92 903e 5108 953e eb4d a63f cbf1 4d3f
00000010: 6bf7 0c3f 87af 523f e014 903d 9b7c 593e
00000020: 51a2 703d f2a8 823e c57c 0e3f 3542 7f3f
00000030: 9a31 653e dc74 f63e ea10 103f cc2e 393f
00000040: 1b67 303e e1e1 b03f f355 d83d 5493 d63e
00000050: b202 9d3f 8648 1b3f 66a8 b23e f82c 963e
00000060: 35f8 3b3f 2be7 063e add6 293e 8db8 b83f
00000070: f856 3c3e 47aa 033f de35 263f 6c63 483e
00000080: ebb6 303f 6534 043f 1a3c 963f 6317 573e
00000090: f06c 083f fc6d 5d3e e44e ff3e eaa9 a63f
000000a0: da49 8b3f 10ad 033f a2f7 ca3e 95f9 b83e
000000b0: 49f8 4c3f 5078 223e c40c 363f 2477 f93e
000000c0: 9a39 fe3c ef17 493f feab 653d 5a65 823e
000000d0: cebc a93f 64fc c83e 9945 413f 5e11 0d3e
000000e0: 7895 2c3f 784e b33f 41cc b63e 8ec3 b53e
000000f0: 84e0 823e e922 2c3f 35c2 a13e a50c 873f
00000100: 1601 1b3d 3d99 7e3e 5cd5 cb3e 27ba 0c3d
00000110: cd14 db3d 0acb 633e f7e7 bc3e 3ac7 fa3e
00000120: aa6a 693f 7675 9f3e 7d04 863e 8f59 f43d
00000130: 459f 1a3f afff 2e3f 4360 d73e efc9 033e
00000140: fac6 ac3f a844 213e ff64 d33e 7f3e b13e
00000150: 4caf 1e3f edf6 ce3f 83f0 863e 81e9 bc3e
00000160: 7ea4 213e 2f7a e83e dd41 0e3f 3c14 ba3d
00000170: 3a11 ce3e 383f e83e b21a 9e3e 638a c33d
00000180: 55bd db3e 3016 313f c9d4 b03f 20ab 733f
00000190: 3d11 0f3f df27 8b3f 8c28 e53e e99d d73f
000001a0: 3b5f 3c3f beff 203f 37b9 e73e 8916 603f
000001b0: 4ad1 963e c2c9 8f3e 39f2 2b3e 39a7 ef3e
000001c0: 5ef8 4e3f 217e c43e bbb2 563f a985 ee3e
000001d0: dcac 133f 832f d43c f341 4a3e 3d32 f23d
000001e0: ac75 cf3e 0804 033e 7487 1c3e 4068 903f
000001f0: 9e3e 2d3d 4d3f 563e 5054 443f 510d 153f
0.28236705 0.29107907 1.2992529 0.8044707 0.5506503 0.82299083 0.070352316 0.2123894
0.058748547 0.2551952 0.55659133 0.997104 0.22382203 0.48136032 0.5627581 0.7233703
0.17226832 1.3818933 0.105632685 0.41909277 1.2266448 0.60657537 0.34894103 0.29331183
0.7342561 0.13174121 0.16585799 1.443132 0.18392551 0.514317 0.64925945 0.19569176
0.6902911 0.5164245 1.1737092 0.21005015 0.53291225 0.21623987 0.49864876 1.3020604
1.0881913 0.5143595 0.39642054 0.36127916 0.80066353 0.15866208 0.7111323 0.4872371
0.031033326 0.78552145 0.056072228 0.2546795 1.3260744 0.3925506 0.7549682 0.13776156
0.6741557 1.4008322 0.35702708 0.3550076 0.25561917 0.6724077 0.3159348 1.0550734
0.037842833 0.24863143 0.39811218 0.034357216 0.10697327 0.22245422 0.36895725 0.48980123
0.9117838 0.31144303 0.261753 0.119311444 0.60399276 0.6835889 0.4206563 0.1287
1.3498223 0.15748847 0.4128799 0.34617993 0.6198623 1.6169106 0.2635537 0.368969
0.15785405 0.4540572 0.5556925 0.09085891 0.40247518 0.45360732 0.30879742 0.095478795
0.42917886 0.6917448 1.3814937 0.9518299 0.5588568 1.0871543 0.44757497 1.6845065
0.7358281 0.6289023 0.45258495 0.87534386 0.2945655 0.28083616 0.1679162 0.46807268
0.8084773 0.3837748 0.8386647 0.4658635 0.5768564 0.025901562 0.1975172 0.118259884
0.40519464 0.12794507 0.15286046 1.1281815 0.042296045 0.20922585 0.7669115 0.58223444

fc2.weight f4 [128, 128]
00000000: 4787 36be 20d6 1ebb 19d5 eebd 1f97 a8be
00000010: 9080 97be 0aba 4fbe aa68 3d3c 90fa c7bd
00000020: 10e9 863e d550 98bd e220 923e 2ad8 0b3e
00000030: 6b0a e1bc b279 0c3e 267e 9cbd fa34 213e
00000040: 81b7 7b3e 55da 81bd 4319 313d 6e35 cabd
00000050: 29b2 083d fcf9 8dbd bd85 213e eb85 bdbd
00000060: 9336 f13b 5eca 64be bdb5 b7bd 41a9 a6be
00000070: 3d97 7f3d d372 aebd aa95 0c3e d36e 783d
00000080: 5a4d b6be 8c12 043d be25 96be 4f91 973d
00000090: fa64 82be 1489 503b 19df ad3d d1fd c9bd
000000a0: 9a5c 723e 7d2c 1fbe 2fe5 5dbe 3442 943b
000000b0: 5e60 6b3e 2ec7 84bd db59 493d 693f 15be
000000c0: f606 85be 269c 80bd a188 373e 1591 4cbe
000000d0: 3e9b a23e 78f2 523d 69d6 c83d 5823 d23c
000000e0: 83b0 623d 4d47 313e bcf5 f6be 1aba 4bbe
000000f0: f1e9 903e c31d 06be ebec 86be 3064 083f
00000100: cedf 303e bb32 0c3f 4d29 75be 37fb e2bd
00000110: a9dd c73c 29f1 a13d c5cd 4d3d df70 1abe
00000120: 9e60 dbba 75f5 9d3c cd2e 1e3c cb4a 883e
00000130: b031 bebd 098a 45be 3e87 613e 5441 843d
00000140: eb0f 57be 6bf4 393e 4c50 23bd 501c e2bc
00000150: b869 47be 0d7f cdbd 11c9 503e 4a5a c93d
00000160: e95b 1d3e 31bd 9ebe d907 003e 2f62 a0be
00000170: 4d63 99be 5bcf 7d3d 2a40 8fbe 560f 423e
00000180: 9ddf 3bbd 698f e1bd 76cf 1fbd c214 fabc
00000190: 6382 03be 3927 a1be 1906 5d3e 4006 9e3d
000001a0: 8a6c c7bd 276e 3e3e 1c8e 87bd 023c b73d
000001b0: 9316 983c 884f 4a3e 4c6b 87be 90c6 d13c
000001c0: 754e 3fbe b412 e9bd 6bd5 383d 6750 eb3c
000001d0: 86b2 13be d8ab 9dbe 8aa5 963e a36c 5e3d
000001e0: 9b87 c6bd bbed 04be 243d d23d f77e 23bc
000001f0: f69b 013d 8965 2dbe fbb2 26bd 9a79 583e
00000200: 3c59 be3e 14db 7c3d 4f4f 863d 3c14 a1bd
00000210: 0f80 1ebe a388 983e 344a 113e b59a 28be
00000220: ff9c 693e 5f79 de3e e6b4 d4be 95b4 9c3d
00000230: b73e 843c 6bc6 133e ced4 e6be 65d7 b63d
00000240: d966 a9bd 02dd dc3d 8d2e 1dbe 8644 2d3d
00000250: 540a 70bd dee7 79be 87a1 4a3e 893b a73c
00000260: fb55 243e 899e d33c f37d 27be d1f6 853e
00000270: 0a83 0b3e a066 3b3e 6345 6a3e 547a 94bd
00000280: a432 ddbd 8798 0abe f5e9 253e 513a 6f3c
00000290: 8179 e5bc 50c3 2cbb 67e0 cc3c 5ac2 263e
000002a0: 9471 193e bc5e 8b3d 04ce 02bf 9a62 5cbe
000002b0: 8b66 873e 214d 2a3e b7da bd3d d187 1abd
000002c0: 2ea4 5f3c 7e24 b13d 894f 253e 38fa 18be
000002d0: d18f d83e b7b5 a43d 9912 a33e a93d 273e
000002e0: 722d 863e 2a79 983e 3a8a d0bc b3c9 d73d
000002f0: 43ec 5a3c 5ee3 793e bee1 2d3e 9467 3a3d
00000300: f950 d5bd 4e1a b0be 2487 c73d 2855 803e
00000310: c990 be3e 74de 3cbe 848a a93d 2228 be3d
00000320: b28c 673e d5df 923d e081 e0bd 4f14 673e
00000330: ff15 91bd 6c57 0c3d ec7f 63bd fd73 963d
00000340: d973 873e f4d4 5f3e 16e2 723e d6d8 04be
00000350: 9e6e 24bc c1e4 4dbd 9d54 1d3e 9288 cfbd
00000360: 2391 86be a406 1d3e f2b5 e53b 5e52 8e3e
00000370: f22e 123e 47fd 08bd bb1c c1bd d1ad 9f3d
00000380: bbab 50be 866a 62be 682e 983e 8a39 1e3e
00000390: 2573 bebc 6ade 173e 2a82 973e e1cd cb3c
000003a0: a727 59be baa8 c13d f9a2 f93d 0fc0 acbd
000003b0: 9041 71be f2ce ae3c 8ea3 85be fea4 98bd
000003c0: 157b d03d b1eb b1be 9cb7 d5be 247c a7bd
000003d0: f3f5 e03d c5d2 003c 3917 6d3e a79c 113e
000003e0: 6b23 87be 48dc e1be f56c 973d 28fb c9bb
000003f0: 6e70 123e 5c11 5c3e 76d3 19be bf93 823e
-0.17825042 -0.0024236515 -0.11661739 -0.32927796 -0.29590273 -0.20285812 0.011560598 -0.09764588
0.26349688 -0.074372925 0.28540713 0.13656679 -0.027470788 0.13718298 -0.076412484 0.15742865
0.2458172 -0.06340472 0.043236982 -0.09873472 0.03337303 -0.06932446 0.15773673 -0.092540585
0.007361242 -0.22342822 -0.08970211 -0.32551005 0.06240009 -0.08517995 0.13728967 0.060652565
-0.3560589 0.03224425 -0.2932567 0.07400762 -0.25467664 0.0031819986 0.08489818 -0.09862865
0.23668137 -0.15544315 -0.21669458 0.0045244936 0.2298598 -0.06483303 0.04915796 -0.1457497
-0.25981873 -0.06279783 0.17923214 -0.1997722 0.31759065 0.051500767 0.098065205 0.025651619
0.055344116 0.17312355 -0.48234355 -0.19895211 0.28303483 -0.1309729 -0.2635263 0.53277874
0.17272875 0.5476491 -0.23941536 -0.11083072 0.024397688 0.07907326 0.050245065 -0.1508212
-0.0016737168 0.019282082 0.009654713 0.26619563 -0.09286821 -0.19290937 0.22024247 0.06457773
-0.21002166 0.18159644 -0.0398715 -0.027601391 -0.19473922 -0.10033999 0.20389201 0.098316744
0.15367092 -0.31003717 0.12502994 -0.31324908 -0.29958573 0.061965328 -0.2797864 0.18951163
-0.04586755 -0.110136814 -0.03901621 -0.030527476 -0.12842707 -0.31475237 0.21584357 0.07716036
-0.09737499 0.18596707 -0.06618902 0.089469925 0.018565452 0.19756901 -0.2644905 0.025607377
-0.18682273 -0.113805205 0.045125406 0.028724862 -0.1442357 -0.3079517 0.2942317 0.054302823
-0.096938334 -0.12981312 0.10265568 -0.009979001 0.031642877 -0.16933264 -0.040698033 0.21140137
0.37177455 0.061732367 0.06558096 -0.078651875 -0.15478538 0.29791746 0.14188462 -0.16465266
0.22813796 0.43451974 -0.41544265 0.07651631 0.016143186 0.14431159 -0.45084232 0.08927802
-0.0827157 0.107843414 -0.15349789 0.042301677 -0.0586036 -0.24404857 0.1978818 0.02041413
0.16048424 0.025832431 -0.1635664 0.26164868 0.13624206 0.18300867 0.22878031 -0.07249895
-0.108006746 -0.13534747 0.16202529 0.014601306 -0.02801204 -0.0026361533 0.025009347 0.16285077
0.14984733 0.068051785 -0.51095605 -0.21521989 0.26445422 0.16630985 0.09270232 -0.03772718
0.013649983 0.086495385 0.16143622 -0.14939201 0.42297223 0.08042472 0.31850126 0.16332115
0.26206547 0.2977994 -0.025456537 0.10536518 0.013361993 0.2440314 0.16980645 0.045508936
-0.10415835 -0.3439507 0.09742573 0.2506497 0.37219837 -0.18444234 0.08278373 0.092849985
0.22612265 0.07171599 -0.10962272 0.22566341 -0.070842735 0.03426306 -0.055541918 0.07346342
0.26455572 0.21858579 0.23719057 -0.12973341 -0.010036139 -0.050266985 0.15364309 -0.101334706
-0.26282606 0.15334564 0.007010215 0.27797216 0.1427572 -0.03344467 -0.09429308 0.07796825
-0.2037801 -0.22110948 0.29722905 0.15451637 -0.023248265 0.14830938 0.29591495 0.024878444
-0.21206532 0.0945601 0.12189288 -0.0843507 -0.23560166 0.021338914 -0.26101345 -0.07453345
0.10179726 -0.3475013 -0.41741645 -0.08177975 0.10984411 0.007862751 0.2315339 0.14219914
-0.2639421 -0.44113374 0.07393829 -0.0061639734 0.14300701 0.21490997 -0.15022072 0.25503346

fc2.bias f4 [128]
00000000: 31ed 303c 1967 213c 916c 293c a563 1b3c
00000010: 9155 053c 6c2c 263c 85c8 203c ad08 243c
00000020: b580 323c 6d0c 213c 6768 1c3c 5048 293c
00000030: 77f0 273c ea12 323c 941b 163c e355 2a3c
00000040: bcdd 123c 77e5 223c cff5 193c ae75 223c
00000050: 1f89 273c 9709 2c3c 9a9e 263c 2404 1c3c
00000060: 0a43 213c b485 2c3c 4a5b 1a3c 63ff 1d3c
00000070: b9f7 1f3c 9ff7 213c 1f54 293c 7836 183c
00000080: e83f 0f3c 6ca2 233c 8ca4 2c3c 80bc 293c
00000090: cda9 2f3c 0c22 133c 567a 293c e83d 1a3c
000000a0: d480 2a3c 184e 423c 3828 263c d64e 273c
000000b0: 4bed 2a3c 9e5e 303c 75ec 203c a7c8 183c
000000c0: d9f6 233c 8a11 183c 50ef 203c 4e13 263c
000000d0: 4461 283c cf74 2c3c ef2c 1d3c 4843 213c
000000e0: 7b48 263c 5c41 263c 72c9 343c 18f5 113c
000000f0: 13a1 163c d3c5 203c 7ca1 1e3c e362 2e3c
00000100: c5a2 1d3c 26c7 243c 13af 1f3c b06e 253c
00000110: ee12 313c 0493 253c 5909 273c 3c08 243c
00000120: c2c6 203c fd84 243c cc96 203c 990e 243c
00000130: afb7 223c 1322 273c 3fa6 193c e586 1c3c
00000140: 3486 113c d36c 233c e003 1e3c 7dba 263c
00000150: 4c6b 283c 2a36 123c 5b3b 283c 14ce 133c
00000160: 026a 293c 4d72 233c 715e 2a3c aa4e 223c
00000170: 7e50 243c 19aa 283c 0f1d 243c be16 273c
00000180: 646c 243c c93c 1a3c 74e0 303c 8578 283c
00000190: 1425 1c3c bb5b 273c b9bd 2a3c 8117 253c
000001a0: d5b3 213c d099 243c a83d 1d3c 51b4 2e3c
000001b0: b901 293c 55dc 223c de29 233c f209 233c
000001c0: b33e 253c 83e5 2b3c 7b11 293c d5f8 1f3c
000001d0: 7d19 283c 2333 2a3c a74e 243c ec38 213c
000001e0: 1f42 243c 9adb 193c 51df 223c d40a 1c3c
000001f0: 4f86 203c e722 203c 01eb 273c c2f6 213c
0.010798738 0.009851241 0.010340826 0.009484206 0.008138076 0.010142427 0.009813433 0.010011834
0.010894944 0.009829623 0.009546376 0.010332182 0.010250202 0.010868767 0.009161849 0.010396454
0.008963998 0.009942404 0.009396984 0.009915752 0.010225563 0.010500333 0.0101696495 0.009522472
0.0098426435 0.010529924 0.009421179 0.0096434085 0.0097636515 0.009885698 0.010334997 0.00929033
0.008743264 0.009987455 0.010537278 0.010359883 0.010721636 0.008980285 0.010344109 0.009414174
0.010406692 0.011859439 0.010141425 0.010211667 0.010432552 0.010764746 0.009822001 0.009325183
0.010007584 0.009281525 0.009822682 0.0101364385 0.010277096 0.010525896 0.009593233 0.009842701
0.010149117 0.010147419 0.011034356 0.008908533 0.0091936765 0.00981279 0.009682056 0.010643694
0.009621327 0.010057246 0.009746331 0.010097191 0.010807736 0.010105852 0.0101951 0.010011729
0.009813013 0.0100414725 0.009801578 0.010013246 0.009931489 0.010200995 0.009378015 0.009553646
0.008882094 0.009974676 0.009644479 0.010176298 0.010279488 0.0089240465 0.010268058 0.009021301
0.010340216 0.009975982 0.010398493 0.00990645 0.010028956 0.010294461 0.010016694 0.010198293
0.010035608 0.009413906 0.010795701 0.01028264 0.0095303245 0.010214741 0.01042121 0.010076405
0.009869535 0.010046437 0.0095972195 0.010663108 0.010315352 0.009940227 0.009958712 0.009951102
0.010085749 0.010491732 0.010319109 0.009763916 0.010259983 0.0103881685 0.010028518 0.009840231
0.01002553 0.009390736 0.009940938 0.009524066 0.009797647 0.009773946 0.0102489 0.009885492

bn2.weight f4 [128]
00000000: 4fe2 e13f b8ae e33f 9f13 c23f a69f ce3f
00000010: ff0e b83f cdce c53f f22b ee3f b615 a73f
00000020: d14b d83f e892 af3f fd55 c83f 9d7c d03f
00000030: b3f2 ce3f 6bb1 c43f c043 d83f 29a7 d73f
00000040: 810a ad3f 316b e03f dc3b ba3f 26d2 d33f
00000050: 2c1e aa3f e694 d43f 800b b23f 0784 c23f
00000060: 4504 ca3f c405 f63f cac9 e23f 8731 c03f
00000070: 7c3a a93f 4c86 ba3f 98b2 f23f 8fe6 be3f
00000080: 22c0 d83f 7d7b bb3f e52a be3f 4821 ea3f
00000090: 9c32 cf3f c83b b23f 841d f43f dca6 ac3f
000000a0: 20a8 b43f d999 cd3f 27ba d83f e7ca d53f
000000b0: 6b05 cd3f f3c6 d73f 24eb ab3f 7472 0f40
000000c0: 81b8 cd3f 8e85 db3f c5b9 e13f 5809 bd3f
000000d0: 6d02 d33f 66c8 cd3f 5844 c33f eb1c b23f
000000e0: 4047 df3f 0022 bf3f 6c8f c63f 1326 cc3f
000000f0: 0432 be3f a7a8 d73f ebcb c03f 6197 c63f
00000100: dcaa ae3f 6d63 a23f 9d18 e53f a72b c03f
00000110: 360e f23f 4b61 c83f 6439 d33f 4e42 c93f
00000120: 8957 d33f 417c e03f d38d d83f e1fc bb3f
00000130: 291d b03f 9d83 0140 15c8 e33f d9a7 df3f
00000140: dcfb f93f dc59 de3f 6b37 b33f 7c15 0e40
00000150: ec69 bb3f b655 c63f a666 c13f 827b c63f
00000160: 5779 c43f f42b e23f e9da d03f f898 c83f
00000170: 04d2 cc3f 1d46 c63f 8a3c df3f 4141 b93f
00000180: 71a8 cb3f 1b63 bc3f b747 c13f 7fbd ce3f
00000190: 5372 b03f 57e3 aa3f ce48 d93f 18b0 c33f
000001a0: 15a6 c13f d2d4 d43f fb24 c43f d471 fd3f
000001b0: 6b05 cd3f 3587 f03f c82f d83f b6bc c43f
000001c0: 53cc b73f 2384 bb3f 39c8 e43f a405 eb3f
000001d0: 3171 d13f 6120 0340 9957 af3f 4257 c03f
000001e0: 94ac d73f 7a74 e83f 5085 a83f 7d4a c63f
000001f0: 7ee7 b43f af4d b93f 72aa f13f adc2 b23f
1.7647189 1.7787695 1.5162238 1.6142471 1.4379576 1.5453736 1.8607161 1.3053501
1.6898137 1.3716707 1.5651242 1.6288029 1.6167816 1.5366644 1.6895676 1.6847888
1.351883 1.7532712 1.4549518 1.6548507 1.3290458 1.660794 1.390976 1.5196542
1.5782553 1.922051 1.7717831 1.5015115 1.3220973 1.4572234 1.8960752 1.4914111
1.6933634 1.4647061 1.485684 1.8291407 1.618732 1.3924494 1.9071507 1.3488421
1.4113808 1.6062576 1.6931809 1.6702546 1.6017278 1.685759 1.3431134 2.2413607
1.6071931 1.7150133 1.7634817 1.4768476 1.6485115 1.6076782 1.5255232 1.3915075
1.7443619 1.4932251 1.5512519 1.5949119 1.4859014 1.6848344 1.5062231 1.5514947
1.3645892 1.2686592 1.7898136 1.5013322 1.8910587 1.5654691 1.6501889 1.572336
1.6511089 1.7537919 1.6918281 1.4686548 1.3758899 2.023658 1.7795435 1.7473098
1.9529986 1.7371173 1.4001287 2.2200613 1.46417 1.5494907 1.5109451 1.5506442
1.534953 1.7669663 1.6316806 1.5671682 1.6001592 1.5490147 1.744035 1.4473039
1.5910779 1.4717745 1.5100011 1.615158 1.3784889 1.3350629 1.6975343 1.5288115
1.5128809 1.6627448 1.5323786 1.9800363 1.6017278 1.8791262 1.6889582 1.537009
1.435923 1.46497 1.7873603 1.8361096 1.6362668 2.0488513 1.3698608 1.5026629
1.6849542 1.8160546 1.3165684 1.5491482 1.4133146 1.4476832 1.8880141 1.396566

bn2.bias f4 [128]
00000000: d163 87be 7a12 7dbe 313e 4ebf 2c33 e7be
00000010: fd70 5dbf fc25 46be 1aa2 f5bd ff0c ce3c
00000020: 0c18 babe b783 c7bd 51ba 95be 650c c6bd
00000030: 8da0 04bf 608d 90be 887b 44be 1ea8 c9be
00000040: faa3 42bf fa8b 0cbf 7f8a fd3d 5895 02bf
00000050: a21c c3be 04b7 143d 1cfe 4abe 7d50 ebbe
00000060: 3410 aabe fce7 82be fd91 87bc 5505 67be
00000070: 3c83 e8bd 400d 81be 8712 5bbf ba75 1bbf
00000080: 6905 14bf 07d3 86be 0450 b6be a2d3 8abe
00000090: 892e 48be 9d75 cebf 9ac0 8c3e e301 28bf
000000a0: 9863 17bf d8c6 07bd c3de 35be 8429 b8be
000000b0: d2ce c6be 2553 afbd 9ff3 a63c 5cf5 4e3e
000000c0: 911d 1abe b889 99be d1e5 70bf 632f b1be
000000d0: 09b0 eebd 85c9 37be afa6 89be b68c 0c3d
000000e0: 7ac1 70be 939b 1ebe 269a 1cbf 2790 64be
000000f0: a6a7 5fbe ef30 46bf fe46 cabe ff0c 67bf
00000100: e431 e4be f70f 993d e1a7 0dbd 622d 3cbe
00000110: 96d5 0abf 24e6 b5be 8331 dfbe 94bb 15be
00000120: baa2 763d 2378 18be bbd3 c2bd 652d 08bf
00000130: 083b 1ebe dc0a 21be 02b1 a6be c303 7abe
00000140: 7772 dbbe 836a 81bd 8910 4dbf 462e 1bbd
00000150: d753 acbd 5099 02bf 665a 03bf 2fa4 90be
00000160: 8202 29bf b6f7 85bd 814b 4abe 53f3 35be
00000170: db5a cebe 9b6d fcbe c30a 15bf 7010 49bf
00000180: eec8 91be 77e8 bebd a2d7 97be fcd7 96be
00000190: 93aa 30be d3f6 e5be e0fc 23be 45c3 aebe
000001a0: 3eca f5be 885b 5c3e 46d2 80be 0ae1 a1be
000001b0: 9cce 0abe 8d20 aebe 6a4f 6fbe ce5b d6bd
000001c0: ced5 adbd 1b67 9ebe 6069 84bf f685 9cbe
000001d0: aff8 bdbe 9b8b 6bbe 3860 ccbb 0e20 00bf
000001e0: 3029 3fbe cf5b e2bd 9491 cabe 5556 2cbe
000001f0: e75e a1be 28e2 6cbd 07b4 83be e3e3 13bf
-0.2644334 -0.2471408 -0.80563647 -0.4515623 -0.8650053 -0.19350427 -0.11993809 0.025152681
-0.3634647 -0.097419195 -0.2924371 -0.09670333 -0.5180748 -0.2823286 -0.19187748 -0.39386076
-0.7603146 -0.5490109 0.12379932 -0.5100913 -0.38107783 0.03630735 -0.19823498 -0.45959845
-0.33215487 -0.25567615 -0.016549105 -0.22560628 -0.11353156 -0.2520542 -0.85575145 -0.6072651
-0.57820755 -0.26332876 -0.35607922 -0.27114588 -0.19549002 -1.6129643 0.27490693 -0.6562788
-0.59136343 -0.033148617 -0.17760758 -0.35969174 -0.38829666 -0.085607804 0.02037984 0.20210785
-0.15050341 -0.29987884 -0.9410067 -0.34606466 -0.1165467 -0.17947967 -0.26884982 0.03431388
-0.23511305 -0.15489034 -0.6117271 -0.22320615 -0.21841297 -0.77418417 -0.39507288 -0.90254205
-0.44569314 0.07473748 -0.03458393 -0.18376687 -0.54232156 -0.35527146 -0.43592462 -0.14622337
0.060213782 -0.14889579 -0.09513041 -0.53194267 -0.15452206 -0.15726799 -0.3255692 -0.24415497
-0.42860767 -0.063191436 -0.80103356 -0.037885927 -0.08414429 -0.51015186 -0.5130981 -0.28250262
-0.6601945 -0.06541388 -0.19755365 -0.17768602 -0.40303692 -0.49302372 -0.58219546 -0.78540707
-0.2847361 -0.09321683 -0.29656702 -0.29461658 -0.17252569 -0.44914874 -0.16014433 -0.34133354
-0.4800586 0.21519291 -0.25160426 -0.31617004 -0.13555378 -0.3400921 -0.23370138 -0.10466729
-0.08488046 -0.30938038 -1.0344658 -0.30570954 -0.37103793 -0.23002474 -0.006237056 -0.5004891
-0.18668056 -0.11052667 -0.39564192 -0.16829808 -0.31517717 -0.057832867 -0.25723287 -0.577696

bn2.running_mean f4 [128]
00000000: 061e 5ebf 6152 9a3f a65b aabe 778c 9bbd
00000010: 750a ce3f ee4e 56bd 6533 843f 51f2 433f
00000020: ae92 8fbe 9f7c 1abf 9821 0fbf 77d4 a6bf
00000030: 608a bf3e 6716 d63e 8faa b33e bc9e ca3f
00000040: ec53 4c3d 83a1 53bf 4764 11c0 a04f d7bf
00000050: cc00 90bf 3caf 0ec0 d6b1 9bbf 6d56 3b3f
00000060: 4c27 21bf 9d61 fd3f b177 f23e ef96 0740
00000070: fb0e b43f 985a 05be febe 04bf ac8b 0f40
00000080: caa5 a6bf 70f5 b5bd 7f48 08c0 60b1 9bbd
00000090: a339 88be 1feb 873d 38be 95be 27f1 f0be
000000a0: 51df f23f 2479 1940 7ab8 e1bf 41b0 debe
000000b0: 0709 6f3f 0dc3 d23f 2cc9 a83e a553 46bf
000000c0: 2ea1 c3be 94f9 383f 0930 fdbe 5cc9 ad3e
000000d0: d39c c8be 7858 8c3f badd b33e 5eab b4bf
000000e0: 143f 163f ced6 803f d85a 433f e426 2d3c
000000f0: e244 973f 8b64 73bf 5cd6 98bf 95d5 58bf
00000100: b9b8 09bf f8f5 81be ad3c 493f 1884 5c3f
00000110: 565f 91bf 7d11 933f 0dc1 e6bf 1ebd 43bf
00000120: 32a8 81be e104 b93e b7e9 b5bf b29f 9e3f
00000130: f07f 54bf 01cd 11bf 40ad a23f 11e9 8b3f
00000140: 0cf5 ffbf 8d71 6a3e 4228 093f 2c83 a8bf
00000150: c7cc e33e e1cc 063f 1bd3 383f 06a7 50bf
00000160: f996 353e 0f72 f3be c29b 823f 1969 cf3e
00000170: 5a17 aabf 98d5 2b3f 9bff af3f 3781 0bbd
00000180: 15f9 81bf 8b92 5b3f bf52 3f3f 9e80 1dc0
00000190: e588 b13f ce54 6bbf 40cc 9f3f 413a 1c3f
000001a0: 746d 28c0 43b3 883d 29ba 26c0 e18f f4be
000001b0: c79e 0ebe 2267 a13f c81a 8d3f 1c75 923f
000001c0: b805 863f afcd 6cbd 06dc 7bbf fc44 dbbe
000001d0: 5335 01be cae9 293f 2d2b 333f 5b31 183f
000001e0: 8dae e0bf 1e3d 4abf 0ba5 11bf 926c 3dbf
000001f0: 3221 49bf f377 ef3e acd6 ec3f ad90 d13d
-0.8676456 1.205639 -0.33273047 -0.07595151 1.6096941 -0.052321367 1.0328184 0.7654162
-0.28041595 -0.60346407 -0.55910635 -1.3033589 0.3741026 0.41813967 0.35091063 1.5829692
0.04988472 -0.8266832 -2.2717454 -1.6821175 -1.1250243 -2.2294455 -1.2163646 0.7317875
-0.6295059 1.9795414 0.47356942 2.1185873 1.4067072 -0.1302284 -0.5185393 2.2429
-1.3019345 -0.08884704 -2.1294248 -0.07602191 -0.26606473 0.06636643 -0.29246688 -0.47058985
1.8974401 2.3980188 -1.7634423 -0.43493846 0.9337315 1.6465775 0.32965982 -0.7747138
-0.38208908 0.72255826 -0.4945071 0.33942688 -0.39182147 1.0964499 0.351301 -1.4114797
0.5869 1.0065553 0.7631049 0.010568354 1.1817896 -0.9507529 -1.1940417 -0.847009
-0.5379749 -0.25382972 0.7860821 0.8613906 -1.1357219 1.1489712 -1.8027664 -0.76460445
-0.25323635 0.36136535 -1.4211949 1.2392485 -0.8300772 -0.56953436 1.2709122 1.0930501
-1.9996657 0.22894879 0.53577054 -1.316503 0.4449217 0.5265637 0.7219712 -0.8150486
0.17733373 -0.47547957 1.0203784 0.4050987 -1.3288376 0.67122793 1.374988 -0.034058776
-1.0154139 0.8577048 0.74735636 -2.4609752 1.3869902 -0.91926277 1.2484207 0.6102639
-2.6316805 0.066748165 -2.6051123 -0.4776602 -0.13927756 1.2609599 1.1023798 1.1441989
1.0470495 -0.057813343 -0.98382604 -0.42826068 -0.12617998 0.6637236 0.69987756 0.5945031
-1.7553269 -0.7899951 -0.5689246 -0.7399379 -0.7856628 0.46771201 1.8503013 0.10232673

bn2.running_var f4 [128]
00000000: ffa6 a43f 89f4 3f3f 1c26 7c3f f294 263f
00000010: 956c 793f 12f2 923f 8cee 4d3f 41d4 1a40
00000020: b166 2940 0f15 3b40 8783 513f 5ca7 cb3f
00000030: c010 853f 7a1e 3d3f 417f a23f ba3c b03f
00000040: 53e4 933f 0649 0740 11a7 ce3f 99af bd3f
00000050: 5c02 873f d374 2440 8d7c 963f 78ba 733f
00000060: da07 433f 64d3 403f 3b8e 2240 4224 0b40
00000070: 23c9 1740 f80e 2240 dc9a 643f f006 843f
00000080: 3aae 673f 4a1b df3f c9f2 b53f ed98 853f
00000090: cb9f 903f 24a8 6b3f 97e5 883f 84aa 0c40
000000a0: e213 ca3f 92b2 1340 e8de ce3e 10cb b43f
000000b0: 5837 9e3f 7ade b83f 455e 1b40 63b1 2c3f
000000c0: 6b32 5940 aa28 433f 34f6 5a3f d938 dc3f
000000d0: 4a20 053f ccfe 333f 0fef 923f 8af2 bc3f
000000e0: 0121 953f 4219 aa3f 2657 6d3f cd25 2240
000000f0: 8adb fa3f 5c93 a33f 28d2 9f3f 3f5c 0d3f
00000100: 83e7 7e3f fecb 5740 e681 103f 4536 e63f
00000110: abe7 c63e fb70 5e40 b21e de3f 7f8a c33f
00000120: 8a4a 0f40 103c 933f e5dd 6040 3e72 5f3f
00000130: 5e19 353f e932 433f 0882 0740 5c49 5d3f
00000140: 6221 ca3f c191 133f 965c 753f 609a 1e3f
00000150: 4747 5540 0f31 e63f 07ee 1b40 16bc 943f
00000160: 24ba 8e3f 7105 7e3f 4a43 753f 2aac aa40
00000170: e1b1 8b3f 6f54 783f 75f3 853f 806b 803f
00000180: 13d4 9f3f 6e40 ec3f 0a3f 803f 60b0 8f3f
00000190: 9aa1 a63f 5f6d b93f ad7d 9740 58a7 583f
000001a0: d7ad 9440 df2f 353f aad0 9c3f 3ffc 183f
000001b0: a3ef 733f 6c08 753f 29d5 b83f 4186 1a40
000001c0: 3861 7f3f ec23 9c3f 0f37 c13e 5cfd bb3f
000001d0: 33e0 ab3f 40a1 4f3f 6224 843f f144 e53f
000001e0: 2d62 1040 e819 233f 3546 8c3f f8ac 0140
000001f0: bc5f e43f 0e51 b73f a40c da3f 93f9 733f
1.2863463 0.74982506 0.9849565 0.6507102 0.9743131 1.1480124 0.8044212 2.419205
2.6468928 2.9231603 0.8184132 1.5910449 1.0395737 0.7387463 1.2695085 1.3768532
1.1554054 2.113832 1.6144735 1.4819213 1.0547595 2.5696304 1.175676 0.95206404
0.76183856 0.75322556 2.539931 2.174088 2.3716514 2.5321636 0.89298797 1.0314617
0.90500224 1.7430203 1.4214717 1.0437294 1.1298765 0.9205344 1.0695065 2.1979074
1.5787318 2.307774 0.4040444 1.412447 1.236064 1.4442894 2.4276288 0.6745817
3.3937023 0.76233923 0.85531926 1.7204849 0.52002394 0.70310664 1.1479205 1.4761517
1.1650697 1.3288958 0.927111 2.5335572 1.9598248 1.2779346 1.248601 0.5521888
0.9957201 3.3718257 0.5644821 1.7985312 0.38848624 3.4756458 1.7353117 1.5276641
2.2389245 1.1502705 3.5135434 0.87283695 0.7074183 0.7624956 2.1173115 0.8644006
1.5791438 0.5764428 0.958444 0.6195431 3.3324754 1.7983721 2.436403 1.1619899
1.1150556 0.9922705 0.958058 5.333516 1.0913659 0.97003835 1.0464922 1.0032806
1.2486595 1.8457162 1.0019238 1.12257 1.3018067 1.4486502 4.7340913 0.84630346
4.6462207 0.7077617 1.2251179 0.59759897 0.9528753 0.95715976 1.4440051 2.4144442
0.9975772 1.2198462 0.3773732 1.4686694 1.3427795 0.8110542 1.0323603 1.7911664
2.2559922 0.63711405 1.0958925 2.0261822 1.7841716 1.4321611 1.7035108 0.95302695
