p2/ckpt/prioritized/critic.pth (torch_old, 88291 bytes, 9 tensors)

bn0.weight f4 [33]
0.42214122 0.17122208 0.4698074 0.09599939 0.090074584 0.17169823 0.09755773 0.038242925
0.051489845 0.0346551 0.076206766 0.08461998 0.082243234 0.9178216 0.2641953 0.93058443
0.051492345 0.057858355 0.053432506 0.059830125 0.034311514 0.038264062 0.04421615 0.24473849
0.14977966 0.23860355 0.7323256 1.0 0.7474432 1.0 1.0 1.0
0.74842894
00000000: e522 d83e d754 2f3e 988a f03e 549b c43d
00000010: 0679 b83d a9d1 2f3e 59cc c73d 9da4 1c3d
00000020: 04e7 523d 82f2 0d3d 4b12 9c3d 3d4d ad3d
00000030: 246f a83d 5bf6 6a3f 9b44 873e c83a 6e3f
00000040: a3e9 523d e2fc 6c3d 0bdc 5a3d 6f10 753d
00000050: 3b8a 0c3d c7ba 1c3d fe1b 353d ba9c 7a3e
00000060: d75f 193e 7d54 743e b179 3b3f 0000 803f
00000070: 7058 3f3f 0000 803f 0000 803f 0000 803f
00000080: 0a99 3f3f

bn0.bias f4 [33]
0.043834817 -0.25548977 0.026922973 0.08147474 -0.0060450872 0.0185628 -0.0056533394 0.02250243
-0.005246116 0.0022492812 -0.0076375483 -0.0585587 0.0047463323 -0.0647226 0.15821137 -0.029252749
-0.005370098 -0.007545193 0.0073405704 0.04773141 0.015635928 0.016425002 0.02264328 0.035747513
-0.0026693712 0.028457485 -0.15136166 0.14583112 -0.010138411 -0.37667102 -0.011361984 0.003093687
-0.02177737
00000000: 238c 333d 8ecf 82be 918d dc3c 3adc a63d
00000010: de15 c6bb 0311 983c a63f b9bb 0457 b83c
00000020: 9ce7 abbb ad68 133b 6644 fabb 3fdb 6fbd
00000030: 1f87 9b3b 488d 84bd 2902 223e 76a3 efbc
00000040: a6f7 afbb ab3d f7bb 2b89 f03b 0382 433d
00000050: eb16 803c ba8d 863c 667e b93c fc6b 123d
00000060: 9ef0 2ebb ac1f e93c 8dfe 1abe c154 153e
00000070: 941b 26bc 06db c0be 9d27 3abc 74bf 4a3b
00000080: 7466 b2bc

bn0.running_mean f4 [33]
0.17122066 -2.5220127 0.29600054 0.8936841 0.019511625 -0.028660972 0.04706826 0.14442146
0.051245302 -0.09928104 -0.4137008 0.23640624 -0.46035597 0.11978614 -2.2637036 1.2500836
0.057068188 -0.03815722 0.011043957 0.19108534 -0.06648224 -0.14354116 -0.0438874 -1.0313258
0.42843196 -0.92920876 0.6645559 -0.99999976 1.7519913 0.0 0.99999976 0.0
-0.038688514
00000000: 7854 2f3e a868 21c0 628d 973e 7bc8 643f
00000010: d8d6 9f3c 6aca eabc a6ca 403d 38e3 133e
00000020: 98e6 513d dc53 cbbd 97d0 d3be 7a14 723e
00000030: c7b3 ebbe 7052 f53d 85e0 10c0 bd02 a03f
00000040: 55c0 693d bf4a 1cbd b7f1 343c e0ab 433e
00000050: d727 88bd 74fc 12be 46c3 33bd 7c02 84bf
00000060: 6f5b db3e a0e0 6dbf 5620 2a3f fcff 7fbf
00000070: 4041 e03f 0000 0000 fcff 7f3f 0000 0000
00000080: d977 1ebd

bn0.running_var f4 [33]
4.9003434 0.20883842 4.7684994 0.009138262 0.07966452 0.007057253 0.10757522 0.3082133
0.091574386 0.13042611 2.831488 0.6860362 2.7438476 19.480564 0.6371342 24.333282
0.071945466 0.30527356 0.070864365 0.5477243 0.90804994 0.8841211 0.3543012 13.781922
2.1187344 10.253331 24.971817 6e-45 37.32393 6e-45 6e-45 6e-45
0.52627325
00000000: 9dcf 9c40 bdd9 553e 8c97 9840 a6b8 153c
00000010: 2727 a33d 8740 e73b 6650 dc3d 22ce 9d3e
00000020: 5a8b bb3d 6c8e 053e 1937 3540 12a0 2f3f
00000030: 339b 2f40 32d8 9b41 3a1b 233f 90aa c241
00000040: 2558 933d d14c 9c3e 5621 913d a937 0c3f
00000050: f675 683f c355 623f f866 b53e c182 5c41
00000060: 5899 0740 a50d 2441 48c6 c741 0400 0000
00000070: b44b 1542 0400 0000 0400 0000 0400 0000
00000080: d8b9 063f

fc1.weight f4 [128, 33]
-0.12455086 0.2961672 -0.05569994 -0.3091777 0.12296334 0.3782248 0.39765126 -0.54046696
-0.58817273 0.18520285 0.67947453 0.4549227 -1.077172 -0.19959342 0.45781943 0.1053275
-0.09834036 -0.52461326 -0.5914495 -0.12983581 0.31578603 -0.35195974 -0.27684605 -0.6629914
0.43173075 0.48565716 0.047079846 -0.70510083 0.5426095 0.859253 -0.13767914 0.11363456
0.01802899 -0.0070676343 0.75778824 0.2012372 -0.75712013 -0.8683962 0.25034812 0.07654156
-0.07801497 -0.32413188 0.8235474 0.5010503 0.5363014 -0.07526766 -0.02201584 -0.5400285
-0.21463488 -0.68756205 0.23277175 -0.50336206 -1.0329816 -0.22271702 0.22463834 0.72678226
0.22586152 -1.2620089 -0.5323585 0.3771633 -0.81713474 -0.05123379 0.7536721 0.3039806
-0.071515195 -0.1541362 -0.43111688 0.24763861 0.45648527 -0.4940873 -0.29886752 0.6427401
1.032506 -0.10852973 -0.0323598 0.022083137 -0.6542626 0.2967732 -0.0095687285 0.21531214
-0.49835986 -0.78592825 -0.25579765 0.15912801 0.13171658 0.4571321 -0.15228465 -0.08903172
0.18118723 -0.5090207 -0.15107825 -0.83960396 0.88299435 -0.6016885 -0.1257229 0.8062823
-0.025389316 -0.0019936946 -0.36308956 -1.0765702 1.0000151 0.0008528875 -0.5089074 0.096594796
-0.20296997 -0.445114 0.16647774 -0.529987 -0.19666879 -1.1906172 0.5153403 -0.4877015
0.6324781 -0.47682577 0.12997234 -0.003529515 0.57078326 0.2239819 -0.58733296 0.6700494
0.020152982 0.7007879 -0.1163133 -0.24266163 -0.2123166 -0.47087973 -0.29846627 -0.06331031
0.371895 -0.111335516 -0.0037394848 0.26248902 0.26241285 -0.205681 -0.1463004 0.5793154
-0.64847744 0.8076242 -0.044091478 0.2450532 -0.1952993 0.044270582 0.12409584 -0.067074485
0.11321835 -0.45356613 0.6870633 0.008874486 0.41041657 0.2662691 0.7588228 0.2235
0.2063624 -0.19772111 0.018789 -0.62885684 0.28166428 -0.38278034 0.5674168 -0.42242223
-0.43361112 0.469158 0.0219031 -0.04992194 -0.3538524 0.23112202 -0.43582317 -0.03200004
0.2516807 -0.01517704 0.010443179 -0.058097433 0.14403921 -0.020744996 0.06712354 0.06889539
-0.05375369 -0.022699697 -0.07517467 0.47210178 0.037147738 -0.0402817 -0.054331694 -0.06532178
0.058147717 -0.09176722 -0.12218301 0.008778606 -0.1258352 0.20682919 -0.098509945 -0.021200698
0.61337316 -0.01993641 -0.7846111 -0.0028723055 0.0005197681 0.037591957 -0.6896124 0.13807616
-0.47059882 0.7512838 -0.22769234 -0.059339885 -0.21422152 0.27088663 -0.10768818 -0.1678354
-0.39858916 0.014459986 0.008039357 0.33973292 -0.08590808 0.37935004 0.29865938 -0.076833196
-0.03182263 0.11799536 0.31098208 0.32494423 0.17274787 0.3631888 -0.019034984 0.41810375
0.031363267 0.05883404 -0.10435135 -0.15375932 0.040487997 0.018421933 0.08763174 -0.22513153
0.72138906 0.5737747 0.24259254 0.13080984 -0.1565403 -0.36409146 -0.1185793 0.6978529
0.12717931 0.41873282 0.28024983 0.15416156 0.57940537 -0.14536555 -0.86530983 0.4633434
0.3103486 -0.4252557 0.035681985 -0.3519306 0.25333035 -0.40791008 0.45658907 0.11836426
00000000: 8514 ffbd 3aa3 973e 9f25 64bd 8a4c 9ebe
00000010: 34d4 fb3d aea6 c13e f298 cb3e 0b5c 0abf
00000020: 7d92 16bf d1a5 3d3e 0bf2 2d3f a1eb e83e
00000030: c6e0 89bf 3862 4cbe 4f67 ea3e f2b5 d73d
00000040: ac66 c9bd 0e4d 06bf 3c69 17bf aef3 04be
00000050: b5ae a13e 1134 b4be c4be 8dbe ceb9 29bf
00000060: d00b dd3e 0ea8 f83e ccd6 403d 7d81 34bf
00000070: 75e8 0a3f 01f8 5b3f c3fb 0cbe 3cb9 e83d
00000080: 88b1 933c 9d97 e7bb 69fe 413f 2011 4e3e
00000090: a0d2 41bf 374f 5ebf a12d 803e d2c1 9c3d
000000a0: 50c6 9fbd 9df4 a5be 01d4 523f d544 003f
000000b0: 0c4b 093f ee25 9abd 905a b4bc 4f3f 0abf
000000c0: 3fc9 5bbe 1104 30bf b85b 6e3e 56dc 00bf
000000d0: be38 84bf ee0f 64be 9807 663e 670e 3a3f
000000e0: 3e48 673e 8289 a1bf a648 08bf 8c1b c13e
000000f0: be2f 51bf 86da 51bd a8f0 403f 58a3 9b3e
00000100: 8f76 92bd e1d5 1dbe 5abb dcbe fa94 7d3e
00000110: 70b8 e93e 03f9 fcbe 2a05 99be 9d8a 243f
00000120: 2829 843f d644 debd b68b 04bd b2e7 b43c
00000130: c17d 27bf a8f2 973e 28c6 1cbc c97a 5c3e
00000140: 0629 ffbe 9832 49bf e9f7 82be 74f2 223e
00000150: b6e0 063e 380d ea3e 82f0 1bbe 4356 b6bd
00000160: 2589 393e 2e4f 02bf 42b4 1abe 49f0 56bf
00000170: eb0b 623f 4208 1abf 81bd 00be 8468 4e3f
00000180: 41fd cfbc a5a8 02bb e0e6 b9be 0dcd 89bf
00000190: 7f00 803f 5094 5f3a c147 02bf 7ed3 c53d
000001a0: 5cd7 4fbe fbe5 e3be 2479 2a3e 3aad 07bf
000001b0: 8b63 49be 2566 98bf 58ed 033f 03b4 f9be
000001c0: 16ea 213f 8222 f4be 7817 053e 6f4f 67bb
000001d0: da1e 123f 835b 653e 745b 16bf 5c88 2b3f
000001e0: de17 a53c d666 333f ab35 eebd 4a7c 78be
000001f0: 8669 59be 2617 f1be 92d0 98be d6a8 81bd
00000200: 0569 be3e e003 e4bd 2512 75bb f664 863e
00000210: fa5a 863e 0a9e 52be c6cf 15be 044e 143f
00000220: 9e02 26bf 76c0 4e3f 4499 34bd 3aef 7a3e
00000230: 8afc 47be 1255 353d f625 fe3d 595e 89bd
00000240: 06df e73d d239 e8be 61e3 2f3f 4b66 113c
00000250: 1f22 d23e 6c54 883e 3642 423f 2fdd 643e
00000260: aa50 533e 6777 4abe 64eb 993c c3fc 20bf
00000270: 4d36 903e c9fb c3be 3a42 113f ba47 d8be
00000280: 4702 debe 7a35 f03e 216e b33c f37a 4cbd
00000290: 242c b5be 40ab 6c3e 3724 dfbe 7912 03bd
000002a0: 4bdc 803e 1fa9 78bc de19 2b3c 93f7 6dbd
000002b0: 047f 133e 69f1 a9bc 1178 893d 0719 8d3d
000002c0: d42c 5cbd b7f4 b9bc 2df5 99bd 53b7 f13e
000002d0: 3a28 183d 6dfe 24bd e98a 5ebd 6dc7 85bd
000002e0: 4d2c 6e3d 74f0 bbbd 163b fabd 24d4 0f3c
000002f0: f1da 00be 08cb 533e 95bf c9bd 16ad adbc
00000300: 0606 1d3f af51 a3bc 46dc 48bf 4a3d 3cbb
00000310: 0c41 083a 06fa 193d 708a 30bf d663 0d3e
00000320: 54f2 f0be 2354 403f 2e28 69be 610e 73bd
00000330: e35c 5bbe a7b1 8a3e 9f8b dcbd 0bdd 2bbe
00000340: e113 ccbe 94e9 6c3c 82b7 033c 79f1 ad3e
00000350: 93f0 afbd 2b3a c23e e2e9 983e b95a 9dbd
00000360: 7258 02bd 8da7 f13d 0b39 9f3e 175f a63e
00000370: d1e4 303e e2f3 b93e 41ef 9bbc b211 d63e
00000380: c576 003d f6fb 703d 29b6 d5bd 1573 1dbe
00000390: bed6 253d 98e9 963c 4578 b33d e188 66be
000003a0: f4ac 383f e6e2 123f 2e6a 783e 04f3 053e
000003b0: 1a4c 20be 326a babe b4d9 f2bd 7da6 323f
000003c0: 4b3b 023e 2664 d63e e87c 8f3e 87dc 1d3e
000003d0: e953 143f b5da 14be f284 5dbf 593b ed3e
000003e0: 03e6 9e3e 1dbb d9be 4627 123d 3f30 b4be
000003f0: 84b4 813e 97d9 d0be 0bc6 e93e f668 f23d

fc1.bias f4 [128]
-0.706186 -0.8833594 -0.7719957 -0.32921606 -0.46170107 0.7843489 0.33198005 -0.5099888
-0.08568999 -0.5352416 0.19837113 -0.558731 -0.20585473 -0.24134803 -0.9400537 -0.2735417
-0.46672124 -0.7228623 -0.19088878 -0.41099262 -0.7906504 -0.32012445 -0.41385865 -0.21577445
-0.71743304 -0.35421032 -0.63818413 -0.41281614 0.101805106 -0.1174837 -0.14507255 -0.74085766
-0.056696188 -0.5942173 -0.26647252 -0.3733246 -0.10060578 -0.69516504 -0.19146806 -0.29852918
-0.43661073 -0.7339802 -0.18081379 -0.49433267 -1.1100919 -0.851727 -0.43306425 -0.27026582
-0.56083626 -0.8097525 -0.18805061 -0.12214075 -0.47611374 -0.2646781 -0.65198374 -0.24455023
-0.62820315 -0.7348975 -0.63455147 -0.017532412 -0.36585668 -0.87508506 -0.23337993 -0.6444634
-0.9489439 0.075336516 -0.47790858 -0.5673958 -0.1375076 -0.4562869 -0.7145239 -0.8902459
-0.6027172 -0.6401674 -0.9069388 -0.28928563 -0.52041173 -0.7043499 -0.4977524 -0.45695677
-0.40253174 -0.36321536 -0.48045954 -0.80821323 -0.23607916 -0.42953935 -1.0752959 -0.44808736
-0.34264746 -0.21661732 -0.2657711 -0.09944659 -0.2818875 -0.9122845 -0.16708384 -0.1631424
-0.36544865 -0.12914883 -0.14792646 -0.0475322 -0.3622665 -0.48124418 -0.13904764 -0.35716575
-0.13360688 -0.25061205 -0.7346365 -0.21289779 0.10365762 -0.6617324 -0.7305038 -0.37154543
-0.31244808 -0.093411766 -0.7263064 -0.5704046 -0.48806655 -0.702917 -0.7884815 -0.24028511
-0.87190306 -0.2859935 -0.24456172 -0.5381676 -0.5420755 -0.76132214 -0.50711006 -0.34653032
00000000: 9bc8 34bf d723 62bf 83a1 45bf 028f a8be
00000010: 1564 ecbe 17cb 483f 4af9 a93e a08e 02bf
00000020: 3c7e afbd 9805 09bf cd21 4b3e ff08 0fbf
00000030: 95cb 52be f023 77be 5ca7 70bf a80d 8cbe
00000040: 16f6 eebe 810d 39bf 5978 43be a06d d2be
00000050: 1168 4abf 5ae7 a3be 48e5 d3be faf3 5cbe
00000060: b1a9 37bf 0e5b b5be 0960 23bf a35c d3be
00000070: 327f d03d 4b9b f0bd e68d 14be d9a8 3dbf
00000080: 433a 68bd a01e 18bf 166f 88be 6724 bfbe
00000090: 670a cebd 56f6 31bf 3410 44be d1d8 98be
000000a0: 718b dfbe 20e6 3bbf 4027 39be 2c19 fdbe
000000b0: 7e17 8ebf c80a 5abf 99ba ddbe 4860 8abe
000000c0: f792 0fbf f14b 4fbf 5790 40be ee24 fabd
000000d0: 2ec5 f3be e383 87be 68e8 26bf 606b 7abe
000000e0: ecd1 20bf 3e22 3cbf f771 22bf 22a0 8fbc
000000f0: 9151 bbbe 9305 60bf 26fb 6ebe 8efb 24bf
00000100: fded 72bf 084a 9a3d 6fb0 f4be da40 11bf
00000110: cbce 0cbe 709e e9be 0aeb 36bf 28e7 63bf
00000120: ad4b 1abf 03e2 23bf 242d 68bf 3f1d 94be
00000130: b439 05bf 4650 34bf 67d9 febe 3df6 e9be
00000140: a418 cebe 5df7 b9be cbfe f5be 10e7 4ebf
00000150: bcbe 71be 95ec dbbe 4ca3 89bf b56b e5be
00000160: 7d6f afbe eed0 5dbe 2613 88be a7aa cbbd
00000170: 8f53 90be 7a8b 69bf 0718 2bbe cd0e 27be
00000180: 161c bbbe 973f 04be 097a 17be 20b1 42bd
00000190: ff7a b9be a365 f6be 8162 0ebe 6ede b6be
000001a0: 3ed0 08be 3950 80be 2311 3cbf e101 5abe
000001b0: 724a d43d 4b67 29bf 4c02 3bbf 343b bebe
000001c0: 32f9 9fbe ab4e bfbd 37ef 39bf 0906 12bf
000001d0: dce3 f9be 5ef2 33bf ecd9 49bf 4d0d 76be
000001e0: 0a35 5fbf bd6d 92be 636e 7abe 5ac5 09bf
000001f0: 76c5 0abf 02e6 42bf f7d1 01bf 6c6c b1be

fc2.weight f4 [128, 132]
0.38071567 0.26224372 0.6799481 0.19150631 -0.4264645 -0.43795094 0.08570754 0.7439998
-0.99044746 0.36748797 -0.66277474 -1.0062078 1.0312104 -0.50236547 0.1606139 0.21423325
0.56853753 -0.5034709 0.15319984 1.1732955 0.62138295 -0.28265673 -2.2430189 -0.105305366
-0.34872276 0.16452684 -0.21750198 -0.5155513 0.0025809675 -0.31842256 -0.5046362 0.21077108
0.69082534 -0.12559998 0.5380934 0.30660838 -0.5886321 -0.16537334 -0.60164076 -0.7494425
0.26722816 -0.030094214 -0.17636898 0.27397618 0.9444311 0.29933494 -0.6259236 -0.06682702
0.9388583 0.5837289 -0.6240181 -0.5484786 0.2984466 0.23915036 -1.5105803 -0.13691044
0.22426778 -0.4794923 -0.4365931 -0.9723092 -0.08238843 -0.052867513 0.23764864 -0.33579347
-0.7980816 -0.81083786 -0.31132215 0.25835782 -0.71527183 -0.53030765 0.35065675 -0.041123174
0.416469 -0.031220663 -0.3283844 -0.79208064 0.3396173 -0.32248512 -1.073904 0.16700725
0.08921694 0.7137445 0.41105747 0.9646194 -0.26986405 0.90077686 -0.19347306 0.045436207
-0.105380654 -0.08561935 -1.4809008 -0.4801793 -0.7978626 0.16694213 -0.51312447 0.33530667
-0.009109992 0.18934223 0.2987066 -0.28303057 -0.373086 -0.5564529 0.76321685 0.43270802
0.12301691 0.2787843 0.12816621 0.59911585 -0.38487083 0.46617663 -0.024911992 0.8080634
-0.6437285 -0.66980815 0.46007493 0.17842366 0.31815976 -0.6201758 0.41595125 -0.6830537
-0.5434044 0.5519097 -1.0340664 0.8110489 -0.1730956 0.55355984 -0.40370688 -1.1566653
-0.0029735267 -0.04186363 0.035913985 0.053153146 -0.9841627 0.046173923 0.5950176 0.15185507
0.0047383695 -0.64775366 0.21823323 1.1329476 0.5657658 0.46278948 -0.2703939 -0.27064946
0.88040173 -1.8365351 0.16560607 1.0363394 -0.50166786 -0.16229476 0.6092669 0.6328758
-2.0460346 -0.28786057 -1.4193728 -0.051361658 0.9236617 -0.0033659893 0.52647704 -0.9324203
0.2683277 -0.9162458 0.56629634 0.2763335 0.03865956 -0.6325832 0.13030331 -1.6039413
-0.36440858 -0.21353547 -0.0745741 0.13008508 -1.0871546 -0.31819895 0.06243149 -0.70435405
0.7057427 -0.49382678 0.7803628 -0.8028837 0.034511905 -0.2324846 -0.9750336 -0.08545155
0.39149415 0.22853318 0.26450044 -0.31431425 -0.22916228 -0.019343209 0.04122366 -1.0687996
-0.6692378 0.79049706 -0.1822383 -0.16342695 0.62966776 -1.4733763 -1.6929438 0.061039012
-0.25828767 -0.43689045 0.38701934 -0.6591668 0.46015453 -0.00932642 -1.242588 -1.1069987
-1.5330961 0.13200729 0.63813645 0.33192033 0.30110583 0.11874856 -0.9515657 -2.2195637
0.5366357 -0.4184785 -0.12983197 -0.48080146 -0.39865863 -1.1687028 0.042448312 -1.2172972
-0.35283983 1.3814702 -1.1230928 0.80766374 -0.01899396 -1.0588809 0.04593619 -0.681216
-0.85935503 0.08061225 -0.20385568 -0.13532913 -0.38435885 0.31072292 -0.83480513 -0.5805288
0.26608542 0.24633926 -0.107582495 -0.1830794 0.4184337 0.29575664 0.5940995 -0.44503543
-1.0718762 -1.1415038 0.64930856 0.12923416 -0.27053583 -0.49223143 -0.14528635 0.19686115
00000000: 2aed c23e cf44 863e 1411 2e3f 3b1a 443e
00000010: 8e59 dabe 1b3b e0be 6f87 af3d c576 3e3f
00000020: f78d 7dbf 6227 bc3e 9bab 29bf 6bcb 80bf
00000030: b4fe 833f 069b 00bf f877 243e f65f 5b3e
00000040: ad8b 113f 78e3 00bf 6be0 1c3e 8c2e 963f
00000050: f412 1f3f 62b8 90be 9f8d 0fc0 57aa d7bd
00000060: ca8b b2be b979 283e d7b8 5ebe 2cfb 03bf
00000070: 7325 293b 4808 a3be d72f 01bf 60d4 573e
00000080: eed9 303f 489d 00be 7dc0 093f c6fb 9c3e
00000090: 98b0 16bf a157 29be 2105 1abf 77db 3fbf
000000a0: 21d2 883e 2488 f6bc 129a 34be 9b46 8c3e
000000b0: 3dc6 713f 6e42 993e 873c 20bf 9bdc 88bd
000000c0: 0459 703f 426f 153f a6bf 1fbf 1869 0cbf
000000d0: fecd 983e d5e3 743e b25a c1bf 4032 0cbe
000000e0: 74a6 653e 0480 f5be 2189 dfbe 41e9 78bf
000000f0: 44bb a8bd 9b8b 58bd 2a5a 733e 1fed abbe
00000100: 134f 4cbf 1293 4fbf 9e65 9fbe 7a47 843e
00000110: 0e1c 37bf 3ec2 07bf 4889 b33e c670 28bd
00000120: 6d3b d53e 7ac2 ffbc 0022 a8be ccc5 4abf
00000130: 52e2 ad3e c51c a5be b075 89bf f303 2b3e
00000140: 5fb7 b63d f6b7 363f 2076 d23e 4cf1 763f
00000150: 9f2b 8abe 5099 663f cd1d 46be 511b 3a3d
00000160: d0d1 d7bd 3359 afbd 288e bdbf 10da f5be
00000170: b940 4cbf e1f2 2a3e 205c 03bf 51ad ab3e
00000180: 1342 15bc eee2 413e 12f0 983e 62e9 90be
00000190: 2105 bfbe b273 0ebf 2e62 433f e88b dd3e
000001a0: 4af0 fb3d d1bc 8e3e 013e 033e a85f 193f
000001b0: ca0d c5be b4ae ee3e 3c14 ccbc 3edd 4e3f
000001c0: 64cb 24bf 8c78 2bbf f18e eb3e b1b4 363e
000001d0: d6e5 a23e d7c3 1ebf 90f7 d43e 9bdc 2ebf
000001e0: 8d1c 0bbf f449 0d3f 4a5c 84bf e7a0 4f3f
000001f0: f93f 31be 19b6 0d3f abb2 cebe 9c0d 94bf
00000200: 80df 42bb 3379 2bbd 8b1a 133d 1db7 593d
00000210: 16f2 7bbf de20 3d3d 1353 183f e57f 1b3e
00000220: 5344 9b3b 2fd3 25bf 8878 5f3e 6d04 913f
00000230: 07d6 103f bef2 ec3e 1271 8abe 9192 8abe
00000240: 0262 613f 9513 ebbf a394 293e c5a6 843f
00000250: 4e6d 00bf 9930 26be eaf8 1b3f 2604 223f
00000260: 3bf2 02c0 7662 93be 02ae b5bf 9a60 52bd
00000270: 1875 6c3f ee97 5cbb 33c7 063f 19b3 6ebf
00000280: 4062 893e 168f 6abf ccf8 103f 967b 8d3e
00000290: 7d59 1e3d f9f0 21bf 3b6e 053e f34d cdbf
000002a0: c393 babe 0ba9 5abe 4eba 98bd 0635 053e
000002b0: e227 8bbf f9ea a2be 29b8 7f3d 8c50 34bf
000002c0: 8eab 343f ddd6 fcbe dbc5 473f c989 4dbf
000002d0: 5b5c 0d3d 7110 6ebe cd9b 79bf 3901 afbd
000002e0: ec71 c83e 9a04 6a3e 9a6c 873e cced a0be
000002f0: 84a9 6abe a675 9ebc 24da 283d 6dce 88bf
00000300: 2b53 2bbf 045e 4a3f ad9c 3abe 6559 27be
00000310: e831 213f 9897 bcbf 62b2 d8bf 0b04 7a3d
00000320: 483e 84be 1bb0 dfbe 6627 c63e 28bf 28bf
00000330: 6099 eb3e d7cd 18bc 200d 9fbf 22b2 8dbf
00000340: 7e3c c4bf eb2c 073e e95c 233f 76f1 a93e
00000350: 8b2a 9a3e 7232 f33d cf99 73bf 550d 0ec0
00000360: f560 093f d042 d6be acf2 04be 9c2b f6be
00000370: fc1c ccbe 0e98 95bf 48de 2d3d 65d0 9bbf
00000380: 6ca7 b4be 04d4 b03f 81c1 8fbf 0dc3 4e3f
00000390: 3999 9bbc 6989 87bf 9627 3c3d 2c64 2ebf
000003a0: b1fe 5bbf 0918 a53d 8bbf 50be b893 0abe
000003b0: afca c4be 1317 9f3e cab5 55bf 899d 14bf
000003c0: 593c 883e 5c40 7c3e 3654 dcbd 2b79 3bbe
000003d0: f13c d63e 6a6d 973e e816 183f afdb e3be
000003e0: 3d33 89bf cc1c 92bf 1639 263f f655 043e
000003f0: ac83 8abe c205 fcbe f2c5 14be f895 493e

fc2.bias f4 [128]
0.37401533 0.3263813 0.525818 0.25726974 -0.1604417 0.0023215914 -0.9883108 -0.85481024
-0.17509337 1.7141862 -0.43227607 -0.42984152 -0.17066674 1.2900289 -0.11174555 0.3777085
-0.71282965 -0.07579426 0.5653829 -0.665004 0.064441495 0.48168248 -0.57891124 -0.15949842
-0.12337218 0.2048913 0.28586248 -0.5234983 -0.31512597 -0.1420434 -0.22469135 -0.072519064
1.5443555 0.4786183 -0.5460512 1.0636542 0.599944 -0.33759147 0.23752838 0.44027728
-1.1066339 0.6609146 -0.7363062 -0.32627004 0.46094665 0.37740085 0.4426911 0.6255009
-0.18407694 0.59030503 -0.33943146 0.31477433 -0.32951817 0.42127964 0.0638305 -0.63729054
-0.2410402 -0.21346316 -0.15948339 -0.36959973 0.5117589 0.103817955 -0.15178475 -0.16339943
0.38096386 1.1348894 0.33973357 0.42880476 0.5573819 0.94376886 0.3832252 -0.60857004
-0.84778595 0.5107174 -0.2922189 -0.27073783 -0.090153985 -0.46302763 -0.6661134 -0.7480747
-0.50352407 -0.4579005 0.1491251 -0.1552533 -0.61366224 -0.6619391 0.7900256 -0.2526624
0.66348004 -0.23714936 0.6521349 0.11058631 -0.21147363 -0.28656003 0.60106486 0.45262188
-0.6509382 -0.13018155 -0.3062961 0.9668702 -0.14618944 -0.28582785 0.10168679 -0.008979357
-0.13782372 -0.18494196 -0.4890163 1.2627453 0.26596382 -0.13789603 0.2856843 0.27392295
0.89603215 0.45123976 -0.41448802 0.28527838 -0.61875534 0.7190622 -0.26964313 -0.39443517
-0.7168737 -0.8567958 0.4559793 -0.50905037 -0.24434517 -0.05765886 0.21619308 0.46248183
00000000: f07e bf3e 731b a73e 029c 063f dcb8 833e
00000010: d44a 24be d725 183b f001 7dbf d8d4 5abf
00000020: ad4b 33be 746a db3f 4a53 ddbe 3014 dcbe
00000030: 43c3 2ebe ab1f a53f dada e4bd 0263 c13e
00000040: 017c 36bf 053a 9bbd efbc 103f b43d 2abf
00000050: e7f9 833d 169f f63e 8733 14bf 8e53 23be
00000060: 8eaa fcbd 06cf 513e 915c 923e fc03 06bf
00000070: 3158 a1be d373 11be 7d15 66be e084 94bd
00000080: 71ad c53f 750d f53e 03ca 0bbf d225 883f
00000090: ee95 193f cad8 acbe a43a 733e 066c e13e
000000a0: 2ea6 8dbf b331 293f 907e 3cbf de0c a7be
000000b0: 3301 ec3e af3a c13e 68a8 e23e d420 203f
000000c0: aa7e 3cbe 3b1e 173f f6c9 adbe 1a2a a13e
000000d0: 9bb6 a8be f7b1 d73e 91b9 823d 7925 23bf
000000e0: 3ed3 76be 1696 5abe 9d4f 23be 2d3c bdbe
000000f0: a202 033f 829e d43d 766d 1bbe 2e52 27be
00000100: b20d c33e 0e44 913f 8ff1 ad3e 4c8c db3e
00000110: 95b0 0e3f d69a 713f 1836 c43e 3fcb 1bbf
00000120: 8008 59bf 60be 023f b79d 95be 269e 8abe
00000130: a7a2 b8bd f511 edbe 6886 2abf d381 3fbf
00000140: f4e6 00bf ef71 eabe 40b4 183e b9fa 1ebe
00000150: f818 1dbf d774 29bf 1e3f 4a3f f75c 81be
00000160: d4d9 293f 48d7 72be 50f2 263f 137b e23d
00000170: 8b8c 58be ffb7 92be 63df 193f 0ebe e73e
00000180: e3a3 26bf 504e 05be d8d2 9cbe ce84 773f
00000190: afb2 15be 0758 92be 2a41 d03d 271e 13bc
000001a0: a921 0dbe 6d61 3dbe 5860 fabe a3a1 a13f
000001b0: 692c 883e 9e34 0dbe 3645 923e a13f 8c3e
000001c0: 5d62 653f e608 e73e c637 d4be 0210 923e
000001d0: c066 1ebf 7614 383f aa0e 8abe 68f3 c9be
000001e0: 0985 37bf f856 5bbf 1e76 e93e 2051 02bf
000001f0: 9f35 7abe b22b 6cbd b861 5d3e 6bca ec3e

fc3.weight f4 [1, 128]
0.045610532 0.094805874 0.03742301 0.09167573 -0.011386156 0.025663005 -0.072661296 -0.14611408
-0.07333898 0.36242676 -0.08728669 -0.24982764 0.01882485 0.21597607 -0.066378504 0.027005998
-0.07174044 0.08051287 0.049526453 -0.25726956 0.08010368 0.04245974 -0.09621407 0.016383255
0.005141592 0.09712341 0.058326725 -0.18152831 -0.031472865 0.001377736 -0.01400827 0.13996269
0.28615886 0.024637727 -0.05561399 0.1485589 0.0306438 -0.066673204 0.09752956 0.094478495
-0.052531246 0.072477505 -0.08054549 -0.114792846 0.053508207 0.02594554 0.045987897 0.06550257
-0.22218089 0.030879779 -0.11476454 0.024008872 -0.06347738 0.033765588 0.06910021 0.024804443
0.010028239 0.048183583 0.100934654 -0.13100074 0.03774481 0.04307133 0.024761006 0.02635336
0.050825592 0.16255517 0.06478803 0.02785651 0.05635076 0.076090865 0.04405192 -0.15781625
-0.084233165 0.026352385 -0.114858076 -0.033552792 0.08520649 -0.072667114 -0.09299747 -0.06012217
-0.027371274 -0.034516983 0.06396428 0.09363234 -0.16226172 -0.054152355 0.06920962 0.018776992
0.048306618 0.022015609 0.055677824 0.0503654 -0.0029632717 -0.063314214 0.022863043 0.061967205
-0.058065146 -0.03510897 -0.057104517 0.084781624 -0.04740256 -0.070358984 0.051827922 -0.28457835
-0.001576464 -0.013477101 -0.05315083 0.16867265 0.045672785 0.009698591 0.12590581 0.0390798
0.058406558 0.051597133 -0.041334394 0.04927179 -0.07311047 0.03840035 -0.02472411 0.07200878
-0.15304847 0.06229233 0.029051282 -0.04894278 0.101916686 -0.015539604 0.03561457 0.039604094
00000000: 1cd2 3a3d 9529 c23d df48 193d 7cc0 bb3d
00000010: 008d 3abc 393b d23c 72cf 94bd ee9e 15be
00000020: bf32 96bd 0090 b93e 5dc3 b2bd d1d2 7fbe
00000030: 9236 9a3c d528 5d3e 74f1 87bd af3b dd3c
00000040: a7ec 92bd eee3 a43d 40dc 4a3d d6b8 83be
00000050: 660d a43d 44ea 2d3d e20b c5bd 2d36 863c
00000060: cd7a a83b a3e8 c63d 01e8 6e3d 8fe2 39be
00000070: b1e9 00bd 2695 b43a f182 65bc 6152 0f3e
00000080: 6a83 923e 0fd5 c93c 7fcb 63bd d31f 183e
00000090: b508 fb3c f68b 88bd 94bd c73d f17d c13d
000000a0: 012b 57bd 166f 943d 09f5 a4bd 8318 ebbd
000000b0: 6c2b 5b3d be8b d43c ce5d 3c3d 3626 863d
000000c0: 6383 63be 97f7 fc3c ac09 ebbd 41ae c43c
000000d0: 6e00 82bd c94d 0a3d 6984 8d3d b032 cb3c
000000e0: 7c4d 243c 265c 453d d4b6 ce3d 0f25 06be
000000f0: 4d9a 1a3d 906b 303d 98d7 ca3c 00e3 d73c
00000100: 7f2e 503d dd74 263e 96af 843d 5633 e43c
00000110: 0ed0 663d 87d5 9b3d c96f 343d 959a 21be
00000120: 7082 acbd f5e0 d73c b63a ebbd a76e 09bd
00000130: bd80 ae3d 7fd2 94bd 7575 bebd aa42 76bd
00000140: b939 e0bc ae61 0dbd b4ff 823d 50c2 bf3d
00000150: f027 26be dcce 5dbd c6bd 8d3d 35d2 993c
00000160: 29dd 453d 145a b43c 6e0e 643d f34b 4e3d
00000170: 7333 42bb e2aa 81bd 474b bb3c 53d1 7d3d
00000180: b8d5 6dbd 6cce 0fbd 6de6 69bd fda1 ad3d
00000190: 3029 42bd 5f18 90bd 8449 543d 41b4 91be
000001a0: 5ba1 ceba 0fcf 5cbc afb4 59bd 86b8 2c3e
000001b0: 6313 3b3d d7e6 1e3c 74ed 003e 2412 203d
000001c0: b73b 6f3d 8457 533d 414e 29bd 37d1 493d
000001d0: f1ba 95bd af49 1d3d 378a cabc 5779 933d
000001e0: bdb8 1cbe 3e26 7f3d f4fc ed3c 3978 48bd
000001f0: b2b9 d03d d399 7ebc 95e0 113d e737 223d
