p1/model_qnet.pt (torch_old, 89440 bytes, 6 tensors)

weight f4 [128, 37]
0.10793889 -0.0079940725 0.059913937 -0.23485042 -0.067202605 -0.09447247 0.051679924 0.21573514
-0.054100767 0.008067319 -0.09125509 -0.16761287 0.116603896 0.20228595 0.7717759 0.08184256
0.14718579 0.05407756 -0.54269034 -0.24305253 -0.34245378 -0.09350882 0.06824757 0.33508295
0.58441406 -0.078559086 -0.07682353 -0.22904094 -0.25940508 -0.092021435 -0.22207762 -0.10559825
-0.0018830309 -0.08780423 0.6897371 -0.05231737 -0.041570146 -0.058085248 -0.12559901 -0.13717061
0.47717714 0.07248027 -0.21252613 0.04927853 -0.3365336 0.496786 0.5673345 -0.41106284
-0.21709348 0.12400423 0.14574742 -0.13515331 -0.038920023 0.009224748 0.060640298 -0.046818055
0.008155098 -0.11865993 -0.0017003757 -0.0065159397 0.028574022 0.25804508 0.009825188 0.108326726
-0.13035157 0.15025212 0.09325126 -0.20557792 0.16674168 -0.3562478 0.22027563 0.4978088
0.023264349 -0.021467742 0.30760622 -0.69768953 -0.08631414 0.064624175 0.051077943 -0.17860822
0.06781801 -0.16036205 0.10417265 -0.4593433 -0.44883877 -0.4298925 0.4200926 -0.121037826
-0.47903544 -0.4297232 -0.41252783 0.25975117 0.1582503 -0.49545813 -0.1113725 -0.10642495
0.21221605 -0.39203355 0.06665803 0.40179753 -0.33131358 -0.25502685 -0.29029912 -0.090155385
-0.46678442 0.06676501 0.2553743 -0.24874794 0.034382652 0.022238843 -0.06936725 0.085095175
0.16727321 -0.4007108 -0.43957442 0.018831521 -0.2900928 0.43579394 0.051000085 -0.17189439
-0.14110656 0.25612602 0.08871005 -0.44748512 -0.38192737 -0.7964277 -0.37550873 -0.24095526
0.44811612 -0.2874113 -0.08748864 -0.6200019 0.13288885 0.15184514 -0.15149915 0.13066438
0.12099161 0.036552906 0.08993251 -0.37356675 0.18620299 -0.23470914 -0.12509082 0.17765361
0.11846507 -0.3961184 -0.15997787 -0.04381649 0.008481489 -0.36305043 0.10076409 -0.032009862
-0.06411331 -0.77988404 -0.36909378 -0.19732784 0.28266618 -0.78914845 -0.43146297 0.27569982
-0.3384872 -0.33562765 -0.33150572 -0.24076582 -0.5545026 0.16143574 -0.33405542 0.47932816
-0.44818193 0.36676773 -0.87918794 -0.51334804 -0.36557946 -0.58473754 -0.4178547 0.13854414
0.052805725 -0.034132503 -0.32150227 0.2282248 -0.19467853 -0.20252891 -0.11487932 0.20382859
-0.045270123 -0.25419047 -0.1618097 0.03908084 -0.61018604 -0.4703871 -0.28056824 -0.40064833
0.13518216 -0.69740474 -1.490494 -0.07361839 -0.202518 -0.006610392 -0.23210491 -0.8434645
-0.31218496 -0.05402619 -0.06404638 -0.6152012 -0.065949306 -0.18130054 -0.106339954 -0.09602857
-0.922675 -0.53270835 -0.528738 -0.090721294 -0.10956711 0.14556727 -0.3303766 -0.60907215
-0.62419844 0.1842694 -0.106745414 -1.5025733 -0.50570357 0.15509999 -0.09581731 0.07328257
0.05205575 -0.136554 0.02287604 -0.1386967 -0.07156288 0.039134707 -0.004373906 0.15248072
-0.25493532 0.09887895 0.1799971 0.12621062 0.076763384 0.2720142 -0.12343915 -0.38007423
-0.41333762 -2.4392452 -0.09228496 -0.033495203 -0.06794174 -0.048854705 -0.013402582 -0.21723716
-0.020790298 0.12911615 0.21140903 0.7537784 -0.20231286 0.0978613 0.17501462 0.020785931
00000000: 110f dd3d 92f9 02bc 5168 753d a17c 70be
00000010: 85a1 89bd c87a c1bd 54ae 533d ace9 5c3e
00000020: c498 5dbd ca2c 043c f3e3 babd b5a2 2bbe
00000030: 06ce ee3d 0c24 4f3e 1b93 453f 129d a73d
00000040: dfb7 163e 6e80 5d3d c1ed 0abf c3e2 78be
00000050: 1a56 afbe 8d81 bfbd 62c5 8b3d fe8f ab3e
00000060: 299c 153f 96e3 a0bd a855 9dbd b589 6abe
00000070: bed0 84be bc75 bcbd 5168 63be e543 d8bd
00000080: 08d0 f6ba b4d2 b3bd 9c92 303f bd4a 56bd
00000090: 7545 2abd ccea 6dbd 079d 00be 7476 0cbe
000000a0: 9050 f43e 8970 943d 73a0 59be 49d8 493d
000000b0: 224e acbe bc5a fe3e d53c 113f d476 d2be
000000c0: c14d 5ebe eef5 fd3d d03e 153e a165 0abe
000000d0: 9a6a 1fbd 6623 173c f661 783d 4ac4 3fbd
000000e0: f69c 053c fa03 f3bd 24df deba aa83 d5bb
000000f0: 1114 ea3c 7c1e 843e d3f9 203c 67da dd3d
00000100: e27a 05be b1db 193e 84fa be3d 0583 52be
00000110: 55be 2a3e 1d66 b6be ef8f 613e cce0 fe3e
00000120: e094 be3c 1edd afbc 907e 9d3e c89b 32bf
00000130: 78c5 b0bd ae59 843d 1b37 513d 13e5 36be
00000140: 2be4 8a3d f335 24be 7858 d53d 0c2f ebbe
00000150: 32ce e5be df1a dcbe 6116 d73e aee2 f7bd
00000160: 2244 f5be ae04 dcbe d936 d3be 1bfe 843e
00000170: 5e0c 223e b0ac fdbe 4417 e4bd 53f5 d9bd
00000180: 2a4f 593e 9fb8 c8be 0184 883d 68b8 cd3e
00000190: efa1 a9be e192 82be 16a2 94be 63a3 b8bd
000001a0: 5efe eebe 18bc 883d 6cc0 823e c8b7 7ebe
000001b0: d3d4 0c3d 3c2e b63c 6b10 8ebd 6146 ae3d
000001c0: ab49 2b3e f729 cdbe e60f e1be 9044 9a3c
000001d0: 0b87 94be 6220 df3e 77e5 503d 1505 30be
000001e0: 3d7e 10be f322 833e 9dad b53d c51c e5be
000001f0: fc8b c3be b0e2 4bbf ae42 c0be fabc 76be
00000200: 7a6f e53e 9327 93be 3e2d b3bd 72b8 1ebf
00000210: 0414 083e 4b7d 1b3e 9822 1bbe e2cc 053e
00000220: 73ca f73d 80b8 153d 892e b83d 2444 bfbe
00000230: ffab 3e3e 9857 70be cf17 00be d4ea 353e
00000240: d19d f23d 08d0 cabe 3dd1 23be eb78 33bd
00000250: f1f5 0a3c bfe1 b9be 675d ce3d c61c 03bd
00000260: d74d 83bd 7ba6 47bf dcf9 bcbe 4f10 4abe
00000270: 9fb9 903e a205 4abf b7e8 dcbe 8728 8d3e
00000280: 324e adbe 63d7 abbe 1ebb a9be 518b 76be
00000290: e2f3 0dbf 694f 253e 5009 abbe 806a f53e
000002a0: 1a78 e5be fbc8 bb3e 7612 61bf c76a 03bf
000002b0: 3b2d bbbe 5cb1 15bf 0df1 d5be 84de 0d3e
000002c0: d14a 583d 86ce 0bbd f29b a4be c3b3 693e
000002d0: cf59 47be bd63 4fbe d945 ebbd 71b8 503e
000002e0: 2a6d 39bd 4125 82be 71b1 25be 3b13 203d
000002f0: 2735 1cbf 94d6 f0be a4a6 8fbe c721 cdbe
00000300: 316d 0a3e 1e89 32bf 82c8 bebf 3dc5 96bd
00000310: e160 4fbe fd9b d8bb e9ac 6dbe 4aed 57bf
00000320: b5d6 9fbe 914a 5dbd c02a 83bd d37d 1dbf
00000330: 6e10 87bd d9a6 39be c3c8 d9bd a0aa c4bd
00000340: 6e34 6cbf 935f 08bf 605b 07bf 16cc b9bd
00000350: b964 e0bd 960f 153e 1f27 a9be 27ec 1bbf
00000360: 78cb 1fbf 1eb1 3c3e 579d dabd 5254 c0bf
00000370: ca75 01bf 88d2 1e3e de3b c4bd 2c15 963d
00000380: 6938 553d d0d4 0bbe 8866 bb3c 8206 0ebe
00000390: 8f8f 92bd b74b 203d fc52 8fbb e823 1c3e
000003a0: e286 82be 0c81 ca3d 2951 383e 5b3d 013e
000003b0: 1f36 9d3d 7245 8b3e aacd fcbd 1799 c2be
000003c0: fda0 d3be 981c 1cc0 e6ff bcbd 4432 09bd
000003d0: 0a25 8bbd df1b 48bd 8196 5bbc 6b73 5ebe
000003e0: 6a50 aabc 0637 043e 9c7b 583e 9ff7 403f
000003f0: 1a2b 4fbe 816b c83d 0837 333e 4247 aa3c

bias f4 [128]
0.08968957 -0.19405611 -0.048539497 -0.2333539 -0.08611767 -0.17818408 0.011032031 -0.07859892
-0.081697725 0.10962228 -0.20646232 0.06598232 -0.14338414 -0.0876826 -0.14124052 -0.07081137
-0.12947403 -0.3077335 -0.08863987 -0.27683726 -0.15074892 -0.1158847 -0.041181084 0.073729016
-0.09246108 0.04087587 -0.022562861 -0.1139495 -0.15327471 -0.19594076 -0.1626218 -0.003582126
-0.037685942 -0.02902689 -0.08844116 0.011641042 -0.09817745 -0.0841336 0.0448632 0.041463755
-0.193017 0.057858232 -0.17134741 -0.004595067 0.031139418 -0.029693387 -0.103341594 0.10604207
-0.16417478 -0.1522821 -0.04122012 -0.15055823 0.010345395 -0.16471395 0.0020965121 -0.16122647
-0.1388851 -0.20157765 0.016533535 0.08877858 -0.18142976 0.16219075 -0.19766578 -0.017103735
0.05401221 0.18254307 -0.025552258 0.022701895 -0.25631562 -0.16036126 -0.20644921 -0.18192062
0.2407361 -0.13159293 0.0021587552 0.07932761 0.11630886 -0.016088124 -0.24587119 0.107806966
-0.15192331 -0.19997564 -0.14213017 -0.15952837 0.02921716 -0.0054566734 0.18395959 0.23669167
-0.15344492 -0.09758498 0.07048714 -0.24472916 -0.101756535 0.09294595 0.064199984 -0.16383645
0.19756036 -0.04430464 -0.053144913 -0.17858109 -0.059357196 -0.18532458 -0.06028762 -0.18816222
-0.2135321 -0.15346712 -0.095555104 0.25820836 0.0014064919 -0.0053207674 0.04289917 -0.2796721
0.018318588 -0.043587614 0.03838154 -0.20756178 0.17845531 -0.23992534 -0.061115574 -0.13260062
-0.2176318 0.06367685 -0.04282276 -0.110445306 0.1347379 -0.073076956 -0.081825435 0.06704325
00000000: 2aaf b73d a5b6 46be 5ad1 46bd 53f4 6ebe
00000010: 765e b0bd e375 36be b1bf 343c 78f8 a0bd
00000020: 2351 a7bd a581 e03d dc6a 53be bd21 873d
00000030: 4bd3 12be ef92 b3bd 5ba1 10be 8d05 91bd
00000040: d794 04be 3f8f 9dbe d288 b5bd 9dbd 8dbe
00000050: ed5d 1abe f554 edbd 7fad 28bd 3dff 963d
00000060: 3c5c bdbd 756d 273d c0d5 b8bc 5b5e e9bd
00000070: 0cf4 1cbe b2a4 48be 5486 26be 1ac2 6abb
00000080: 935c 1abd cdc9 edbc a420 b5bd 12ba 3e3c
00000090: 4211 c9bd 3d4e acbd 7ac2 373d e6d5 293d
000000a0: 40a6 45be c1fc 6c3d b275 2fbe 3792 96bb
000000b0: 1818 ff3c 8c3f f3bc c2a4 d3bd 962c d93d
000000c0: 6f1d 28be d7ef 1bbe 6ed6 28bd f02b 1abe
000000d0: bb7f 293c c6aa 28be a365 093b 8d18 25be
000000e0: e537 0ebe 5f6a 4ebe 5671 873c 8bd1 b53d
000000f0: b9c8 39be 5515 263e e668 4abe 221d 8cbc
00000100: e83b 5d3d 92ec 3a3e f852 d1bc 53f9 b93c
00000110: cd3b 83be be35 24be 6c67 53be 6649 3abe
00000120: 8683 763e 4cc0 06be e779 0d3b 8476 a23d
00000130: 5733 ee3d 3ecb 83bc a8c5 7bbe e6c9 dc3d
00000140: c991 1bbe 6ac6 4cbe 928a 11be 685b 23be
00000150: d358 ef3c e5cd b2bb e75f 3c3e 4d5f 723e
00000160: aa20 1dbe a2da c7bd 905b 903d 489a 7abe
00000170: bb65 d0bd 725a be3d 487b 833d bec4 27be
00000180: 434d 4a3e c878 35bd 7bae 59bd f6dd 36be
00000190: 8820 73bd bac5 3dbe 27f0 76bd 99ad 40be
000001a0: 29a8 5abe 7c26 1dbe 65b2 c3bd e333 843e
000001b0: 095a b83a d559 aebb 0ab7 2f3d 2e31 8fbe
000001c0: dd10 963c ed88 32bd f635 1d3d 138b 54be
000001d0: fdbc 363e fdae 75be 5354 7abd 75c8 07be
000001e0: dfda 5ebe 0269 823d eb66 2fbd 2631 e2bd
000001f0: bbf8 093e 5fa9 95bd 1894 a7bd f94d 893d

weight f4 [128, 128]
-0.13216099 -0.14228052 -0.25642943 -0.33586085 0.009907344 -0.092904456 0.13695891 -0.48030385
-0.11178961 -0.29483682 -0.18497263 0.03933603 -0.0644919 -0.33442852 0.15456085 -0.15561512
-0.039038207 0.119618185 -0.006025382 -0.010535953 -0.42848945 -0.094701044 -0.0024526261 0.0121506555
-0.31744212 -0.020901538 -0.010741579 0.26604 0.05390458 -0.14910091 -0.15278721 -0.054188557
-0.03428885 -0.34700474 -0.044647504 -0.15463093 0.06569175 -0.12435236 -0.12289772 -0.07514536
-0.085668415 -0.23535022 0.01586656 -0.09645323 -0.16050763 0.08538842 -0.050493155 -0.3813406
-0.18157196 0.024924615 -0.14707644 -0.01672637 -0.3922481 0.112819344 -0.40849203 -0.05590043
-0.12578894 -0.32675076 -0.28370565 -0.04456795 -0.022308417 -0.201265 -0.0317786 -0.06387926
0.007999219 0.27693194 -0.345946 -0.17671442 -0.22455527 -0.060993597 -0.014416891 -0.032784563
-0.06884211 -0.062081926 -0.2484847 -0.14355277 -0.03304432 -0.050236613 -0.42563552 -0.22055471
0.031348232 0.19138084 -0.2014188 -0.16917484 0.06818646 0.029970415 0.020081136 -0.3414302
-0.055872977 0.15046676 -0.003855615 -0.17065677 -0.45190153 -0.021719314 -0.574711 0.08334966
0.17146744 -0.3679613 -0.07253344 -0.112532966 0.18400663 -0.07494324 0.17444368 0.012846827
0.0047969 -0.14907444 -0.0046203556 0.028404612 -0.119208194 -0.07991145 -0.2093192 0.06671491
-0.17652813 -0.017906679 -0.2206664 -0.13691616 -0.08739224 0.1931836 0.05774118 -0.357917
-0.047698785 -0.08876387 -0.26095873 -0.3026711 -0.108730905 -0.029436868 -0.23093572 -0.0064044464
-0.13871133 -0.0822973 0.03246111 -0.1916626 0.21617019 0.2743518 0.34144446 0.15413736
-0.26372418 -0.02795395 0.06748071 -0.24342795 0.02783004 -0.12089535 -0.0026543392 0.11873335
0.096946664 -0.25280514 -0.064037494 0.0018814629 0.27494162 -0.039046146 0.086978406 -0.13365738
-0.11591789 0.04301978 -0.14319597 -0.080384955 -0.5505947 -0.15834166 -0.05646062 -0.29556048
-0.17144807 -0.38169956 0.06378362 -0.15488657 -0.2527195 -0.2123011 -0.17982818 -0.18945235
-0.143199 -0.09394372 -0.2774435 -0.00040023148 -0.023345308 -0.020807192 -0.071640946 0.078230195
-0.43387577 0.1224496 -0.060825028 -0.52261984 -0.3510644 -0.21888979 -0.045466166 0.0419309
-0.008175631 0.09602923 -0.20706533 0.02618944 0.03596536 -0.04579047 0.10003907 -0.25778517
-0.06385261 -0.27896208 0.055580646 0.079197325 -0.34396505 0.120264895 -0.30730423 -0.01634215
-0.19352184 0.073321216 0.18211265 0.15632598 -0.078591354 -0.28044125 -0.4204944 -0.0010911673
-0.21963808 0.029940115 -0.0872375 -0.13733287 -0.35545912 0.09190199 -0.3088205 -0.1257732
-0.02477735 -0.07110453 0.02263085 0.2419404 -0.070810206 -0.0027030397 -0.18783194 -0.5493639
-0.08714964 0.117861055 0.24694522 0.044265967 0.13266984 0.12539308 -0.019674854 0.080340445
-0.23351376 -0.10737875 -0.14203376 -0.11965468 -0.018056663 0.045729358 -0.15381156 -0.24415727
-0.15059766 -0.08571774 0.16301057 -0.1921382 -0.2868231 -0.34590623 -0.22619241 -0.22029057
-0.07868927 -0.259219 0.1206881 -0.064537235 0.17105404 -0.12598641 -0.24211802 -0.28785792
00000000: 3655 07be fcb1 11be b84a 83be f4f5 abbe
00000010: 6a52 223c b144 bebd f53e 0c3e 63ea f5be
00000020: f3f1 e4bd daf4 96be 7769 3dbe d11e 213d
00000030: 5414 84bd 373a abbe 3345 1e3e 9259 1fbe
00000040: 87e6 1fbd 61fa f43d 9170 c5bb fd9e 2cbc
00000050: f862 dbbe 9ff2 c1bd 3dbc 20bb 8b13 473c
00000060: c687 a2be b439 abbc 73fd 2fbc 6536 883e
00000070: 0dcb 5c3d e9ad 18be 4074 1cbe d2f4 5dbd
00000080: 7772 0cbd 9baa b1be 4de0 36bd 9257 1ebe
00000090: 6589 863d 73ac febd cdb1 fbbd cfe5 99bd
000000a0: ec72 afbd a6ff 70be 97fa 813c 4589 c5bd
000000b0: 1d5c 24be 20e0 ae3d e9d1 4ebd 133f c3be
000000c0: 00ee 39be b52e cc3c 359b 16be be05 89bc
000000d0: bed4 c8be d40d e73d de25 d1be d9f7 64bd
000000e0: d1ce 00be e04b a7be de41 91be e28c 36bd
000000f0: 24c0 b6bc 6a18 4ebe 472a 02bd 21d3 82bd
00000100: 280f 033c 06ca 8d3e d61f b1be a0f4 34be
00000110: d1f1 65be 6cd4 79bd d334 6cbc 1b49 06bd
00000120: 18fd 8cbd 9e49 7ebd c672 7ebe 7fff 12be
00000130: 7b59 07bd e8c4 4dbd e6ec d9be 18d9 61be
00000140: 0167 003d 57f9 433e bb40 4ebe 2b3c 2dbe
00000150: 58a5 8b3d 8484 f53c 3281 a43c f0cf aebe
00000160: 10db 64bd f513 1a3e 7cae 7cbb a6c0 2ebe
00000170: a35f e7be b4ec b1bc 4320 13bf 3ab3 aa3d
00000180: 2995 2f3e 6c65 bcbe 6a8c 94bd af77 e6bd
00000190: 3c6c 3c3e d77b 99bd 5da1 323e 7f7b 523c
000001a0: 502f 9d3b f8a6 18be 5a66 97bb cab0 e83c
000001b0: 6d23 f4bd 9da8 a3bd c657 56be d4a1 883d
000001c0: cac3 34be 07b1 92bc 5ff6 61be c033 0cbe
000001d0: b4fa b2bd ecd1 453e 0482 6c3d e640 b7be
000001e0: cd5f 43bd d5c9 b5bd 629c 85be b5f7 9abe
000001f0: 4fae debd 9625 f1bc 6a7a 6cbe 64dc d1bb
00000200: 580a 0ebe 7d8b a8bd f1f5 043d 3343 44be
00000210: b85b 5d3e d777 8c3e cfd1 ae3e 2fd6 1d3e
00000220: db06 87be afff e4bc 5433 8a3d 2d45 79be
00000230: d3fb e33c fb97 f7bd 6cf4 2dbb 782a f33d
00000240: f98b c63d ad6f 81be 1726 83bd 6b9b f63a
00000250: 26c5 8c3e daee 1fbd bc21 b23d 7bdd 08be
00000260: 5c66 edbd 8235 303d f7a1 12be dea0 a4bd
00000270: c6f3 0cbf 5124 22be 4043 67bd b453 97be
00000280: 1590 2fbe 206e c3be fda0 823d 969a 1ebe
00000290: 7364 81be 7665 59be e124 38be ccff 41be
000002a0: c2a2 12be 9165 c0bd 130d 8ebe 29d6 d1b9
000002b0: a93e bfbc d873 aabc 7db8 92bd 2737 a03d
000002c0: f724 debe dbc6 fa3d aa23 79bd 6aca 05bf
000002d0: b7be b3be a524 60be bb3a 3abd bcbf 2b3d
000002e0: 15f3 05bc f9aa c43d ef08 54be 3d8b d63c
000002f0: 6a50 133d ca8e 3bbd 49e1 cc3d 6bfc 83be
00000300: 28c5 82bd 1ed4 8ebe 88a8 633d 3532 a23d
00000310: 301c b0be 714d f63d fb56 9dbe f9df 85bc
00000320: 972a 46be 6f29 963d bd7b 3a3e eb13 203e
00000330: 81f4 a0bd ff95 8fbe 0b4b d7be 8005 8fba
00000340: cee8 60be f944 f53c 93a9 b2bd fda0 0cbe
00000350: bdfe b5be 1c37 bc3d b81d 9ebe b1ca 00be
00000360: def9 cabc 409f 91bd 5564 b93c 39bf 773e
00000370: f104 91bd 7b25 31bb 0457 40be 1da3 0cbf
00000380: 837b b2bd 2361 f13d 35df 7c3e 3b50 353d
00000390: 9ada 073e 0b67 003e 292d a1bc 8889 a43d
000003a0: 3b1e 6fbe 64e9 dbbd 4c71 11be 830d f5bd
000003b0: 91eb 93bc b54e 3b3d c780 1dbe 5d04 7abe
000003c0: 4636 1abe c88c afbd 3eec 263e e0bf 44be
000003d0: 7ada 92be 9f1a b1be fc9e 67be da93 61be
000003e0: d727 a1bd 5ab8 84be 532b f73d 192c 84bd
000003f0: ca28 2f3e 9502 01be c9ed 77be 1d62 93be

bias f4 [128]
-0.07193836 -0.23062502 0.019835865 -0.25814906 -0.21321598 0.06112106 0.094124824 -0.19866274
-0.004273382 -0.21753372 -0.105714984 -0.1633775 -0.03658336 0.08898967 -0.121729925 -0.015935121
-0.25395945 0.14335191 -0.025022395 -0.17807917 -0.08859316 0.008689843 0.72312105 -0.11839731
-0.10817389 -0.18310943 0.11297379 -0.16050062 -0.25814235 -0.19983208 -0.20780997 -0.18080619
-0.24556142 -0.090807326 -0.11967327 0.18919913 0.014880876 -0.1815717 -0.2572803 -0.17928627
-0.12388443 -0.21612625 0.04153543 0.022108631 0.2774019 0.01670728 0.16935357 -0.27558866
-0.017619567 -0.23176481 -0.24108164 -0.14419405 -0.089791626 0.052242596 0.072172366 -0.19949876
-0.102264434 -0.0039082714 -0.09555648 -0.033939287 0.25154975 -0.2201433 -0.04715941 -0.21009146
-0.20551442 0.017065687 0.07852825 0.004316407 -0.11489957 0.43484837 -0.19654197 -0.10555675
0.058117166 -0.2957926 -0.12234025 0.12731878 0.033058953 -0.23637342 -0.29070505 0.07406053
-0.03173639 -0.060543086 0.08590239 -0.053088985 0.14010875 -0.110558175 0.013508977 -0.18965243
-0.19191308 0.03595196 -0.057976022 -0.18243405 -0.11507522 -0.108426265 -0.03852863 -0.094677664
-0.15934543 -0.1268871 -0.086595915 -0.09436698 -0.13763498 -0.082265384 -0.24655531 -0.003360865
-0.11491565 0.10953127 -0.016550133 -0.20441982 0.03328621 -0.119768694 -0.12958127 -0.12533046
0.14014687 0.077311926 -0.13770725 -0.026754787 -0.124375336 -0.095741384 0.029265411 -0.26356027
-0.060941495 -0.0983403 -0.07614019 0.16316536 -0.031630367 -0.027824596 -0.12981197 0.008278442
00000000: 6b54 93bd f728 6cbe d37e a23c 1d2c 84be
00000010: 4a55 5abe 145a 7a3d 84c4 c03d 3f6e 4bbe
00000020: ba07 8cbb 29c1 5ebe 1981 d8bd 6e4c 27be
00000030: 6fd8 15bd 3740 b63d 8a4d f9bd 5f8a 82bc
00000040: f906 82be d8ca 123e c4fb ccbc 635a 36be
00000050: 5570 b5bd d85f 0e3c 761e 393f 4a7a f2bd
00000060: 468a ddbd 0a81 3bbe cd5e e73d 465a 24be
00000070: 3c2b 84be c8a0 4cbe 23cc 54be 4225 39be
00000080: 7474 7bbe 31f9 b9bd 4217 f5bd 6bbd 413e
00000090: ebce 733c efed 39be 3eba 83be d296 37be
000000a0: 1fb7 fdbd 3350 5dbe 0e21 2a3d 291d b53c
000000b0: 9f07 8e3e b5dd 883c 066b 2d3e f519 8dbe
000000c0: e956 90bc c153 6dbe 1bde 76be 9ba7 13be
000000d0: ace4 b7bd 55fc 553d 1bcf 933d 6749 4cbe
000000e0: 0470 d1bd f510 80bb 1eb3 c3bd ec03 0bbd
000000f0: 21cb 803e 3f6d 61be 3a2a 41bd 3722 57be
00000100: 5f72 52be 57cd 8b3c 6bd3 a03d a570 8d3b
00000110: 7750 ebbd 72a4 de3e 4c42 49be 232e d8bd
00000120: 440c 6e3d 2172 97be 868d fabd db5f 023e
00000130: d368 073d e00b 72be 4bd7 94be 0cad 973d
00000140: 04fe 01bd 07fc 77bd 98ed af3d d673 59bd
00000150: ab78 0f3e 536c e2bd c254 5d3c 3f34 42be
00000160: dd84 44be 5d42 133d 4478 6dbd fecf 3abe
00000170: 8fac ebbd 970e debd 32d0 1dbd 5de6 c1bd
00000180: 732b 23be b1ee 01be 3359 b1bd 7a43 c1bd
00000190: 2ff0 0cbe c17a a8bd ff78 7cbe f541 5cbb
000001a0: e558 ebbd ee51 e03d 2594 87bc 6e53 51be
000001b0: 1f57 083d 4a49 f5bd f4b0 04be a156 00be
000001c0: a982 0f3e b755 9e3d 2103 0dbe db2c dbbc
000001d0: 7fb8 febd 0f14 c4bd 04be ef3c 5ff1 86be
000001e0: ca9d 79bd a466 c9bd 63ef 9bbd d214 273e
000001f0: d88e 01bd 68f0 e3bc 6eed 04be 4da2 073c

weight f4 [4, 128]
-0.041796573 0.21257544 0.02648868 -0.5949168 -0.027583018 -0.3194291 0.21814951 -0.10101757
0.14709851 -0.08836043 0.26926953 0.48196965 -0.06705619 0.12206444 -0.05425814 0.14465906
-0.09586632 0.3557374 -0.18349777 -0.23289025 0.17128168 0.15091218 0.19905202 -0.013844941
-0.011985997 0.2268 0.3048335 -0.16164783 -0.42139316 -0.09968834 -0.21407662 0.0063173263
0.08241837 -0.13878843 -0.1998361 0.060656894 -0.3703932 -0.19644564 0.0033700191 -0.08191252
0.011848286 0.2870557 0.10716004 -0.22891647 0.09929739 0.23818123 0.2075815 -0.12758557
0.088802546 0.14932477 -0.19380933 0.19921902 -0.19703946 -0.002854292 -0.04527377 -0.19320011
-0.25909048 0.02468361 0.36736146 0.010016432 0.23904417 0.17990987 0.05466817 0.047507532
0.022233164 0.06949214 0.15616365 0.013787563 0.08951232 0.19395097 -0.09755308 0.025026413
-0.19832109 -0.14772734 -0.38338807 0.037769575 0.06422385 0.11935553 -0.106836975 0.22583784
-0.08064716 -0.30732447 0.13762483 -0.02565917 0.049210172 -0.07710369 -0.23519091 -0.07830048
-0.11289635 -0.14855716 0.26536125 0.18083547 0.01003144 -0.07981384 0.22964408 0.34333897
0.19436918 0.17060083 0.14606504 0.14590345 0.15669721 0.034268036 -0.24486786 0.1349759
0.0046739927 0.05623689 0.09511735 -0.02032689 0.16423632 0.086413726 -0.03911721 -0.046145644
0.14458266 0.16930294 -0.036559682 -0.042980533 0.13412355 0.31006923 -0.0372889 0.017027209
0.0023398972 -0.052396536 -0.081255764 0.15913846 0.32286727 0.19930038 0.04528787 0.030493174
-0.0057836142 -0.33920372 -0.07693316 -0.11191544 0.06351111 -0.2297273 0.2820902 -0.13924213
0.31673214 0.25384477 0.020434469 0.16300738 -0.028360832 0.10315195 0.042223297 0.11448095
-0.18275093 0.24788477 0.24890505 -0.19145064 -0.039312836 0.2736684 0.17173542 0.04362594
0.05355749 -0.025484143 0.27119255 -0.2710329 0.01431724 -0.3236196 -0.13234003 -0.3520417
-0.11446262 0.21733864 0.34603804 0.09625296 0.04683076 -0.1649426 -0.07835563 -0.20829557
-0.047935307 0.33931357 0.059355218 -0.113380216 0.12971047 0.11007579 0.18570867 -0.09395053
0.188104 -0.032773238 -0.17563237 -0.045857165 0.145136 0.2987805 -0.019240655 -0.29712996
0.27593842 -0.3027936 0.081041545 -0.05173675 0.18253674 -0.21144626 0.08000493 -0.06445691
-0.35577843 0.48174137 0.014196893 0.046107974 -0.33501336 0.16130795 -0.040143013 0.081617735
-0.0816995 -0.19046381 -0.034328155 0.05377642 -0.09723309 0.33454704 -0.15344474 0.20787261
0.18899107 0.19315948 0.17935811 -0.0136441225 0.06327062 0.0045296713 0.06205582 0.40499952
-0.23685464 -0.037949324 0.34242964 -0.11053874 -0.03253979 -0.13814592 0.09811652 -0.04359323
-0.024059344 0.0073617236 0.15325466 0.11241082 0.25678074 0.0094904285 -0.028010046 -0.053078987
0.114769645 0.08534122 0.065716736 0.2564302 0.19295949 -0.029969294 -0.15718353 -0.19051531
0.019672109 0.07603253 0.25199533 0.15333244 0.42512527 0.3548227 0.24747927 0.49683803
-0.039603863 -0.072472446 -0.06872317 0.12332887 0.12534598 0.29140422 -0.013201467 0.032395713
00000000: e232 2bbd 60ad 593e cafe d83c 784c 18bf
00000010: c8f5 e1bc 368c a3be 9662 5f3e 4de2 cebd
00000020: fea0 163e 50f6 b4bd b2dd 893e bac4 f63e
00000030: c154 89bd ecfc f93d c93d 5ebd 8121 143e
00000040: 9055 c4bd 3623 b63e d7e6 3bbe c87a 6ebe
00000050: 7764 2f3e b988 1a3e 4bd4 4b3e e4d5 62bc
00000060: ea60 44bc 423e 683e 2313 9c3e 0287 25be
00000070: d8c0 d7be 6729 ccbd e736 5bbe 9301 cf3b
00000080: f6ca a83d 8e1e 0ebe d6a1 4cbe 5d73 783d
00000090: 2da4 bdbe 0c29 49be 8adb 5c3b c0c1 a7bd
000000a0: 501f 423c f7f8 923e b976 db3d 1469 6abe
000000b0: 6e5c cb3d c8e5 733e 3f90 543e cba5 02be
000000c0: 1cde b53d 98e8 183e f475 46be 1200 4c3e
000000d0: b6c4 49be 130f 3bbb fd70 39bd 40d6 45be
000000e0: 82a7 84be 4835 ca3c cd16 bc3e f61b 243c
000000f0: ffc7 743e 4b3a 383e bbeb 5f3d 4297 423d
00000100: 5322 b63c e551 8e3d 5de9 1f3e 3be5 613c
00000110: 3c52 b73d 159b 463e e9c9 c7bd 3104 cd3c
00000120: af14 4bbe d645 17be 714b c4be 45b4 1a3d
00000130: cb87 833d ac70 f43d 58cd dabd 0942 673e
00000140: 572a a5bd a259 9dbe 86ed 0c3e 2e33 d2bc
00000150: 9b90 493d 8ae8 9dbd e3d5 70be 015c a0bd
00000160: 3436 e7bd 5e1f 18be 6edd 873e ef2c 393e
00000170: e95a 243c 7075 a3bd d127 6b3e 20ca af3e
00000180: b708 473e fcb1 2e3e 1392 153e b767 153e
00000190: 3c75 203e a45c 0c3d a4be 7abe 1f37 0a3e
000001a0: 4b28 993b a758 663d e3cc c23d 9484 a6bc
000001b0: 912d 283e aef9 b03d 5e39 20bd 3703 3dbd
000001c0: 7a0d 143e c05d 2d3e 9bbf 15bd 5b0c 30bd
000001d0: af57 093e 65c1 9e3e 3fbc 18bd a57c 8b3c
000001e0: f658 193b c09d 56bd 6c69 a6bd 31f5 223e
000001f0: dc4e a53e 6615 4c3e c67f 393d d2cc f93c
00000200: 7984 bdbb 1cac adbe 228f 9dbd ec33 e5bd
00000210: 1d12 823d a23d 6bbe 206e 903e 7d95 0ebe
00000220: b72a a23e f1f7 813e 3066 a73c 68eb 263e
00000230: fa54 e8bc 5441 d33d 56f2 2c3d fd74 ea3d
00000240: 0f23 3bbe 81d5 7d3e f7e0 7e3e a30b 44be
00000250: 7f06 21bd 441e 8c3e 69db 2f3e 1db1 323d
00000260: 195f 5b3d 1fc4 d0bc c0d9 8a3e d3c4 8abe
00000270: db92 6a3c 78b1 a5be 2584 07be cf3e b4be
00000280: 616b eabd 058e 5e3e e62b b13e 4620 c53d
00000290: 9cd1 3f3d b7e6 28be eb78 a0bd 6f4b 55be
000002a0: d057 44bd 82ba ad3e 751e 733d e333 e8bd
000002b0: d2d2 043e 6a6f e13d 6a2a 3e3e 2369 c0bd
000002c0: 569e 403e 3b3d 06bd f9d8 33be b9d4 3bbd
000002d0: 889e 143e c2f9 983e 949e 9dbc 6b21 98be
000002e0: cd47 8d3e c307 9bbe 1cf9 a53d eae9 53bd
000002f0: e9ea 3a3e 5e85 58be a0d9 a33d fc01 84bd
00000300: 9728 b6be cea6 f63e 169a 683c b7db 3c3d
00000310: df86 abbe e92d 253e 006d 24bd 3327 a73d
00000320: 1152 a7bd f208 43be ae9b 0cbd aa44 5c3d
00000330: 2422 c7bd c049 ab3e 9e20 1dbe 8fdc 543e
00000340: e086 413e 99cb 453e a7a9 373e 998b 5fbc
00000350: 0794 813d a36d 943b 3e2e 7e3d 195c cf3e
00000360: 068a 72be c070 1bbd f052 af3e 2362 e2bd
00000370: 7148 05bd 2076 0dbe 50f1 c83d d18e 32bd
00000380: 1a18 c5bc 9d3a f13b caee 1c3e a537 e63d
00000390: c478 833e be7d 1b3c 5375 e5bc 5a69 59bd
000003a0: 590c eb3d 61c7 ae3d 7f96 863d d24a 833e
000003b0: 2c97 453e 2a82 f5bc b8f4 20be 7216 43be
000003c0: 6727 a13c f1b6 9b3d 8805 813e 2e03 1d3e
000003d0: 05aa d93e 52ab b53e 356b 7d3e 8e61 fe3e
000003e0: a937 22bd 6f6c 94bd bcbe 8cbd d993 fc3d
000003f0: b25a 003e ef32 953e f74a 58bc 5eb1 043d

bias f4 [4]
0.5577855 0.5124048 0.5194625 0.5469991
00000000: 08cb 0e3f f62c 033f 7ffb 043f 2208 0c3f
