p2/ckpt/standard/actor.pth (torch_old, 93168 bytes, 18 tensors)

bn0.weight f4 [33]
000000 e9 ce 8f 3f 7b 0a 3a 3f e5 28 91 3f ea a4 36 3e
       1.1235019 0.7267224 1.1340605 0.17836347
000010 23 2c 0b 3e 37 30 80 3e 0b 87 95 3e 63 cf 68 3d
       0.13591056 0.25036785 0.29204592 0.056838404
000020 21 2c 1a 3e 56 d1 c7 3d 5f 6f 2b 3e 03 a9 40 3e
       0.15055896 0.097567245 0.16741703 0.18814473
000030 93 24 1e 3e 96 62 d6 3f f4 75 71 3f 2f 3d b7 3f
       0.1544364 1.6748836 0.9432061 1.4315547
000040 13 67 83 3c 76 7e ae 3c 26 b0 a0 3c 2e 69 8c 3c
       0.01604036 0.021300536 0.019615244 0.017139997
000050 1b b9 a5 3d 02 e8 4e 3d 9c 2e 2d 3d 2e a2 24 3f
       0.08091947 0.05051423 0.04228078 0.64309967
000060 08 84 d7 3e d5 f2 18 3f 00 e0 bf 3f 00 00 80 3f
       0.4209292 0.5974553 1.4990234 1.0
000070 0c 00 bc 3f 00 00 80 3f 00 00 80 3f 00 00 80 3f
       1.4687514 1.0 1.0 1.0
000080 54 da d4 3f
       1.6629128

bn0.bias f4 [33]
000000 31 4e e0 ba 35 d7 00 3a c0 df f9 39 89 c0 16 ba
       -0.0017113147 0.0004914881 0.00047659688 -0.0005750736
000010 2c 22 c5 39 a5 1c 49 39 c8 c1 7a b9 ff 21 b3 b9
       0.00037600228 0.00019179525 -0.00023914047 -0.0003416687
000020 6d 1f a7 39 da 1a 1a 3a ad fe 80 38 75 95 d0 b9
       0.00031876136 0.0005878635 6.150953e-05 -0.00039784206
000030 81 12 b6 b9 51 fe 90 3b 1a d8 03 3b 82 03 25 bb
       -0.00034727532 0.004424848 0.002011782 -0.0025179093
000040 eb cd 4c ba 5a 9e 1b 39 d8 c5 4f 38 c5 2a ce ba
       -0.00078126666 0.00014840942 4.9536902e-05 -0.0015729299
000050 40 7e 1f 3a ab 05 62 ba 35 59 db b8 74 d0 2a 39
       0.00060841814 -0.00086220604 -0.0001045935 0.00016290118
000060 63 a3 60 ba 13 2e c1 b9 7e 3c c0 ba 55 03 ae b9
       -0.00085692684 -0.00036846157 -0.0014666466 -0.0003319035
000070 b9 fc 71 3a 1a d7 62 39 f7 19 00 bb 02 a2 b7 39
       0.0009231079 0.00021633171 -0.0019546726 0.00035025185
000080 b9 80 94 b9
       -0.00028324666

bn0.running_mean f4 [33]
000000 8c 3a 06 3d 92 00 1d c0 c2 1e 7c be 10 be 62 3f
       0.03277068 -2.4531598 -0.24621108 0.8857126
000010 8f 6e d1 3b 24 72 45 3c 56 26 1c bd 96 10 07 bb
       0.0063913534 0.012051139 -0.038122497 -0.0020609251
000020 26 3f 01 3b a2 08 0a 3b 15 67 87 3b 2a 4e 3e 3c
       0.0019721477 0.0021062274 0.0041321614 0.011615315
000030 99 39 88 3c 0b 88 93 3c 83 63 19 c0 c0 8f 8b be
       0.016629027 0.018009206 -2.3966987 -0.2725811
000040 5f cd ec 3b 97 ca d1 bc d4 25 bc bb de 58 8f 3c
       0.0072266306 -0.025609298 -0.005741814 0.01749843
000050 3e 30 57 bc fb 7f ed 3d 05 8f 27 3d d9 c9 b0 3c
       -0.01313406 0.11596676 0.04090788 0.021580623
000060 6a 1c df 3d 0f 0f b3 bc 71 22 b9 3d fc ff 7f bf
       0.108940914 -0.021857766 0.09039772 -0.99999976
000070 d7 67 af bd 00 00 00 00 fc ff 7f 3f 00 00 00 00
       -0.08564728 0.0 0.99999976 0.0
000080 20 98 81 3c
       0.01581961

bn0.running_var f4 [33]
000000 40 ae 96 40 3d d0 1b 3f ef 6e 95 40 37 75 21 3c
       4.7087708 0.6086462 4.6697917 0.009854606
000010 49 08 9d 3d 90 50 56 3c a4 01 ea 3d c8 9c e0 3e
       0.07667596 0.013080731 0.11426094 0.43869615
000020 f0 7f a5 3d e9 31 11 3e 00 bd 2e 40 5f a2 f8 3f
       0.08081043 0.14179195 2.7302856 1.9424552
000030 fc 68 4c 40 fa 44 97 41 2d ef c3 3f 28 75 95 41
       3.1939077 18.90868 1.5307366 18.682205
000040 4d ed b1 3d c8 93 84 3e ce a2 c4 3d d1 f7 0e 3f
       0.0868784 0.25893998 0.09601365 0.5584689
000050 6b 62 25 40 70 51 28 3f 86 ff 82 3f 88 5d 03 41
       2.584132 0.65749264 1.023423 8.210335
000060 92 36 89 40 3e 0b 05 41 ab 6f fc 41 04 00 00 00
       4.2879114 8.315245 31.554525 6e-45
000070 12 c5 01 42 04 00 00 00 04 00 00 00 04 00 00 00
       32.44245 6e-45 6e-45 6e-45
000080 ab 4e b1 3e
       0.3463033

fc1.weight f4 [128, 33]
000000 17 62 f2 bd f5 ec a4 bd 28 5b 43 be a5 5d dd 3d
       -0.118351154 -0.080530085 -0.19077742 0.10808877
000010 41 b8 59 be 3c 90 79 3e 6f f4 7f be e8 d6 5b 3e
       -0.21261694 0.24371427 -0.24995588 0.21468699
000020 a5 8d 11 be 7c 1c 81 3d 46 da 72 3d c5 44 cd 3e
       -0.1421419 0.06304261 0.059290193 0.4009153
000030 f6 2e 76 3c d9 7d d2 3e 9d 60 05 3e b2 e8 df be
       0.015025845 0.4111164 0.13025136 -0.4373222
000040 72 f9 6d 3e 77 3e 06 3e 78 cf b5 bc f0 5b d3 3d
       0.23239687 0.13109766 -0.022193655 0.1032027
000050 57 f4 96 bc 81 7d 17 be cf 13 a0 3e 3d 4d 36 3d
       -0.018427057 -0.1479397 0.31265113 0.044507254
000060 cc a5 cf 3e e4 79 81 be 3e 0b c7 be ae ff 4f bd
       0.4055618 -0.25288308 -0.38875765 -0.050780945
000070 f7 e7 55 3e bf 22 50 3e e1 e8 ee 3d 60 a9 52 bd
       0.20889269 0.20325755 0.11665512 -0.05143106
000080 40 07 b6 3e 13 f9 88 be 24 88 88 3c ab 48 7e 3c
       0.35552406 -0.2675253 0.01666648 0.015520255
000090 07 6f 13 3e da 98 a2 be dc 6a 21 3f d2 bb 72 be
       0.14397822 -0.3175724 0.6305368 -0.2370446
0000a0 95 5e eb 3c b3 bc e8 be d9 86 77 be 65 7b 23 be
       0.028731624 -0.45456466 -0.24172534 -0.1596504
0000b0 2e b1 f8 3d 05 c0 60 3e 12 39 cd 3e 81 36 a2 bd
       0.12143169 0.2194825 0.40082604 -0.07920552
0000c0 d5 24 80 3e 04 fa ec bd c1 34 c7 bd ab 52 13 be
       0.250281 -0.11571124 -0.09726859 -0.14387004
0000d0 28 b2 90 3e 5d 2d 5d 3e 97 f2 5d be 7d fb e4 bd
       0.28260922 0.21599336 -0.21674572 -0.1118078
0000e0 85 bb 73 3e d5 eb 4d be ff f2 2d 3e ba b1 0f 3a
       0.23802002 -0.20109494 0.16987227 0.00054815004
0000f0 f8 d9 29 bd 17 11 92 be aa c3 d6 3d 62 ef fa 3d
       -0.041467637 -0.28528664 0.10486539 0.1225269
000100 60 c5 8f 3d b3 cf b9 bd 3b 0b 75 be a5 72 0a 3c
       0.07020068 -0.090728186 -0.23930065 0.008450185
000110 a9 e8 ff 3d 16 aa 9c bd a1 2c 22 be 26 5a ff be
       0.12495548 -0.07649629 -0.15837337 -0.49873465
000120 47 30 7d 3d 38 9d 3e bf 04 a9 56 3e 0b db ab be
       0.06181362 -0.74458647 0.20962912 -0.33565554
000130 2b 85 5d 3c ea 39 2c be 68 ab 9e 3e 72 21 70 3e
       0.013520519 -0.16818967 0.30990148 0.23450258
000140 57 49 a7 be 57 07 18 be 5c e7 91 bd 43 50 b8 be
       -0.3267314 -0.1484655 -0.071242064 -0.35998735
000150 48 27 23 3e 96 e2 b3 be 67 fa 35 3e 55 ca 9d bd
       0.15932953 -0.3513381 0.17771302 -0.077046074
000160 e6 96 21 3e 27 55 26 3e 73 36 7e be fc 00 3d be
       0.1578022 0.1624342 -0.24825458 -0.18457407
000170 ab 9a e2 bd b2 7c 0b 3e d5 59 97 be 59 92 4d be
       -0.11064657 0.13621786 -0.29560724 -0.20075358
000180 79 24 05 3c 6b d9 f4 3c 5d 1d 8d be 60 bb 00 3e
       0.008126372 0.02988883 -0.27561465 0.12571478
000190 24 7d 73 3e 7a e4 f3 3d aa 64 81 3d 3d 92 f2 3c
       0.23778206 0.11908813 0.06318028 0.029610747
0001a0 6a 8d 02 be 61 b4 8e 3e 13 dc 6a 3b 8b a3 51 3e
       -0.12749258 0.27871993 0.003583674 0.20472543
0001b0 33 61 14 bb 23 be 03 bd 3f 5d 86 3c b1 54 c1 3e
       -0.0022640943 -0.03216375 0.016401885 0.37759927
0001c0 26 7d 95 be c1 be 22 be 52 0a 94 3e eb 1c 00 be
       -0.29197043 -0.1589308 0.28914124 -0.12511031
0001d0 7c ff 00 3d d3 5b 98 bc fd b8 a7 3d 58 7e f8 bd
       0.03149365 -0.018598473 0.081895806 -0.12133473
0001e0 65 92 ed 3c 69 98 92 bd 04 15 2b be c8 c8 b3 be
       0.02900047 -0.07157976 -0.16707236 -0.3511412
0001f0 22 dc 38 3e 3e 0f a3 3e 6b 51 33 3e 8f 68 83 be
       0.18052724 0.31847566 0.17511527 -0.2566571
000200 c0 48 92 bd ef 6a 32 bd a2 8d 86 bd d5 70 b2 be
       -0.07142782 -0.04355901 -0.06569983 -0.3485171
000210 fb 61 26 3e 0d 0b 1f bd 0a 64 b9 b9 63 19 40 be
       0.16248314 -0.0388289 -0.00035360485 -0.18759684
000220 87 bd 0d bf 44 b6 8a 3e 65 85 e1 be cb 94 7b 3c
       -0.5536732 0.27092183 -0.44047084 0.015355299
000230 85 a9 b6 3e 66 8b 55 3e 32 10 50 bd 65 5b 10 3d
       0.35676208 0.20853958 -0.050796695 0.03524341
000240 7b 37 fd bc 1e 06 3c 3e b8 0f 09 bd e3 46 8c 3c
       -0.030910244 0.18361709 -0.033462256 0.017123645
000250 4f 7a 5a be 56 8b b1 3e 7c ea af 3d 19 b9 d3 bc
       -0.2133572 0.34676617 0.08589646 -0.025845097
000260 f7 1e 33 be ea 88 ab 3e 24 6a 85 3e 32 2a 88 3d
       -0.17492281 0.33502895 0.2605754 0.06648673
000270 3d 61 8b 3d d5 85 e5 3c 2d 76 9b be 5b c4 60 3e
       0.06805656 0.028017918 -0.30363598 0.21949904
000280 da e7 4e 3d c5 38 3c bd fb 31 ec bd a0 52 03 3e
       0.05051408 -0.045952577 -0.115329705 0.12824488
000290 ae 89 3d 3f 3d 84 1e be 0c 71 86 bd f6 59 35 3e
       0.7403821 -0.15480132 -0.06564531 0.17710099
0002a0 64 b2 8e be 03 41 7d 3e b4 91 a3 3d ce d3 02 3e
       -0.27870476 0.24731831 0.07986775 0.1277611
0002b0 d5 70 fe bc 4e f5 8c 3d d3 c4 56 3e 47 5f 03 be
       -0.031059662 0.06882726 0.2097352 -0.12829314
0002c0 c1 44 23 be d8 26 bc bc 53 55 af 3e 76 16 23 3e
       -0.15944196 -0.02296774 0.34244785 0.15926537
0002d0 2b fe 4e be 75 cc 77 be b6 cb 0e be ac e7 8e be
       -0.20214145 -0.24199088 -0.13944897 -0.27911127
0002e0 58 be 6d 3d d8 e8 cf 3d 61 26 ae be d4 96 08 be
       0.058042854 0.10151833 -0.34013656 -0.13338786
0002f0 05 54 ec 3e 3f 58 d3 3d 7a fa 0d be b8 b9 0d 3e
       0.46157852 0.10319566 -0.1386508 0.13840377
000300 b2 02 33 3d 0d 37 0c bd 6a 39 7d 3d 11 0b 22 3c
       0.043703742 -0.034232188 0.061822332 0.009890334
000310 35 b9 65 be 10 ae 07 3e 76 a5 6a be 47 56 89 3e
       -0.22433932 0.13249993 -0.22914681 0.26823637
000320 45 6c fa bd fb 67 81 be a5 3e e7 3d e1 6b ca bd
       -0.12227682 -0.25274643 0.11291245 -0.098838575
000330 d1 e1 1b 3f e2 a0 04 be 60 a1 55 3e 52 00 9a be
       0.60891443 -0.12951997 0.20862341 -0.3007837
000340 96 e8 89 be 34 8c c7 3d 89 c2 a4 3d 50 52 0d 3d
       -0.2693526 0.097435385 0.08044917 0.034502327
000350 1e 66 f8 bd 68 2e 58 3e 00 13 c8 3e 81 e6 4d be
       -0.12128852 0.21111453 0.39076996 -0.20107462
000360 a7 4d 7a be bf 94 39 bd 11 27 3a bd e6 47 41 bd
       -0.24443685 -0.04530787 -0.045447413 -0.04718771
000370 d6 19 8b be b6 3a de bd d3 d1 24 be 84 23 01 3f
       -0.2716815 -0.10851042 -0.16095667 0.5044482
000380 43 b6 60 3e e5 7f 98 bd 53 ff a8 3e ca da bb 3d
       0.21944527 -0.07446269 0.33007297 0.0917259
000390 9b d0 64 3d ae 95 0c 3e 21 96 46 3e 36 53 10 3e
       0.055863004 0.13728973 0.19393207 0.14094242
0003a0 54 23 e0 bd 28 9e 66 3e 5f 0b 27 3e 56 b7 5d 3e
       -0.10944238 0.2252127 0.16312931 0.21651968
0003b0 d2 00 93 3e 44 9a ef bd 6b 0d 96 3e 62 bd c1 3d
       0.28711563 -0.11699346 0.29307112 0.0945995
0003c0 2b b6 7a bc 41 84 54 bc 8f 73 04 3d 2e 09 bb 3d
       -0.015302221 -0.012970985 0.032336768 0.0913261
0003d0 1e 29 7f bd eb 87 93 3d dd 02 1d bf 23 ad 5e bd
       -0.06229507 0.07203659 -0.61332494 -0.054364335
0003e0 c5 ca b9 bd 39 0d 65 3d 66 8b c6 bd 9f e8 56 3e
       -0.09071878 0.055920813 -0.09694557 0.20987175
0003f0 c3 de 76 bd 72 05 ba bd db d1 dd bb 7b a4 dd bc
       -0.060271036 -0.0908307 -0.0067694015 -0.02705597

fc1.bias f4 [128]
000000 c6 ec 21 3c 6d 47 26 3c 87 4e 27 3c c3 f0 27 3c
       0.009883111 0.010148865 0.0102115935 0.010250273
000010 0f 3a 23 3c b5 4d 27 3c a1 95 21 3c 3d 5c 1e 3c
       0.009962573 0.010211398 0.0098623345 0.009665546
000020 e1 5e 24 3c 66 b3 29 3c be 2e 26 3c 17 0e 23 3c
       0.0100323865 0.010357713 0.01014298 0.00995209
000030 72 92 17 3c ec be 21 3c 39 05 23 3c 78 87 2d 3c
       0.009251224 0.0098721795 0.009949976 0.01059138
000040 a5 ec 25 3c 7a e3 21 3c 09 8f 21 3c 18 98 1f 3c
       0.010127221 0.009880895 0.009860762 0.009740852
000050 a3 8a 0d 3c 24 29 27 3c 16 3a 1c 3c fa b4 2d 3c
       0.008639011 0.01020268 0.009535333 0.01060223
000060 70 d2 25 3c 38 df e8 3b 54 8c 24 3c 5e 5f 27 3c
       0.010120973 0.007106688 0.010043222 0.010215608
000070 35 05 15 3c 8a ca 21 3c ee 01 20 3c 4c 7e 2a 3c
       0.00909548 0.009874949 0.009766085 0.010406088
000080 8b bd 01 3c 8d 03 1e 3c 31 14 29 3c e0 9a 1e 3c
       0.007918726 0.009644401 0.010319755 0.00968048
000090 e1 5f 28 3c 68 13 1d 3c c3 ff 27 3c 01 c3 1d 3c
       0.010276766 0.009587146 0.010253849 0.009629012
0000a0 83 62 25 3c ce bc 31 3c af 14 2c 3c e0 2f 1d 3c
       0.010094288 0.010848237 0.010502978 0.009593934
0000b0 34 f8 25 3c 6c c9 2a 3c a3 13 20 3c 50 44 1e 3c
       0.010129977 0.010423999 0.009770307 0.009659842
0000c0 44 8e 22 3c cf c7 25 3c 63 8a 25 3c dd 0b 29 3c
       0.009921614 0.010118439 0.010103795 0.01031777
0000d0 a8 b7 29 3c c1 5a 2d 3c 01 bd 71 3c 72 29 2e 3c
       0.0103587285 0.010580719 0.014754535 0.0106299985
0000e0 5e e3 15 3c 5e 0f 27 3c 96 4a 1f 3c 9c 8f 25 3c
       0.009148447 0.010196535 0.0097223725 0.01010504
0000f0 db d2 22 3c 19 2d 25 3c 88 5f 28 3c de 7e 1d 3c
       0.009937967 0.010081553 0.010276683 0.009612767
000100 94 d3 22 3c 73 86 26 3c 24 89 18 3c e8 96 25 3c
       0.0099381395 0.010163891 0.009310041 0.01010678
000110 bb 65 23 3c 76 02 35 3c 60 a6 26 3c 7c ed 21 3c
       0.009972985 0.01104795 0.010171503 0.009883281
000120 bc 12 24 3c 4b 0c 20 3c 9f a6 25 3c c7 3d 19 3c
       0.010014232 0.009768556 0.010110526 0.009353108
000130 ef 6c d6 3b b5 61 1b 3c 3a 2e 15 3c bd bf 24 3c
       0.0065437476 0.009483744 0.00910526 0.01005548
000140 bf 51 19 3c 55 1a 29 3c ba c1 1e 3c 32 64 23 3c
       0.009357869 0.010321219 0.009689743 0.009972619
000150 b1 90 1f 3c ca 68 2c 3c 91 00 23 3c c2 3e 28 3c
       0.009739087 0.010523031 0.0099488655 0.010268869
000160 3c 4c 17 3c a3 e2 2a 3c 44 09 2b 3c b6 93 24 3c
       0.009234484 0.010430011 0.010439221 0.010044983
000170 b5 8e 2b 3c ee 1e 1d 3c b0 c5 20 3c da f5 22 3c
       0.010471036 0.009589894 0.009812757 0.009946311
000180 2f 9f 21 3c 4d be 2c 3c 17 19 29 3c a6 be 2c 3c
       0.0098646125 0.010543418 0.010320923 0.010543501
000190 b5 93 20 3c aa 08 16 3c 3c f5 24 3c 32 cb 24 3c
       0.009800841 0.009157339 0.010068234 0.010058211
0001a0 82 5c 26 3c 77 6b 21 3c 61 c6 24 3c 3d bc 24 3c
       0.0101538915 0.009852282 0.010057063 0.010054645
0001b0 32 62 22 3c 5a c5 1a 3c 76 98 2a 3c 0e d2 2a 3c
       0.009911107 0.009446466 0.010412326 0.0104260575
0001c0 6e 02 23 3c 0c 55 27 3c c8 92 25 3c f0 34 1f 3c
       0.00994931 0.010213148 0.010105796 0.009717211
0001d0 b1 48 29 3c b6 ca 29 3c 33 6b 21 3c 3e 2a 19 3c
       0.010332272 0.010363271 0.009852218 0.00934845
0001e0 54 53 20 3c 79 ac 2a 3c e3 10 23 3c 9a 6c 29 3c
       0.009785492 0.010417097 0.009952757 0.010340834
0001f0 3f bf 25 3c ea 1a 20 3c 14 01 23 3c b9 31 20 3c
       0.010116397 0.009772042 0.0099489875 0.00977748

bn1.weight f4 [128]
000000 89 b7 6e 3f 7d a4 35 3f 23 06 5b 3f ad 93 9e 3f
       0.932488 0.70954114 0.8555624 1.2388817
000010 d1 53 6a 3f b8 1c 73 3f cd 26 5c 3f c2 e6 59 3f
       0.91534144 0.94965696 0.85996705 0.85117733
000020 d2 ba 7a 3f 5d 06 87 3f dd f3 67 3f f7 5e 8d 3f
       0.97941315 1.0548817 0.9060648 1.1044606
000030 01 15 85 3f 04 a6 93 3f fd 13 52 3f 9f d9 6c 3f
       1.0397035 1.1535039 0.8206175 0.92519563
000040 70 27 5f 3f fc 04 9c 3f a9 93 8a 3f 55 e8 54 3f
       0.8716955 1.2189021 1.0826312 0.8316701
000050 a9 43 90 3f f4 44 45 3f 98 89 69 3f db 99 a2 3f
       1.1270648 0.7705834 0.91225576 1.2703203
000060 e8 81 74 3f bf 2f 61 3f 97 b7 72 3f fe 64 8e 3f
       0.9551072 0.8796348 0.94811386 1.112457
000070 73 c2 08 3f b6 9c 8b 3f 8f cd 83 3f ca f6 8c 3f
       0.53421706 1.0907199 1.0297107 1.1012814
000080 ef 4a bd 3f 27 ed bf 3f 0b 4e 5b 3f 52 ff 26 3f
       1.4788493 1.4994248 0.8566596 0.6523334
000090 1f b2 47 3f 82 55 5f 3f e8 0e 53 3f 4b d2 19 3f
       0.78006166 0.8723985 0.8244462 0.60086507
0000a0 60 7c 64 3f 23 ee a9 3f ff 15 40 3f ea c3 33 3f
       0.8925228 1.3275799 0.75033563 0.70220816
0000b0 e8 dd 71 3f d5 ac 4c 3f dd c0 4e 3f 61 ac 4f 3f
       0.9447923 0.7995122 0.80763036 0.81122404
0000c0 aa 9e 58 3f 84 ed 8b 3f ff 61 51 3f cd 7b 92 3f
       0.846171 1.0931859 0.81790155 1.1444031
0000d0 1c 3c 84 3f 5c 8d 65 3f 7a b7 95 3f 6b b9 38 3f
       1.0330844 0.8966882 1.1696618 0.72157925
0000e0 7b a4 5e 3f b9 4b 81 3f 33 94 93 3f c8 4b 62 3f
       0.8696973 1.0101234 1.1529602 0.88396883
0000f0 e6 d0 9b 3f f7 8d 75 3f 3b 61 7e 3f 33 47 96 3f
       1.2173126 0.95919746 0.9936711 1.1740478
000100 d9 d9 74 3f 71 49 5e 3f 23 1d 74 3f a5 01 8a 3f
       0.9564491 0.8683081 0.9535696 1.0781752
000110 25 16 7a 3f 90 78 5e 3f ff 20 89 3f 18 ee 89 3f
       0.9769004 0.86902714 1.0713195 1.0775785
000120 be e7 8a 3f 7e cb 5d 3f 58 b0 7c 3f f7 27 71 3f
       1.0851972 0.8663863 0.9870658 0.94201607
000130 ac 1c b5 3f aa 24 fd 3e c0 c1 7a 3f 40 90 71 3f
       1.4149375 0.49442035 0.9795189 0.94360733
000140 b3 62 88 3f 13 d1 50 3f 2c 63 42 3f f9 09 82 3f
       1.0655121 0.8156902 0.75932574 1.0159293
000150 f6 e5 3b 3f 5e e4 7b 3f 70 8c 5d 3f 58 b0 6b 3f
       0.7339777 0.98395336 0.86542416 0.92065954
000160 01 58 8b 3f a0 e6 62 3f d9 a7 a6 3f f3 c1 94 3f
       1.0886232 0.88633156 1.3019973 1.1621689
000170 a9 4f 45 3f 47 8a 5d 3f b9 65 6f 3f e9 ee 49 3f
       0.77074677 0.8653912 0.9351459 0.7888017
000180 c2 d3 50 3f 44 2d 5f 3f ac 93 89 3f f2 36 a7 3f
       0.81573117 0.87178445 1.0748191 1.3063643
000190 c5 70 11 3f dc 4f 9f 3f a5 17 91 3f 0a a7 59 3f
       0.568127 1.2446246 1.1335341 0.85020506
0001a0 24 e4 73 3f 26 69 58 3f 6f 03 6d 3f d2 bf 63 3f
       0.9526999 0.84535444 0.92583364 0.8896457
0001b0 20 51 93 3f 4c e9 4e 3f c2 7f 81 3f 7e 04 86 3f
       1.1509132 0.8082473 1.0117114 1.0470121
0001c0 d1 a4 27 3f 94 93 3a 3f 0c b1 2e 3f 43 e3 79 3f
       0.65485865 0.72881436 0.682389 0.976124
0001d0 32 37 6c 3f 88 28 7f 3f 86 1c 66 3f 9b 06 8c 3f
       0.9227172 0.9967122 0.89887273 1.0939516
0001e0 d0 d4 60 3f 2a 1a 5b 3f 40 62 61 3f ee ab 57 3f
       0.87824726 0.855868 0.8804054 0.8424672
0001f0 fb e0 29 3f 25 10 6b 3f 18 81 39 3f 3f de 62 3f
       0.6635892 0.9182151 0.72462606 0.8862037

bn1.bias f4 [128]
000000 1a 61 cc be b3 05 b5 be 08 1d 3d bf a5 78 0c bf
       -0.39917833 -0.3535591 -0.73872423 -0.5487159
000010 2e 0d 05 be 42 d4 6c bf 0b b7 34 bd 8f 2a 9a 3e
       -0.12993309 -0.9251138 -0.044119876 0.30110595
000020 2c d4 68 be 0e 74 22 3e 29 d6 de be a6 d8 8c be
       -0.22737187 0.15864584 -0.43522766 -0.2750904
000030 86 a5 00 bf 2b 74 fb be 96 e3 ab be 13 96 99 be
       -0.5025257 -0.49112067 -0.33572072 -0.2999731
000040 24 30 29 be 33 1b 64 bf 83 a9 7e be 4b eb e9 be
       -0.1652227 -0.89104 -0.24869351 -0.45687327
000050 ae 0a 3e bf b4 67 d7 3d 2c 2d 93 be 59 38 0a bf
       -0.74235046 0.10517827 -0.287454 -0.5399223
000060 1a 1a 4e bf 30 8a 90 be 67 72 8e be 8f c0 d0 be
       -0.8050858 -0.2823043 -0.27821657 -0.4077191
000070 be bd 8e 3e 87 b7 94 be e6 15 20 bf 60 70 1f bf
       0.27879137 -0.2904627 -0.62533414 -0.62280846
000080 17 5c 92 be ac 45 24 bf 41 a7 10 be 7e 40 9e 3d
       -0.28585884 -0.6416881 -0.14126302 0.07727145
000090 a5 84 f9 3e b3 c0 86 3e 23 17 ad be 94 2f 75 3e
       0.48734012 0.26318893 -0.33806714 0.23943931
0000a0 67 da fc be 94 94 62 bf 0a b2 65 be 81 29 f4 3e
       -0.49385378 -0.8850796 -0.22431198 0.47687915
0000b0 ca 25 aa be 9f f5 05 bf 71 05 b3 be cb ed b3 be
       -0.33231956 -0.52327913 -0.3496509 -0.3514236
0000c0 86 17 be bc 1a dd 05 bf 28 0d c5 3d 8b 94 a7 be
       -0.023204576 -0.522905 0.0962165 -0.32730517
0000d0 c8 ef 9b be f2 58 78 bf c0 62 26 bf 7d 8e e1 3d
       -0.30456376 -0.9701072 -0.6499443 0.110135056
0000e0 5e f2 33 bf eb 61 fd be 63 07 3a bf c9 bd 19 bf
       -0.702917 -0.49488768 -0.7266752 -0.60055214
0000f0 e0 e0 6f bf 53 cf bd be 9f ff e8 bc 71 e8 6f bf
       -0.93702507 -0.37072238 -0.028442202 -0.9371405
000100 0b e8 1b bf 80 9b 62 3e c0 69 54 bf 65 90 bc bd
       -0.60900944 0.22129631 -0.8297386 -0.092072286
000110 5f 70 fe be c4 90 96 3e 62 b6 d0 be da fd 77 bf
       -0.49695107 0.29407322 -0.40764147 -0.9687172
000120 6b f7 d4 be 33 9e 12 bf 7e 67 10 bf ef 35 8f be
       -0.41595015 -0.5727264 -0.56407917 -0.27970836
000130 be 10 98 bf 25 6a b7 3e 8f 06 95 3e b9 9d bd be
       -1.1880109 0.3582317 0.29106566 -0.37034395
000140 39 c1 30 bf 94 ce c5 bd 0c 5e b5 be 42 26 c8 be
       -0.69044834 -0.09658542 -0.35423315 -0.39091688
000150 94 c4 0a 3f ab d0 6a 3d 74 e3 93 3e a9 f4 79 be
       0.54206204 0.057327908 0.2888447 -0.24409737
000160 be 81 91 bf e4 f0 47 bf cb be 65 bf 5b 1a d4 be
       -1.1367719 -0.78101945 -0.8974425 -0.41426358
000170 a9 bd 0c bf 3b ca df be 54 63 3c be a5 ce 16 3e
       -0.549769 -0.43708977 -0.18397266 0.14727266
000180 68 76 6f be fc 26 30 be 72 e6 43 bf d5 14 b0 be
       -0.23385012 -0.17202371 -0.76523507 -0.34390894
000190 14 e5 5a bd a3 e4 85 be e4 df 70 be 2b b0 9a be
       -0.053441122 -0.26150998 -0.23522907 -0.3021253
0001a0 58 bb 19 be 2d 08 8d 3c 91 47 d4 be 58 6b f0 be
       -0.15012872 0.017215813 -0.4146085 -0.46956897
0001b0 ad c8 4c bf e3 2d 51 be 01 f1 13 be 42 db c5 be
       -0.79993707 -0.2042766 -0.14447404 -0.38643843
0001c0 b5 32 e2 3e 63 67 a6 be 81 c2 8f 3e 27 9b 20 bf
       0.4417931 -0.32500753 0.28078082 -0.62736744
0001d0 13 09 25 bf de cb c8 be 66 f7 d3 3c 70 db 80 be
       -0.6446697 -0.39218038 0.025874805 -0.25167418
0001e0 f0 a4 98 bd 4f e2 1c bf 04 78 c8 be c4 c1 e1 be
       -0.07453334 -0.6128282 -0.39154065 -0.44093144
0001f0 ac 6a 91 3e db a5 95 be 80 7e 86 be d7 dd d4 be
       0.28401697 -0.292281 -0.26268387 -0.415755

bn1.running_mean f4 [128]
000000 f0 72 52 3c e4 82 31 3c 23 5b 49 3c 52 27 ea 3b
       0.012844786 0.010834429 0.012289795 0.0071458006
000010 ab 9b 32 3c 85 e9 5b 3c e4 90 16 3c e2 48 46 3c
       0.010901372 0.013422375 0.009189818 0.012102338
000020 b9 c6 32 3c eb 5b 24 3c 3b 06 34 3c b3 92 19 3c
       0.010911637 0.010031681 0.010987814 0.009373355
000030 c7 37 0f 3c 28 45 24 3c b7 f7 ff 3b 74 3f 4e 3c
       0.008741326 0.010026254 0.0078115123 0.012588371
000040 fb e6 21 3c d2 f3 1f 3c ad ff 1a 3c 49 02 42 3c
       0.00988173 0.009762721 0.009460372 0.011841365
000050 78 20 3e 3c 4e a0 3b 3c c8 42 fc 3b 42 55 52 3c
       0.011604421 0.011451794 0.0076983906 0.01283771
000060 3c 1b 2b 3c c7 08 c0 3b 73 8f 1a 3c 06 05 47 3c
       0.010443505 0.0058604213 0.009433615 0.012147194
000070 1f 7f fe 3b 1f 2b 03 3c a4 01 31 3c 57 19 22 3c
       0.007766619 0.008005886 0.010803614 0.009893737
000080 04 d5 8f 3b b2 bd f2 3b 4e c4 fe 3b 15 95 40 3c
       0.004389407 0.0074078673 0.007774866 0.011754294
000090 e0 1c 3d 3c 55 b3 45 3c 75 9d e0 3b a0 ad cb 3b
       0.011542529 0.012066682 0.006854708 0.006215766
0000a0 aa b7 ea 3b 08 ec 79 3c 20 fc f6 3b 6a 35 0e 3c
       0.0071630077 0.015254028 0.00753738 0.008679727
0000b0 a1 9a 4b 3c 25 cf 2c 3c c4 1e 1f 3c 32 99 f8 3b
       0.012427003 0.010547434 0.009711925 0.0075866217
0000c0 5a 33 29 3c c4 87 0f 3c 8c 2e 1d 3c c9 e8 4b 3c
       0.010327185 0.008760396 0.009593617 0.012445637
0000d0 b6 82 0f 3c ca 56 4b 3c 11 2a 8b 3c 54 29 fe 3b
       0.008759191 0.012410829 0.016987832 0.0077563915
0000e0 7b d8 e1 3b 88 e9 f2 3b 8f cc 57 3c b4 51 35 3c
       0.0068922616 0.007413093 0.013171329 0.011066843
0000f0 38 6a 1a 3c 0c 19 1b 3c 11 db 3c 3c 1e 41 f9 3b
       0.009424739 0.009466421 0.011526839 0.0076066395
000100 6d 60 48 3c 22 b7 47 3c 6d 9e 3f 3c 54 b1 0d 3c
       0.012230021 0.012189658 0.0116954865 0.008648235
000110 77 d5 36 3c 87 39 30 3c 45 86 ed 3b 9f 8d f8 3b
       0.011159292 0.010755903 0.007248672 0.007585242
000120 2a 5b 13 3c af a4 23 3c f0 ae 10 3c cc b6 3a 3c
       0.008993903 0.009987994 0.008830771 0.011396121
000130 35 30 ac 3b 47 99 1e 3c 4e ac ac 3b 85 75 22 3c
       0.00525477 0.009680099 0.0052695638 0.009915714
000140 d9 42 b6 3b d5 f6 39 3c b3 24 1e 3c 97 ce 20 3c
       0.005562168 0.011350353 0.009652304 0.00981488
000150 76 3e 69 3c 4f 4c 00 3c 18 e0 34 3c e8 aa 3d 3c
       0.014236083 0.007830693 0.011039756 0.011576392
000160 71 26 33 3c fb 11 ec 3b 71 74 73 3c db 8a 1c 3c
       0.010934458 0.007204292 0.014859305 0.00955459
000170 eb bf 20 3c 8a e6 28 3c fc 30 15 3c 95 72 0e 3c
       0.009811382 0.010308871 0.009105917 0.008694311
000180 83 35 c8 3b 34 e5 42 3c 7d 41 65 3c d1 d5 ee 3b
       0.0061098947 0.011895467 0.013992664 0.0072886725
000190 8c 66 27 3c 84 32 16 3c ba 86 4b 3c da 51 11 3c
       0.01021732 0.009167317 0.012422258 0.008869613
0001a0 be f1 2d 3c cb f8 47 3c 76 09 2a 3c 73 97 00 3c
       0.010616718 0.012205313 0.010378232 0.007848608
0001b0 ff ef 19 3c d5 4f 2d 3c 9e ba 1f 3c 1c 2d ea 3b
       0.009395598 0.0105781155 0.009749083 0.0071464907
0001c0 5e f1 1f 3c d3 7d 2b 3c cf 62 08 3c 35 d7 e7 3b
       0.009762136 0.010467011 0.008324339 0.007075215
0001d0 c6 7d 57 3c a5 dd 4b 3c 68 a4 29 3c 5d 4c 1d 3c
       0.013152545 0.012442981 0.010354139 0.009600726
0001e0 45 32 2b 3c 0c 78 50 3c f4 1d d3 3b d9 59 21 3c
       0.010448997 0.012723934 0.0064427797 0.0098480815
0001f0 d3 cd 22 3c 81 6c 22 3c d8 b1 21 3c 2a 58 20 3c
       0.009936768 0.009913565 0.009869061 0.009786645

bn1.running_var f4 [128]
000000 f1 5f 77 3f 46 0f 8b 3e 94 99 0b 3f 3a 38 12 3f
       0.9663077 0.2716009 0.54531217 0.57117045
000010 64 35 d9 3f 41 4e 25 3f 6d 11 84 3f ce 91 d5 3e
       1.6969419 0.6457253 1.0317818 0.41712803
000020 e3 88 d7 3e 06 64 eb 3f a8 6f 3d 3f 21 35 e2 3f
       0.42096624 1.83899 0.739985 1.7672464
000030 9c f7 05 3f 70 4d 09 3f e9 b8 c9 3e 7a 4f b0 3e
       0.52330947 0.53633785 0.39398888 0.34435636
000040 b6 b9 3b 3f ed 77 d8 3f d2 66 f5 3f b7 51 f3 3e
       0.7333025 1.6911598 1.9172003 0.4752328
000050 9c c7 5a 3e da a7 dd 3d 30 5f be 3e e9 50 33 3e
       0.21365207 0.10823031 0.37181997 0.17511334
000060 45 87 0b 3f 1e 24 4e 3d 75 9a d0 3e 50 ed 33 3f
       0.5450328 0.050327413 0.4074284 0.70283985
000070 eb e3 95 3e 8c 0a 37 3e ea 05 3c 3f 89 43 d7 3e
       0.2927545 0.17875117 0.73446524 0.42043713
000080 72 d1 29 3d 08 ff b0 3e 72 39 3a 3f 75 15 70 3f
       0.04145951 0.34569573 0.72743905 0.9378274
000090 7e 2d da 3e 0d b9 e7 3e 1b ad 05 3f 81 4e a6 3e
       0.42612833 0.4525837 0.52217263 0.3248177
0000a0 33 80 ae 3e c6 ec 77 3d 40 6f 37 3f 18 3d 8d 3e
       0.34082183 0.06052854 0.7165413 0.27585673
0000b0 47 d4 a8 3e 18 e7 79 3f e6 6d 3d 3f 3b ba 08 3f
       0.32974455 0.97618246 0.73995817 0.53409165
0000c0 11 7c 9c 3f b8 e9 4b 3f a2 5d a4 3e 14 0f 39 3f
       1.2225362 0.796535 0.32102686 0.7228863
0000d0 db 8d 88 3f 37 18 af 3f 44 7f e1 3c e9 b1 3a 3f
       1.0668291 1.3679265 0.027526505 0.7292772
0000e0 49 52 24 3f ff 1f c5 3f 93 c7 a4 3e 03 25 f7 3f
       0.6418806 1.540039 0.32183513 1.930817
0000f0 71 97 a4 3e c2 78 c8 3e 19 f5 d4 3f 1b 7a 21 40
       0.3214679 0.3915463 1.6637298 2.5230777
000100 68 28 c0 3e 67 62 0b 3f 60 a5 41 3f b8 4e 91 3f
       0.37530828 0.54447025 0.7564297 1.1352148
000110 25 7d 94 3f ee e8 e0 3d f4 4e 0e 3f 85 0a 21 3f
       1.1600691 0.10981928 0.5558922 0.62906677
000120 da 2a a1 3e 09 ec 18 3f 05 eb dd 3f 2f c0 82 3f
       0.31478006 0.5973516 1.7337347 1.02149
000130 cb 96 0d 3e 1f c1 d2 3d 15 9c 18 3e 30 17 cd 3d
       0.13827054 0.10290741 0.1490329 0.10014188
000140 c3 7e a9 3e 83 d4 bf 3f ab 9c 91 3f 7e b5 14 3f
       0.33104524 1.4986728 1.1375936 0.58089435
000150 63 5c 08 3e 64 c0 b9 3e df d5 62 40 61 c9 21 3f
       0.13316493 0.36279595 3.5443037 0.63197905
000160 ab f3 7d 3e 4b cc d3 3e c3 80 23 3e f4 f6 91 3f
       0.24799983 0.413668 0.15967087 1.1403489
000170 1e 4d 8d 3f 35 10 e3 3f 55 6f f9 3f 3e fb 3f 3f
       1.1039159 1.7739321 1.9487101 0.7499274
000180 8a 8b 81 3e 2e 8d c8 3f f6 48 f3 3e 54 32 16 3f
       0.25301772 1.5668085 0.47516602 0.58670545
000190 ef 79 c7 3e 6b 4e 8a 3f 41 9f 08 3f a0 f5 33 3f
       0.38960215 1.0805181 0.53368 0.7029667
0001a0 d4 b9 3b 3f 1c 6e 1f 3f f7 c6 b5 3f 37 42 a4 3f
       0.73330426 0.6227739 1.4201344 1.2832707
0001b0 c1 b7 a4 3e fc d1 21 3f 2b e0 d8 3e 1d e1 31 3f
       0.32171443 0.63211036 0.42358527 0.6948412
0001c0 1e 12 93 3f c8 87 f7 3e e2 9a 5b 3e 42 ac 6b 3f
       1.1489904 0.4834578 0.21445802 0.9205972
0001d0 a9 41 07 3f 5a 03 e3 3f 73 c7 5b 3f 02 ec 36 3f
       0.52834564 1.7735398 0.8585121 0.7145387
0001e0 4a 37 05 3e 23 b5 26 3f 63 90 c4 3e 5e 32 52 3f
       0.13009372 0.6512014 0.38391408 0.82108104
0001f0 a7 91 11 3f 66 ba 45 3f 34 61 ea 3e 54 6c 7c 3e
       0.5686287 0.77237546 0.45777285 0.24650699

fc2.weight f4 [128, 128]
000000 61 82 5e 3e cc 93 da 3c e1 d1 89 3e 40 6b b4 be
       0.21729423 0.026681803 0.26917937 -0.35238075
000010 2d c1 4a 3d ed 02 0a 3d 01 6e 86 3e f2 d9 f6 bd
       0.049500633 0.033694196 0.262558 -0.120532885
000020 98 e2 40 3e 58 b3 e3 3d 1b c9 30 3e ea d9 09 bf
       0.18836439 0.111181915 0.17264216 -0.53848135
000030 9c f0 2f bd 81 4a d4 3e 4f 3a 23 bb 0b 69 74 3e
       -0.042954072 0.41463092 -0.002490658 0.23868196
000040 89 5d c8 3d e0 ad 93 3d 31 68 45 be 53 c6 c1 3e
       0.097834654 0.072108984 -0.19278027 0.37846622
000050 bb 00 a3 bd a7 e5 b7 bd ce 4e 34 bd ef 24 90 be
       -0.07959124 -0.089793496 -0.044020467 -0.28153178
000060 d4 63 b2 3d 1a 87 28 bf 5f 69 e7 bd 5c 7b 43 be
       0.08710447 -0.6583115 -0.11299395 -0.19090027
000070 2e 29 95 3e 40 36 1e 3e 4e 56 e6 3e 7d dc 93 be
       0.2913298 0.15450382 0.4498772 -0.28879157
000080 00 cd 0a bf 98 3c bf 3d 18 fe 64 3e fe 4d 17 3c
       -0.54219055 0.09337729 0.22362554 0.009234903
000090 df db 2c bd d2 21 82 be 2e 6e 6b 3e db 13 85 be
       -0.042201873 -0.25416428 0.22991249 -0.2599171
0000a0 02 5d 3c 3e 01 12 43 be 43 9c 1e bf 1e f9 4e be
       0.18394855 -0.19049837 -0.61957186 -0.20212218
0000b0 09 d9 12 3e c9 df 2a be 5c 2a 22 3e d3 0b 66 3d
       0.14340605 -0.1668693 0.15836471 0.05616362
0000c0 58 ef 3c 3e cf cc 28 3e eb 34 c6 3d 40 19 d7 be
       0.18450677 0.16484378 0.09678062 -0.42011452
0000d0 bf 96 86 3e 21 3e 1f 3e c0 a6 0c bf 01 20 4c bd
       0.26286885 0.15551044 -0.5494194 -0.04983521
0000e0 de 4a d2 3b 34 56 72 3e 1b 6f 22 3b 6f d5 12 3e
       0.0064176163 0.23665696 0.0024785462 0.14339231
0000f0 0b cd 01 39 63 7b c5 bd ca 52 66 be 62 cc c1 bd
       0.00012378783 -0.09642675 -0.22492519 -0.09462811
000100 6b 39 c7 3e 1e a1 9e 3c c1 2e cf bc 7d 56 1e bd
       0.38910994 0.019363936 -0.025290849 -0.0386567
000110 ac 13 3f bc 84 fd cd 3d 6b d0 0c be 9d 04 83 3d
       -0.011662405 0.1005812 -0.1375138 0.06397364
000120 bf c7 fe bd 21 12 bf be ae cb 89 3e 4e 6e 2d 3f
       -0.12440442 -0.3731852 0.26913208 0.67746437
000130 80 ff 00 bf 47 ea 3f bd d5 98 cd bd 6f e2 5f bd
       -0.5038986 -0.046854284 -0.10038916 -0.054659303
000140 a0 02 40 3e ea 85 68 bd 20 d9 bf be 2a e6 d0 bc
       0.18751001 -0.056768335 -0.3747034 -0.025500376
000150 89 48 cb bd 3c 1e 35 be 34 78 d8 be 87 c2 62 3e
       -0.09925944 -0.17687315 -0.42279208 0.22144519
000160 aa ff 06 3e 53 2c 91 be 4b cb a7 be ee 2f cd be
       0.13183466 -0.2835413 -0.32772288 -0.4007563
000170 cd 30 08 3e 0b 5d 8a bd b9 d4 59 be 22 69 cc 3d
       0.13299866 -0.06756028 -0.21272554 0.0998099
000180 a3 de a1 be 78 e4 48 be 12 1b a3 3d 0d cd d8 bd
       -0.3161517 -0.19618404 0.079641476 -0.10585985
000190 33 76 52 be c9 b3 cd be 58 fb 76 3e 2a eb 47 be
       -0.20552902 -0.40176228 0.24119318 -0.19523302
0001a0 3c 76 fc 3e 62 c8 89 bd be 00 54 bd 66 b5 f0 3e
       0.49308956 -0.06727673 -0.05175852 0.47013396
0001b0 6a cf 85 be 94 9b b3 b9 17 bf 9b be 3e 37 a0 be
       -0.26134807 -0.00034257455 -0.30419227 -0.31292146
0001c0 c7 51 20 bf 47 4e 5c 3d 4d 45 13 bf 70 93 48 3e
       -0.6262478 0.05378559 -0.5752762 0.19587493
0001d0 af 74 cf be a6 25 56 bd bb 57 d3 3e 22 9e b2 be
       -0.4051871 -0.052281998 0.4127787 -0.3488627
0001e0 e6 33 90 be 8e 02 55 be 7c 98 ae 3c 63 8a 7e 3e
       -0.28164595 -0.20801756 0.021312945 0.24857478
0001f0 62 37 8a bd da 91 86 3e fc aa 9f be b6 7c 05 3e
       -0.06748845 0.2628315 -0.31185138 0.13035855
000200 96 31 11 be f0 e4 71 3c bb 2a 6d 3e 85 d9 cf 3e
       -0.14179072 0.014764056 0.23160832 0.40595642
000210 f4 cc 86 3e 2c 13 47 be 1c b3 cc 3d 07 19 75 be
       0.26328242 -0.19440907 0.099951 -0.23935328
000220 d2 85 53 3e 45 e9 34 be 6b 8e 97 3d 70 d7 9e 3e
       0.20656517 -0.1766711 0.07400211 0.3102374
000230 6f 5e 9c bc 13 d9 f7 3c 3f b5 96 be 36 d8 b7 bc
       -0.019087998 0.030254876 -0.29435155 -0.022441965
000240 53 35 26 3e 4f 9b 2e be 93 e2 f4 bd 94 48 81 3e
       0.16231279 -0.17051433 -0.11957278 0.25250685
000250 75 02 58 be a4 a5 e0 3e e6 60 cf be a9 c8 5c 3d
       -0.21094687 0.43876374 -0.40503615 0.053902302
000260 06 7e ee 3c 74 73 0c 3e ba 4f c5 3d d7 8e 13 bd
       0.029112827 0.13715917 0.09634347 -0.036024895
000270 ee 17 be bd 72 4e 42 3e 72 d4 30 bd 29 23 3a 3d
       -0.09281908 0.18975237 -0.043171354 0.045443688
000280 5b dc df 3b 8a 41 90 3e 72 0c 84 3d 7e c1 c9 3e
       0.0068316883 0.28175002 0.06447686 0.39405435
000290 81 74 ee bd fb b4 0e 3e 1c a8 ac 3e 0b 1f 2a 3e
       -0.11643315 0.13936226 0.33722007 0.16613404
0002a0 f2 16 6e 3e d3 70 16 3e 40 cb a4 be 66 77 cb 3e
       0.2325094 0.14691477 -0.32186317 0.3973953
0002b0 94 e2 39 bd e6 98 35 bd 43 6c 7e 3e b2 2c 73 be
       -0.045382097 -0.04433527 0.24845986 -0.23747519
0002c0 9d 41 29 bd b0 70 b9 bd 50 93 1f be 48 c2 8b 3d
       -0.04132234 -0.090546966 -0.15583539 0.068241656
0002d0 bd 01 c1 3d e6 36 49 3d 1f 73 fa bd 72 98 47 be
       0.0942416 0.04912462 -0.12228989 -0.19491747
0002e0 b7 8b 69 3d be ac 11 3e 0f fa 0e bf 12 3a 38 bf
       0.057018008 0.14226052 -0.5585031 -0.7196361
0002f0 19 b1 ce 3e ef b2 b7 3d 86 00 06 be d5 46 67 bd
       0.4036949 0.08969676 -0.13086137 -0.056464035
000300 1c 6e 6c 3c fc 5b d5 bd 40 7e 23 3e 4a 9e 3b 3e
       0.014430549 -0.10417935 0.1596613 0.18322101
000310 f4 ee 17 3e 97 5b ec 3e a3 8e ac be 5c ee 10 3d
       0.14837247 0.46163628 -0.33702573 0.035383567
000320 fa cf a2 3e e4 be 57 be 83 8a 7b 3e 8e 22 ae bd
       0.317993 -0.21068913 0.24564557 -0.085026845
000330 46 c4 25 3e a1 b5 07 3e 27 95 d6 3d 63 76 12 3e
       0.16188154 0.1325288 0.10477667 0.14302973
000340 86 47 fd 3a ec 01 94 3d 13 77 2c 3e b1 15 09 be
       0.0019323684 0.07226929 0.16842298 -0.13387181
000350 c3 f7 37 3a 94 46 43 3e 7e 32 d7 bd 11 69 c5 be
       0.00070178154 0.19069892 -0.105076775 -0.38556722
000360 a6 7a a9 be ec e0 42 3e fc e7 bc bc 70 8f a9 3d
       -0.33101386 0.19031113 -0.023059838 0.08279312
000370 73 8b 83 3e 91 3d 9c 3e 81 3b 34 bd f3 9b 27 3e
       0.2569233 0.3051572 -0.04400206 0.16368084
000380 38 85 80 3e f2 6c 26 be 56 8b 6e 3e a6 2e 27 3e
       0.25101638 -0.16252497 0.2329534 0.16326389
000390 a6 95 06 3c a3 43 8f 3e 78 6d 84 be e9 58 89 3d
       0.00821439 0.2798129 -0.25864768 0.067064114
0003a0 48 f1 98 3e 86 78 3c bf c7 89 83 3d f7 47 8c 3e
       0.29871583 -0.73621404 0.06422763 0.27398655
0003b0 b1 a2 89 3e c7 0e 71 be 5e 37 d1 be f1 47 ac be
       0.26881936 -0.23540793 -0.40862554 -0.33648637
0003c0 19 09 73 3d 65 82 12 3e ef ee a8 3e 9a 9e ca 3e
       0.059334848 0.14307554 0.32994792 0.39574128
0003d0 67 f1 69 3c 6f 05 f9 bd 50 b5 30 3e de ff be be
       0.014278746 -0.121592395 0.17256665 -0.37304586
0003e0 70 54 22 3c 3b ab 07 3f 0d b6 27 3d 0d d3 89 be
       0.009907827 0.5299565 0.0409451 -0.2691883
0003f0 63 1a d1 bd 17 60 22 bf 93 51 27 3e 72 57 07 3d
       -0.10210111 -0.6342787 0.16339712 0.03304238

fc2.bias f4 [128]
000000 7f 45 23 3c e5 42 20 3c be 3c 28 3c f3 14 2f 3c
       0.0099653 0.009781574 0.010268388 0.010686147
000010 d4 df 1d 3c fc 09 28 3c 6e 8f 1e 3c ba fd 28 3c
       0.009635884 0.010256287 0.009677751 0.010314399
000020 88 7b 2d 3c 1c 39 1d 3c c4 86 1a 3c 9e 55 15 3c
       0.010588534 0.0095961355 0.009431545 0.009114651
000030 8f 21 22 3c 84 69 3a 3c c9 ab 24 3c 1f a1 09 3c
       0.009895696 0.011377696 0.010050722 0.008400231
000040 83 63 1f 3c 23 ce 27 3c e1 8b 28 3c 49 0d 24 3c
       0.009728315 0.010242018 0.010287256 0.010012933
000050 0d a8 18 3c 83 ef 22 3c c2 48 2a 3c 1c 3e 23 3c
       0.00931741 0.009944799 0.010393323 0.0099635385
000060 68 62 2e 3c 3c 61 3d 3c 68 4f 1a 3c 7d a5 11 3c
       0.010643579 0.011558827 0.009418346 0.008889553
000070 3d 4a 21 3c 1e 5e 27 3c b9 3c 2d 3c d0 b3 2f 3c
       0.00984436 0.01021531 0.010573559 0.010724023
000080 7b 7b 03 3c 67 bd 20 3c 28 b1 1f 3c d2 a5 29 3c
       0.0080250455 0.009810782 0.009746827 0.010354476
000090 0d 34 24 3c 57 e2 2a 3c 3e 42 03 3c 3c ce 35 3c
       0.0100221755 0.01042994 0.008011399 0.011096533
0000a0 8f c6 2a 3c 72 5a 0e 3c 70 ae 3c 3c a6 44 22 3c
       0.010423317 0.008688556 0.0115161985 0.009904062
0000b0 a3 72 24 3c 26 f4 36 3c 03 35 26 3c 5f fb 21 3c
       0.010037097 0.011166608 0.010144475 0.009886592
0000c0 ea 59 28 3c 74 d0 40 3c 20 41 fc 3b 62 b0 26 3c
       0.010275343 0.011768449 0.007698193 0.010173889
0000d0 91 dd 2d 3c 8f cc 1f 3c 48 c3 1c 3c 32 7b 30 3c
       0.010611908 0.00975336 0.009568043 0.01077156
0000e0 a1 b8 37 3c ac 5f 29 3c a8 ad 1e 3c bf 86 28 3c
       0.011213453 0.010337751 0.009684958 0.010286032
0000f0 17 60 44 3c 19 d2 17 3c aa d2 33 3c 52 6b 1f 3c
       0.0119858 0.0092664 0.010975519 0.009730177
000100 e2 90 37 3c a3 12 2c 3c ea a2 25 3c 06 fb 21 3c
       0.011203976 0.01050249 0.0101096425 0.009886509
000110 f4 d2 33 3c 6e 73 26 3c cb c7 16 3c f3 fa 1a 3c
       0.010975588 0.0101593565 0.009202908 0.009459245
000120 3a 3c 30 3c 69 82 26 3c b5 f1 1d 3c db de 2d 3c
       0.010756547 0.010162928 0.009640147 0.010612215
000130 ba b5 2b 3c 5c 47 39 3c e6 6c 26 3c 90 6b 25 3c
       0.010480339 0.011308517 0.010157799 0.010096446
000140 fa 5a 24 3c 83 10 29 3c 74 57 28 3c 56 5d 11 3c
       0.010031456 0.010318878 0.010274757 0.008872351
000150 1e 45 1d 3c 4c 79 31 3c 6a 13 00 3c 33 46 22 3c
       0.009598998 0.010832142 0.007817129 0.009904432
000160 bc 3a 2f 3c 73 e9 23 3c 2c 81 30 3c 5a 5f 26 3c
       0.010695156 0.010004389 0.0107729845 0.0101545695
000170 bb de 24 3c 52 c4 26 3c 6a 9c 17 3c 29 a9 10 3c
       0.010062869 0.010178642 0.009253601 0.008829393
000180 0a 15 28 3c 4a 13 35 3c 9e 4c 33 3c 35 2b 21 3c
       0.010258922 0.011051962 0.01094356 0.0098369615
000190 fc 09 2e 3c d6 53 2f 3c 87 98 29 3c 08 18 2b 3c
       0.010622498 0.01070114 0.010351307 0.010442741
0001a0 82 98 23 3c fb 32 18 3c 49 be 21 3c ec fc 1b 3c
       0.009985091 0.009289498 0.009872028 0.0095207505
0001b0 a5 62 1e 3c d5 88 1b 3c 8b 52 1d 3c 23 a0 2a 3c
       0.009667073 0.0094930725 0.009602199 0.010414156
0001c0 f5 10 2f 3c 1e 56 13 3c b6 5c 11 3c d6 d3 1e 3c
       0.010685195 0.0089927 0.008872202 0.00969406
0001d0 33 01 13 3c f4 e6 1d 3c 7b 52 24 3c 14 7e 2c 3c
       0.008972454 0.009637583 0.0100294305 0.010528106
0001e0 9d cf 31 3c b5 bf 2c 3c eb a8 18 3c a2 9c 17 3c
       0.0108527215 0.010543753 0.009317617 0.009253653
0001f0 72 2d 1b 3c f1 b5 20 3c 84 f8 2c 3c 36 43 18 3c
       0.009471284 0.009809003 0.010557298 0.009293368

bn2.weight f4 [128]
000000 aa f5 db 3f 50 a6 b8 3f e1 e3 e2 3f b4 1c e1 3f
       1.7184346 1.4425755 1.7725793 1.7586884
000010 b2 0e e8 3f 09 58 d0 3f f7 06 e3 3f 3c 31 ac 3f
       1.8129485 1.6276866 1.77365 1.3452525
000020 a3 2a df 3f 05 f4 99 3f f6 dd c2 3f 62 69 d4 3f
       1.7434887 1.2027594 1.5223987 1.659466
000030 2f 1c df 3f c4 0b dc 3f 31 4a b9 3f 18 88 c2 3f
       1.7430476 1.719109 1.4475766 1.5197783
000040 82 19 b7 3f c6 01 bd 3f 93 26 c0 3f 16 14 e1 3f
       1.4304659 1.4766166 1.5011772 1.7584255
000050 0d 03 be 3f 94 61 c9 3f c9 41 b9 3f 86 93 ac 3f
       1.4844681 1.5732903 1.4473201 1.348252
000060 4b f3 d4 3f 8a da bf 3f b5 1f ba 3f 17 b8 d8 3f
       1.6636747 1.4988568 1.4540926 1.693118
000070 c3 4f c8 3f af d7 da 3f 0b 19 b8 3f c6 ad b5 3f
       1.5649341 1.7097071 1.4382643 1.4193656
000080 60 ad c2 3f ec fc cc 3f f5 ac d5 3f 3f 44 d1 3f
       1.520916 1.6014686 1.6693407 1.6348952
000090 93 55 cb 3f 21 56 ea 3f da 12 fc 3f e5 ce bb 3f
       1.588549 1.8307534 1.9693253 1.4672514
0000a0 74 b4 f5 3f d4 59 c3 3f e8 2a ce 3f e9 79 ad 3f
       1.9195695 1.5261788 1.6106844 1.3552829
0000b0 b3 d2 eb 3f 8f 19 be 3f ca 8d c1 3f e2 6c d2 3f
       1.8423675 1.485155 1.5121396 1.6439478
0000c0 c8 b7 a8 3f 2f 42 d0 3f 6a 6f d5 3f b6 fe c4 3f
       1.3181086 1.6270198 1.6674626 1.5390232
0000d0 14 3e d7 3f 1c 5b c2 3f 07 6c c4 3f 02 62 b9 3f
       1.681582 1.5184054 1.5345467 1.4483035
0000e0 e1 e6 ac 3f 31 e4 e2 3f cd a0 e2 3f e2 68 b9 3f
       1.3507959 1.7725888 1.7705323 1.4485133
0000f0 e0 38 cf 3f 02 3a a7 3f 07 e3 bc 3f 53 c2 e2 3f
       1.6189232 1.3064578 1.4756783 1.7715553
000100 15 3e cf 3f 48 2e f4 3f 8e 88 fa 3f 1c a5 ef 3f
       1.6190821 1.9076624 1.9572923 1.8722262
000110 d9 b6 b2 3f b5 46 b4 3f 9e 5c f1 3f 48 66 d1 3f
       1.3962051 1.4084078 1.885639 1.6359339
000120 ed af d6 3f e8 50 e3 3f 05 03 d2 3f 06 ff f1 3f
       1.6772438 1.7759066 1.6407171 1.8905952
000130 ef ea ec 3f b3 0c b1 3f 8a 81 b2 3f 03 22 07 40
       1.8509196 1.3832 1.3945782 2.111451
000140 ff ca b4 3f 97 e7 ce 3f 25 bf f1 3f 01 8e b6 3f
       1.412445 1.6164426 1.8886458 1.4262086
000150 63 3f e7 3f 51 50 e2 3f 00 47 bc 3f 47 03 d1 3f
       1.8066219 1.7680761 1.4709167 1.6329125
000160 06 51 f5 3f 9e 89 b9 3f 2b 40 c1 3f 1d ff d3 3f
       1.9165351 1.4495122 1.5097708 1.6562229
000170 d1 30 dd 3f 4c f1 b0 3f d8 13 da 3f 31 89 bf 3f
       1.7280523 1.3823638 1.7037306 1.4963742
000180 03 45 cd 3f b0 7e 09 40 35 94 d2 3f 2b e3 c2 3f
       1.6036686 2.1483574 1.6451479 1.5225576
000190 e7 54 bc 3f db be b4 3f 23 32 c5 3f 3f 24 e7 3f
       1.471341 1.4120744 1.5405926 1.8057936
0001a0 c3 80 d7 3f 2c 0f be 3f 18 07 ea 3f 0d 01 d3 3f
       1.683617 1.484838 1.8283415 1.6484696
0001b0 6e ca b5 3f 7f d0 a9 3f 8f 37 ce 3f 06 43 f5 3f
       1.4202402 1.3266753 1.6110705 1.9161079
0001c0 a4 ae e0 3f ae 2a c7 3f 8f f7 d4 3f 9c 71 c7 3f
       1.7553296 1.55599 1.6638049 1.5581546
0001d0 bf 0f b5 3f 34 3c d1 3f 8c 12 cb 3f 7e 3e d4 3f
       1.414543 1.6346498 1.5865035 1.6581571
0001e0 ca 07 db 3f 96 af d1 3f 52 c2 b5 3f 9d de d2 3f
       1.7111752 1.638171 1.4199927 1.6474186
0001f0 b8 68 fb 3f 55 2c ed 3f ee 2a d2 3f f2 75 b2 3f
       1.9641333 1.8529154 1.6419351 1.3942244

bn2.bias f4 [128]
000000 63 3e d3 be 7c b9 08 bf 19 be d0 be 5d ca 90 be
       -0.41258535 -0.53408027 -0.40770033 -0.2827939
000010 e0 01 8e bf 1f 6e 8b bf 6c 3b 0c bf 37 a3 d7 bf
       -1.1094322 -1.0892981 -0.5477817 -1.6846684
000020 93 45 28 bf 8b e9 83 bf 05 b6 45 bf db 81 2c bf
       -0.6573116 -1.0305647 -0.77230865 -0.67385644
000030 a2 49 30 bd d2 b5 3a bf 16 0d ef be f2 36 c9 bd
       -0.04303897 -0.72933686 -0.4668967 -0.09824933
000040 43 13 86 be 85 f2 a9 bf 65 75 d6 be 18 d9 c0 bf
       -0.2618657 -1.3277136 -0.4188644 -1.5066252
000050 3c b6 90 bd e0 7f 2b bf d7 30 24 bf 28 00 1b be
       -0.070660084 -0.66991997 -0.64137024 -0.15136778
000060 bb 11 8c bf 2c ae 53 bf c3 d6 f9 be 6e 87 6c bf
       -1.0942911 -0.8268764 -0.48796663 -0.9239415
000070 f6 f0 07 bf 66 70 94 be 75 18 b4 be 08 a6 00 bf
       -0.5310205 -0.28992003 -0.3517491 -0.50253344
000080 11 f4 2d bf 69 19 37 bf 6d 3d 24 bf f6 65 a2 be
       -0.6795054 -0.7152315 -0.6415623 -0.31718415
000090 72 4f 29 be bc 94 07 bf 2d 30 85 bf 30 43 aa be
       -0.16534212 -0.52961326 -1.0405327 -0.33254385
0000a0 64 9f 99 bf 49 d5 02 bf d7 3e 0e bf b6 63 40 bf
       -1.2001767 -0.511067 -0.55564636 -0.75152147
0000b0 d0 49 04 bf a7 22 39 bf e4 aa 61 bf 71 3e 16 bf
       -0.5167513 -0.723185 -0.88151383 -0.5868903
0000c0 f6 a6 7d bf 8a 55 be be 6f d4 f4 be 41 48 34 bf
       -0.9908289 -0.37174636 -0.47818324 -0.7042275
0000d0 fb 8c 24 be b6 86 a8 be 21 f1 26 bf da 13 53 bf
       -0.16069405 -0.32915276 -0.65211684 -0.82452166
0000e0 e3 ed ae bf 15 16 c8 be a2 fc 44 be e3 5c 40 bf
       -1.3666347 -0.39079347 -0.19236997 -0.75141734
0000f0 8f a6 e1 be cf 78 72 bf 7f d9 9e be 9e 51 87 bf
       -0.44072387 -0.9471559 -0.3102531 -1.0571783
000100 60 09 a4 be 2f 12 81 be de 8a f7 be d3 bc 34 bf
       -0.32038403 -0.25209185 -0.48348135 -0.7060062
000110 bf cb 36 bf 33 a8 57 bf b3 b8 7c be 72 3f cf be
       -0.7140464 -0.84241027 -0.24679832 -0.40478092
000120 25 56 63 bf b3 83 6d bf 31 bd 9d be c0 9e 15 bf
       -0.8880332 -0.9277908 -0.30808404 -0.5844536
000130 f9 32 19 bf 12 e2 97 bf 61 74 aa be 49 62 ff be
       -0.59843403 -1.1865866 -0.33291915 -0.49879673
000140 42 40 bf be 22 8a f5 be ea 7c d1 be 2d 8d 60 bf
       -0.37353712 -0.4795695 -0.40915614 -0.8771542
000150 af 04 a6 be 15 65 ce be aa 66 2e bf ab cd 79 bf
       -0.32425448 -0.40311494 -0.681254 -0.9757945
000160 d7 00 3b bf 9e bb 3b bf d0 5d 04 be d1 a5 d0 be
       -0.73048156 -0.73333156 -0.12926412 -0.40751508
000170 55 4e 15 be 43 3c 16 bf b5 67 d1 bf 73 b4 5b bf
       -0.14580663 -0.586857 -1.6359774 -0.8582222
000180 e8 0d fd be 21 5d 77 bf c4 66 09 bf cb ba 80 bf
       -0.49424672 -0.9662648 -0.5367243 -1.0057005
000190 3e fe 68 bd 0f 03 3e bf 83 b1 31 bf 3f d1 bb be
       -0.05688309 -0.7422342 -0.69411486 -0.3668308
0001a0 9a 96 43 be f2 43 fb be f5 22 be be bf 2b 09 bf
       -0.19100419 -0.49075276 -0.37136045 -0.53582376
0001b0 87 1f 4b bf 0f 22 9b bf 52 12 d8 be fc 26 f8 be
       -0.7934498 -1.2119769 -0.42201477 -0.48467243
0001c0 6e b6 bc be 3f 64 60 bf 28 3a 21 bf 63 a0 7c bf
       -0.36857933 -0.87652963 -0.62979364 -0.9868223
0001d0 75 ff cd be d2 d4 ec be 91 83 32 bf a5 08 c3 be
       -0.4023396 -0.4625612 -0.69732004 -0.38092533
0001e0 0e bb 16 bf de f4 b7 be f2 3a d4 be 95 cd 03 bf
       -0.5887917 -0.35929006 -0.41451222 -0.5148557
0001f0 f7 6a a5 be a4 bc 2a bf 27 0e 9c be a3 50 bd be
       -0.3230817 -0.6669409 -0.30479547 -0.36975583

bn2.running_mean f4 [128]
000000 9b b5 03 c0 0a c5 6b 3f 96 6f 5e bf 7d 35 83 bf
       -2.0579593 0.9209753 -0.86889017 -1.0250698
000010 18 e7 71 bf 91 53 5b bf e9 31 ed bf c1 4d 06 c0
       -0.94493246 -0.8567439 -1.8530856 -2.0984957
000020 d4 87 52 3e f0 05 0b c0 8a 50 2f bf 8b 46 01 bf
       0.20559627 -2.1722374 -0.6848227 -0.50498265
000030 82 25 35 c0 99 4d 0c c0 36 4f f8 3f 40 67 78 3f
       -2.8304143 -2.1922362 1.9399173 0.97032547
000040 08 64 30 40 67 83 24 c0 af 2c 07 3f f2 57 dc bf
       2.7561054 -2.5705202 0.52802557 -1.7214339
000050 ed 5f 9e bf 72 df ee 3e d9 de bc bf e5 00 00 40
       -1.2373024 0.4665485 -1.4755508 2.0000546
000060 28 47 83 3f c4 0a d1 bf 4b b4 49 3f 42 be 96 bf
       1.025609 -1.633141 0.7879073 -1.1776812
000070 ad 0d 63 bf fb 2a fc be f7 14 19 be 47 18 33 3f
       -0.8869274 -0.49251541 -0.14949404 0.6995892
000080 b5 18 5f be 8f 9a ac be 17 41 f6 be 83 8b ae bf
       -0.21786769 -0.3371167 -0.48096535 -1.3636326
000090 7c 16 96 bf 20 be 4a bf 59 51 f5 bf 71 f0 39 3f
       -1.1725612 -0.7919636 -1.916545 0.7263251
0000a0 48 f9 e1 bf c4 7e 8a bf 46 51 d6 bf d0 93 e0 be
       -1.76542 -1.0819936 -1.6743553 -0.43862772
0000b0 b0 3a 6d 3f 9d 2d dc 3e f0 ba 24 40 b5 28 0f bf
       0.92667675 0.4300355 2.5739098 -0.5592149
0000c0 a7 1c 18 bf b6 64 32 c0 a4 67 df bf b3 2b 5a bf
       -0.5941872 -2.787397 -1.7453504 -0.8522293
0000d0 14 5d e9 3d 7e aa a2 bf 77 5b 08 c0 7c ef ba 3f
       0.11394706 -1.270828 -2.1305826 1.4604335
0000e0 c3 47 b4 3c e8 75 7b bf 8f ab 0f 3f 7d f5 3f be
       0.022006875 -0.98226786 0.5612115 -0.1874599
0000f0 58 2f ba bf 94 af 0b c0 02 b1 aa 3f 14 b6 73 bf
       -1.4545698 -2.1825914 1.3335268 -0.95199704
000100 36 ce 49 3f 5c 4f a7 3f 03 ef 25 bf 86 5c 07 c0
       0.7883028 1.3071094 -0.6481783 -2.1150222
000110 56 b4 f1 bd 73 dd 9a bf 0e d7 0c c0 57 4a 26 be
       -0.118019745 -1.2098831 -2.200626 -0.16239296
000120 20 71 bf bf 5c 10 ed 3e 44 7f 45 3f ad 65 4a be
       -1.4956398 0.46301544 0.77147317 -0.19765349
000130 36 a4 94 bf ab 75 9c bf b8 d5 b7 3f 4c 19 24 3f
       -1.1612613 -1.222341 1.4362097 0.641011
000140 59 0d 83 be 86 c8 17 3f 1a 14 d9 bd b1 8a bd 3f
       -0.2559612 0.5929035 -0.10599537 1.480795
000150 90 fb 23 c0 26 6b 9f bf 3d 94 b3 bf a4 d2 bc 3e
       -2.5622292 -1.2454574 -1.4029614 0.36879456
000160 ad db a3 3d 25 c1 71 bf 5d 09 08 c0 e7 54 ab 3f
       0.08000884 -0.9443534 -2.1255715 1.3385285
000170 81 cc 84 bf f3 64 11 3f d2 65 d4 bf 8b 50 2c bf
       -1.037491 0.5679466 -1.6593573 -0.673104
000180 0f ab 3c bf 19 0d 7a 3f f0 9c 18 bf 23 d0 90 bf
       -0.73698515 0.97676235 -0.5961447 -1.1313518
000190 c5 49 f0 be 3a 83 0e be 05 66 a6 3f c0 99 b4 be
       -0.46931282 -0.13917246 1.2999884 -0.35273552
0001a0 9d f6 ea bf 64 3b 8d 3f 45 af 75 bf af 5e dc bf
       -1.835651 1.103375 -0.95970565 -1.7216395
0001b0 3f ed 16 3f 12 51 cc bf b8 b1 23 3f b8 6a 10 3f
       0.5895576 -1.5962241 0.6394305 0.5641284
0001c0 70 a0 06 bc f0 40 7e bf b1 23 99 3f a8 a2 39 bf
       -0.008216962 -0.99317837 1.1964017 -0.7251382
0001d0 9b e0 db 3f 8f 0a 76 bf 9c 50 21 3e 9f bc 13 bf
       1.7177919 -0.9610986 0.15753406 -0.5770969
0001e0 ba 23 d0 3e 14 10 66 bf e5 d8 04 40 95 93 43 bf
       0.40652257 -0.89868283 2.0757382 -0.7639707
0001f0 e5 b2 a3 bf f7 d5 6c be d1 8c cd 3e 46 35 f2 3f
       -1.2788969 -0.23128496 0.40146497 1.8922508
