p2/ckpt/standard/critic.pth (torch_old, 88291 bytes, 9 tensors)

bn0.weight f4 [33]
000000 c1 c2 b2 3e 2a 0c 72 3e c1 31 c3 3e ca 8b a5 3d
       0.3491421 0.23637453 0.38123897 0.08083303
000010 0e f7 13 be 44 1e c6 3d 56 75 69 be fb 4f 29 3d
       -0.14449713 0.096737415 -0.22798666 0.04133604
000020 fd b6 af 3d ed e6 3d 3d 5a 01 a0 3d 94 c8 ec 3d
       0.08579824 0.046362806 0.07812758 0.11561695
000030 17 7c 85 3d c6 c1 46 3f 33 72 7f 3e 79 68 3a 3f
       0.06517809 0.77639425 0.24945907 0.7281566
000040 15 d1 f1 3c 4c 6c 08 3d f6 0b 04 3d a5 5b 24 3d
       0.029518643 0.033306405 0.03223797 0.04012646
000050 50 25 30 3d 16 45 1c 3d 25 10 2b 3d f8 d5 6a 3e
       0.043004334 0.038151823 0.041763443 0.22933185
000060 98 67 17 3e 59 ca 61 3e b9 c9 21 3f 00 00 80 3f
       0.14785612 0.22049846 0.6319843 1.0
000070 23 2a 1d 3f 00 00 80 3f 00 00 80 3f 00 00 80 3f
       0.6139242 1.0 1.0 1.0
000080 cb ef 0e 3f
       0.55834645

bn0.bias f4 [33]
000000 bf 6f 8f b8 0d f0 c5 be 3d 85 86 3c b0 c8 2b 3e
       -6.839586e-05 -0.38659707 0.016420955 0.16775775
000010 c0 57 68 bd fb 19 a0 3a 7d 2e 54 bd 8b b2 cb bb
       -0.05672431 0.0012214774 -0.051802147 -0.0062163523
000020 80 42 29 bd 6a e6 b6 3c f0 90 c5 3c 90 7f c4 bd
       -0.041323185 0.022326667 0.024116963 -0.09594643
000030 32 3e 48 bc 53 d8 97 bc 6a 80 e7 3d 6e 0f 43 bd
       -0.01222186 -0.018535769 0.1130379 -0.047622137
000040 50 a9 bc 3a 50 e9 91 b9 7c 9d 8c 3b f4 a2 d0 3b
       0.0014393721 -0.00027830387 0.0042912345 0.006367082
000050 93 f2 97 bc 63 80 b6 3c 86 07 b1 3c 46 ae 35 bb
       -0.018548286 0.022278016 0.021610033 -0.0027722283
000060 d7 9e c3 bb 33 b2 62 bb 27 72 78 3c 9b 19 3d be
       -0.005969863 -0.0034591078 0.015163935 -0.18466799
000070 b7 fe 85 bd 9c 9b 7a ba d3 bc a2 3b 82 04 81 3b
       -0.065427236 -0.0009559931 0.0049663573 0.003937305
000080 a0 c8 75 bd
       -0.060005784

bn0.running_mean f4 [33]
000000 b2 47 5c 3d 43 d6 1c c0 76 f9 60 be 51 9a 62 3f
       0.05377931 -2.4505775 -0.21970162 0.8851672
000010 20 6e 18 3c f2 c0 48 3c af 0e 0c bd 3e 6c 05 3b
       0.0093036 0.012253033 -0.03419369 0.0020358707
000020 df ce 2c 3b 02 8a 2f 3b 23 b3 69 3b ba 64 09 3c
       0.0026368422 0.002678514 0.0035659752 0.0083858315
000030 79 0f a0 3c 17 aa 2f 3d 31 7a 19 c0 48 a5 7d be
       0.019538628 0.04288682 -2.398083 -0.24770081
000040 37 98 54 3b 88 5c d4 bc 14 8c 47 bc f1 49 9b 3c
       0.003243936 -0.025923029 -0.012179393 0.018956156
000050 8c 55 70 3c 18 90 ed 3d fb d1 26 3d 68 34 f2 3c
       0.014668833 0.11599749 0.040727597 0.029566005
000060 31 b7 b3 3d a5 6f 6a bc 51 de eb 3d fc ff 7f bf
       0.08775175 -0.014308845 0.11517013 -0.99999976
000070 51 53 bd bd 00 00 00 00 fc ff 7f 3f 00 00 00 00
       -0.09244407 0.0 0.99999976 0.0
000080 6c 8c 30 3c
       0.010775667

bn0.running_var f4 [33]
000000 06 a6 95 40 fa 67 1c 3f 7c 1b 97 40 35 f7 24 3c
       4.6765165 0.61096156 4.722105 0.010068704
000010 e2 f8 9b 3d af 37 5d 3c 24 2a ec 3d e0 ea db 3e
       0.0761583 0.013502046 0.11531475 0.42952633
000020 a2 8b a8 3d 73 b3 12 3e b4 34 31 40 4e 54 fa 3f
       0.08229758 0.14326267 2.7688417 1.9556978
000030 e7 32 46 40 51 99 95 41 ff 52 bf 3f de 05 97 41
       3.0968568 18.699862 1.4947203 18.877865
000040 35 d3 b0 3d 43 d1 85 3e 54 a4 c7 3d 72 21 0e 3f
       0.086340345 0.26136217 0.0974814 0.55519783
000050 40 a3 26 40 46 ca 2c 3f a9 fa 84 3f 70 f3 03 41
       2.603714 0.67496145 1.0388995 8.246933
000060 59 83 86 40 e8 f0 03 41 86 11 fa 41 04 00 00 00
       4.2035336 8.246315 31.258556 6e-45
000070 49 06 03 42 04 00 00 00 04 00 00 00 04 00 00 00
       32.756138 6e-45 6e-45 6e-45
000080 ee 52 b2 3e
       0.34828895

fc1.weight f4 [128, 33]
000000 da 8d 46 bd fa 08 4a bf 7d 6f 03 3f e8 a6 6c 3d
       -0.048475124 -0.7891995 0.5134199 0.05777636
000010 20 82 f1 bc b2 64 dc 3d 27 58 4f be a5 45 49 3e
       -0.029480994 0.107613936 -0.20248471 0.19655474
000020 6e 66 85 3d e3 55 4d be 3a db d2 bd 8c 7b 16 3e
       0.065136775 -0.20052294 -0.102957204 0.14695567
000030 a2 05 eb 3e 66 54 7a 3e 5d bd 02 40 46 4a 0d bf
       0.45902735 0.24446258 2.0428078 -0.5519146
000040 58 a4 50 3e 66 66 24 3d 43 6e 72 3e 3c 99 77 3e
       0.20375192 0.040136717 0.23674874 0.24179548
000050 7b ab 71 bd a8 22 da bc 2b 5f 84 bd 3f 04 91 bd
       -0.059001427 -0.026627854 -0.06463464 -0.07080888
000060 83 ad 84 3f cf da 84 3d 9c 6a a7 be c7 6a 90 3e
       1.0365452 0.06487047 -0.32698524 0.28206465
000070 0c b8 19 3f ea be db bb df 67 aa bb 93 66 16 3b
       0.6004646 -0.0067061083 -0.0052003707 0.0022949323
000080 a2 25 19 3d 1b 46 8f bf 77 c8 b2 3f f6 14 36 bf
       0.037389405 -1.119327 1.3967427 -0.71125734
000090 be 29 16 3f e8 29 ed 3e 67 6b 55 3f 2f fb 48 3f
       0.58657444 0.46321034 0.8336701 0.78508276
0000a0 62 72 1b be 02 79 29 bf 07 c9 a4 bf 61 77 f5 3e
       -0.15180352 -0.6620027 -1.2873849 0.4794264
0000b0 0f 6c 48 3f 27 9f f7 3e 93 38 58 3f a7 49 90 bf
       0.78289884 0.4836361 0.84461325 -1.1272477
0000c0 aa a4 e6 3e 8f 87 08 3e c0 00 13 be 1c 75 cd 3e
       0.45047504 0.13332961 -0.14355755 0.4012841
0000d0 c1 10 9c 3e 16 61 03 bf 65 d9 89 3c a0 16 8b 3e
       0.30481532 -0.51320016 0.016827295 0.271657
0000e0 85 be 7c 3e f9 1d 36 bf 01 45 04 3e ae 94 88 be
       0.24682052 -0.71139485 0.12916948 -0.26675934
0000f0 6c 2c e3 3e 0f ac 46 bf a8 11 5b 3d d6 94 93 bd
       0.4436983 -0.7760629 0.053483635 -0.072061226
000100 b2 4a a8 3c 40 39 e8 3e 24 13 62 be 21 76 f6 3e
       0.02054343 0.45356178 -0.22077614 0.48137
000110 94 6e 24 3f a0 18 97 3e f9 be 3b bd d8 8e 15 3f
       0.6423123 0.29510975 -0.045836423 0.5842109
000120 68 fe 0b 3f 1b 77 c9 be b6 75 08 be a8 7b 74 3f
       0.5468507 -0.39348683 -0.13326153 0.95501184
000130 91 0e fe 3e 71 09 05 3e 69 0b 53 3f 99 0a 88 3f
       0.49620488 0.12991883 0.82439286 1.0628234
000140 92 d9 2f bf ad 82 1a 3f 3a 05 5a 3f 04 cf 3b 3f
       -0.6869136 0.60355645 0.85164225 0.73362756
000150 e2 88 bf be 67 3f 83 3f f8 2e 8f 3f 81 21 05 3f
       -0.3740912 1.0253724 1.1186209 0.5200425
000160 c6 6a fb 3e 51 bc 3c 3f 1c 50 f5 be 9c f5 0a 3f
       0.491049 0.7372485 -0.4791268 0.5428102
000170 76 f1 b9 bf eb cd 86 3f 12 7c 80 be 98 5a e6 bd
       -1.4526813 1.0531591 -0.25094658 -0.11247748
000180 8e 99 23 3d bb 26 41 bd 0f 1a 21 bf c3 76 bb 3e
       0.039941363 -0.047156077 -0.6293039 0.36614046
000190 4a 62 8c bd e5 46 0b bf 4a 94 89 bf 06 33 da 3e
       -0.06854685 -0.5440505 -1.0748379 0.42617053
0001a0 b0 8f 5e be 79 47 58 bf 16 e2 88 be 60 58 30 bf
       -0.217345 -0.8448406 -0.2673499 -0.6888485
0001b0 c3 76 36 bd a3 82 db bd 0a 85 6a 3e 2b ba 1f 3f
       -0.044546854 -0.10718276 0.22902313 0.62393445
0001c0 0c 11 3b be 11 f4 4e 3e c8 62 f2 3e ae 05 be 3e
       -0.18268222 0.20210291 0.4734099 0.37113708
0001d0 01 14 ac be 28 f9 50 3d 86 9f e1 be 33 fc b9 bd
       -0.33609012 0.051018864 -0.4406702 -0.09081306
0001e0 15 be 08 3e b8 bc ec bc a1 ae 61 be 1d 9f dc 3d
       0.1335376 -0.028898582 -0.22039272 0.10772536
0001f0 bf a5 63 3f 3c f0 e8 3d 2c ed 10 3e eb db c4 3d
       0.88924783 0.11373946 0.14152974 0.096122585
000200 c7 ca bf bc 47 8d 8e bd 5e 9f a0 3c 50 8d 7a 3f
       -0.023412121 -0.0696054 0.019607242 0.97871876
000210 82 dd 64 be fb 0a a0 3e 97 6c 83 bf d1 e8 11 3e
       -0.22350124 0.31258377 -1.0267514 0.14248969
000220 ec 9d c1 3e e7 75 17 be c0 c0 c5 3e 7e d8 b5 3e
       0.37815797 -0.1479107 0.3862362 0.35516733
000230 d4 ba 9a 3e 0e f8 41 be 8a 68 4d bf 05 5c 15 3e
       0.30220664 -0.18942282 -0.8023764 0.14585884
000240 cb 33 bd 3e c2 92 82 be fe 45 ba be c3 b6 21 3f
       0.36953577 -0.25502592 -0.36381525 0.631695
000250 be 03 31 3e e6 0e 91 be 11 12 b9 bb 63 68 7d be
       0.17286584 -0.2833168 -0.0056479056 -0.24746852
000260 cc dd be bc ea 5e 6a 3e ea f1 11 3f 90 04 03 be
       -0.02329912 0.2288777 0.57009757 -0.12794709
000270 39 15 18 3e 42 b2 b6 3f 3f c3 f0 be b4 e5 20 3f
       0.14851846 1.427315 -0.4702396 0.628505
000280 b2 cb b9 be c6 85 84 3c 34 85 c0 3d 68 4e 91 bc
       -0.3628822 0.01617707 0.094004065 -0.017737582
000290 08 e4 31 bf ee 4f 5b bf b3 91 81 3f f9 14 87 be
       -0.69488573 -0.8566884 1.0122589 -0.26383188
0002a0 38 33 b1 3d cd 09 50 3d fc 86 b3 be c3 e4 d4 3e
       0.08652347 0.050790597 -0.35063922 0.4158078
0002b0 ad a1 70 3f 72 ef 39 3f 9f b1 04 3f 2f 31 8e 3e
       0.939967 0.7263099 0.5183353 0.277719
0002c0 15 bd 97 3e ba 9f 5d 3e 98 08 47 be b9 04 c6 be
       0.29636446 0.21642962 -0.19436872 -0.38675478
0002d0 dc 04 b2 3e ea 96 44 bf 31 8e 69 be 5c 0e af 3e
       0.34769332 -0.76792777 -0.22808148 0.34190643
0002e0 df 47 b5 3d cd 4a 0f 3f fe ce 3d 3e c3 22 32 be
       0.08851599 0.5597351 0.18535993 -0.17396073
0002f0 12 f2 f9 3e 7c b0 9d bf 85 c8 6d 3e 3d bc fe be
       0.48817497 -1.2319484 0.23221023 -0.4975299
000300 37 0c 86 3f 93 a2 2d be 62 3a b5 3d e5 e9 d4 3d
       1.0472478 -0.16956548 0.08849026 0.10396174
000310 a1 da 57 3e 50 42 64 be 77 13 09 bf 39 c4 47 3f
       0.21079494 -0.22290921 -0.53545326 0.78033787
000320 b4 e3 0b bf d4 c6 c0 3e 60 e6 48 3f 83 3f a7 bf
       -0.5464432 0.37651694 0.78476524 -1.3066257
000330 cd 56 68 3e 4a 7a 0d be 08 47 96 3f 99 b4 5b 3e
       0.22689362 -0.13816181 1.1740427 0.21455611
000340 71 2d bc bd 44 a6 52 3f 63 c3 92 be 0a 1b d6 3e
       -0.09188355 0.8228495 -0.28664693 0.41817504
000350 a1 25 27 be be 7b 88 3e 85 5f 19 3f 78 5b fa be
       -0.16322948 0.26656908 0.59911376 -0.4889791
000360 1d f3 0d bf 91 39 1a 3f 6b d5 1f bf 41 09 05 3d
       -0.55449086 0.6024409 -0.62435025 0.03247953
000370 97 9e a4 3e 97 57 d3 3e f7 1c 9a be c0 23 a3 3c
       0.32152244 0.41277763 -0.30100223 0.019914508
000380 5d 6a 5d 3d 28 09 a5 3f 90 e0 8f 3e c6 ce f1 be
       0.054056514 1.2893419 0.28101015 -0.47228068
000390 36 a6 a2 bb 35 a4 8c 3e 31 00 c1 be 18 e1 80 3e
       -0.0049636615 0.2746903 -0.3769546 0.25171733
0003a0 15 37 a2 3f 35 04 a1 3f 0f 37 9e 3d 17 e0 1e 3e
       1.267306 1.2579409 0.07725345 0.15515171
0003b0 8c 4b 36 3f 9f 7d 24 bf 4c 83 84 3d b1 61 f9 be
       0.71209025 -0.6425418 0.064703554 -0.48707345
0003c0 d8 89 d6 be a3 8f cf bd ab 4d 7f 3f 99 c9 c8 bd
       -0.4190204 -0.101348184 0.99727887 -0.09804077
0003d0 77 c6 8e 3e 47 c1 62 bf 41 5c 31 bf 42 ed 64 be
       0.27885792 -0.8857617 -0.69281393 -0.22356132
0003e0 32 fa 0f 3e 18 36 62 bd 8d a5 1d 3e a1 d3 0a 3f
       0.14060286 -0.05522737 0.15395184 0.5422917
0003f0 93 af 30 3e 9d c5 3e bd f9 3a f9 be 59 f4 2d bf
       0.17254476 -0.046575177 -0.48677805 -0.6795097

fc1.bias f4 [128]
000000 1a 0c 1c bf 0c 98 25 bf be 38 97 bf 42 6b bd bd
       -0.60955966 -0.6468513 -1.1814191 -0.092489734
000010 de 6a 46 bf 4c 3a 99 bf df 59 c6 bf 2c 81 2f bf
       -0.77506816 -1.1970916 -1.5496176 -0.68556476
000020 01 5b d4 bf b9 b6 91 3d e5 50 a4 bf 0d 9b 5a bf
       -1.6590272 0.0711493 -1.2837187 -0.8539284
000030 fd c5 24 bf 3f e3 4c bf a1 68 92 bf 3d 85 0c bf
       -0.64364606 -0.8003425 -1.143818 -0.54890805
000040 20 3c 30 bf 05 0b 99 bd 04 ae 43 bf d9 37 90 bf
       -0.68841743 -0.07472805 -0.764374 -1.1267043
000050 fb b3 d1 3e f4 18 bc bf 92 56 36 bf b5 a3 41 bf
       0.40957627 -1.4695115 -0.71225846 -0.7564042
000060 8b fc 85 bf 92 9e c9 bf e9 93 da bf 52 15 47 bf
       -1.0467695 -1.5751517 -1.7076389 -0.7776691
000070 15 35 a6 be ac df 24 bf 10 94 94 bf 92 8e 21 bf
       -0.32462373 -0.64403796 -1.1607685 -0.6310817
000080 39 0b 3e be 55 40 29 3d 83 37 39 bf 8a 77 b7 3d
       -0.18558969 0.041321117 -0.7235033 0.08958347
000090 af 69 a1 bf 50 14 a2 bf 17 4b 51 bf 7b e4 45 bf
       -1.2610377 -1.2662449 -0.81755203 -0.7730176
0000a0 5d d7 b2 bf 15 4d 16 bf ab 23 21 bf e9 4f 35 bf
       -1.3971974 -0.5871137 -0.6294505 -0.7082506
0000b0 a0 32 b7 bf 06 a5 94 bf 56 98 6c bf c4 54 8b bf
       -1.4312325 -1.1612861 -0.92419946 -1.0885243
0000c0 d2 17 50 bf c4 7d e9 be 89 06 ac bf 4e b8 42 bf
       -0.81286347 -0.45603764 -1.3439494 -0.76062477
0000d0 bd e1 3d bf a9 95 3e bf 90 e8 b3 3d 10 09 9d be
       -0.74172574 -0.74447113 0.08784592 -0.30670977
0000e0 a6 df 91 bf 54 88 af bf 8d e1 ff be 1b fb ae bd
       -1.1396377 -1.3713479 -0.4997677 -0.08543988
0000f0 4e 0a 95 bf 9c 58 9f be f0 41 ca bf f5 ca 6d bf
       -1.164377 -0.3112229 -1.5801373 -0.9288781
000100 66 5e 00 bf c8 b3 9f bf 7c 7b 88 be 23 a1 b7 be
       -0.5014404 -1.247674 -0.2665671 -0.35865125
000110 f9 06 00 3f e1 ef 32 bf 8a dc 08 bf b6 86 65 bf
       0.5001064 -0.69897276 -0.53461516 -0.8965868
000120 96 3d 29 bf c8 fd f2 3d 2c c5 e5 be 96 ca 1b bf
       -0.661096 0.11864811 -0.44876993 -0.60855997
000130 d8 89 24 bf 8c 8f 47 be 77 93 b2 bf dc f1 e8 be
       -0.6427283 -0.19488353 -1.3951253 -0.45497024
000140 43 90 41 3d d5 f3 55 bf 13 ce 44 be 16 d0 87 bf
       0.04725672 -0.83575183 -0.19219236 -1.0610378
000150 73 a8 43 bf 16 2e 5b bf b5 14 a8 bf 7f b9 51 bf
       -0.7642891 -0.85617197 -1.3131319 -0.8192367
000160 42 b8 9b bf 02 20 2e bf 59 56 55 bf 58 e3 f6 be
       -1.2165606 -0.6801759 -0.8333488 -0.48220325
000170 08 8b 89 bf 69 8f 75 bf b7 9a a1 bf 40 29 f8 be
       -1.0745554 -0.9592195 -1.262534 -0.4846897
000180 99 a5 78 3d cc c5 8d bf ea 3f 97 bf e7 56 08 bf
       0.0607048 -1.1075988 -1.181638 -0.532576
000190 bb 4a 6c bf 16 30 9f bf b2 39 8b 3e 66 4e c5 bd
       -0.9230153 -1.243655 0.27192456 -0.09634094
0001a0 f7 2b 90 bf 2b a3 e0 be 68 af 5f bf 20 68 be 3e
       -1.1263417 -0.43874487 -0.87377024 0.37188816
0001b0 17 87 bd bf 07 74 d5 bd ee 45 79 bf d6 1a 9e bf
       -1.4806851 -0.10422521 -0.9737233 -1.235194
0001c0 0a 99 ae bf ad 61 9e bf 80 5c 14 be 12 1c 8a bf
       -1.3640454 -1.2373558 -0.14488411 -1.0789816
0001d0 60 7b 7a bf b8 87 a7 bf 9d e3 52 be 3b 19 a4 be
       -0.97844505 -1.3088293 -0.2059464 -0.320505
0001e0 f3 06 cd be 28 2d d7 be c6 16 bf be db ce 6c bf
       -0.40044364 -0.4202664 -0.37322062 -0.92503136
0001f0 dc 99 3d bf f6 ac be bf 69 70 d0 be 1a 77 9f bf
       -0.74062896 -1.4896533 -0.40710762 -1.2458222

fc2.weight f4 [128, 132]
000000 c7 d9 cb 3e 75 b8 6b 3e e9 bd 84 bf da 4c e5 be
       0.39814588 0.23019584 -1.0370456 -0.44785196
000010 38 6a 50 bf 58 ad 9b 3f 36 97 9b bf 83 28 8e bf
       -0.81412077 1.2162275 -1.2155521 -1.1106113
000020 89 f6 83 3f 53 cd 0a be 51 09 a6 be eb 68 16 be
       1.0309612 -0.13554887 -0.32428983 -0.1468846
000030 d2 46 d3 bc 7c b7 c2 bf 5f dc 0d 3c d7 7f cb bd
       -0.025790606 -1.5212245 0.008658498 -0.09936493
000040 d7 84 27 bf 85 a8 ea be 02 da 93 bf 81 89 59 3f
       -0.6543707 -0.45831695 -1.1550906 0.8497544
000050 af e9 40 bf 30 28 66 bf e3 c1 9a 3f 60 c9 e6 bd
       -0.7535657 -0.8990507 1.209042 -0.11268878
000060 02 50 88 3d fb 59 00 3e 30 5e 4e be d5 1c cd 3e
       0.06655885 0.12534325 -0.20153117 0.4006106
000070 69 35 a1 bf 89 5e 05 3f 2b 6a 7f bf 61 57 fb 3d
       -1.2594424 0.52097374 -0.99771374 0.122725256
000080 71 cd cb be 29 0d 9b 3e f8 8e 02 3f 5d 8b dc 3c
       -0.39805177 0.30283478 0.50999403 0.026921922
000090 96 7c 7c 3f 13 37 57 be 61 9c 39 be 9b 2a f6 be
       0.98627603 -0.21017103 -0.1812606 -0.4807938
0000a0 b7 e8 04 3f 79 2c 9b be 41 43 96 bf bc 65 87 3f
       0.51917595 -0.30307367 -1.1739274 1.0577922
0000b0 34 3f 91 3f b1 64 97 3f d8 9a 84 be 42 61 66 3f
       1.1347413 1.1827604 -0.25899386 0.89992154
0000c0 1b 44 df 3b 97 b9 1d 3f 32 01 3c 3e f0 b4 84 bd
       0.0068135387 0.6161131 0.18359831 -0.064798236
0000d0 e7 ec 3b 3f bf ec 02 3f 2a ae 05 bf 32 63 e4 3e
       0.7340836 0.51142496 -0.5221888 0.4460693
0000e0 73 ff a5 bc 13 aa cb be 0f 59 b7 3e 79 ba 64 3b
       -0.02026341 -0.39778194 0.35810134 0.0034901185
0000f0 f4 4f 03 3f b9 62 47 be 90 52 93 3e 7c ca 09 3e
       0.51293874 -0.19471253 0.28773928 0.13456148
000100 ed b4 b7 be 77 7c 78 3f 5e 16 02 c0 5a a2 2d bf
       -0.35880223 0.9706492 -2.0326152 -0.67825854
000110 03 a4 81 be 78 a2 a8 3f c5 b9 c4 3e be 7c da be
       -0.25320444 1.3174582 0.3842298 -0.42673296
000120 f7 a3 ea 3d a6 00 7b 3f 67 8d 32 3e 01 3f a0 3e
       0.11457055 0.98047864 0.17436753 0.31298068
000130 3d 79 87 3e f2 83 7a be 66 c2 ad be d4 2d 7f 3d
       0.26459685 -0.24464396 -0.33937377 0.062299564
000140 1e b9 76 be c8 3e 43 bf a2 8f 72 bf 56 da 39 3f
       -0.24094054 -0.7626767 -0.94750416 0.7259878
000150 f5 df 0c 3f 60 4f 53 3c f8 e3 53 bf 8e 80 50 3e
       0.5502923 0.012897342 -0.8276973 0.2036154
000160 94 dd 23 3f a5 fb ce 3d 83 ca 01 bf ca 43 52 3e
       0.64009976 0.10106591 -0.50699633 0.20533672
000170 df fc 28 3e 1b c3 d4 bf b1 dc a5 3c c2 59 a7 3e
       0.16502713 -1.6622041 0.020246835 0.32685667
000180 e8 ea 8c be f1 4a 9a bf 86 5d 93 3e eb d4 de 3e
       -0.2752297 -1.205412 0.2878229 0.4352182
000190 1f a9 30 bf d0 51 4b be 39 ba 6d 3e d1 8f e7 bf
       -0.6900806 -0.19855428 0.2321557 -1.8090764
0001a0 11 88 12 bf 62 75 e4 3e 87 f4 0b bf 06 49 e8 be
       -0.5723887 0.44620806 -0.54669994 -0.45368212
0001b0 99 18 43 bd 6f 81 8f 3e 26 6a 2e 3f 66 35 4c bf
       -0.04763088 0.28028437 0.6813072 -0.7976898
0001c0 69 05 e9 be 6a d4 1e bf 3b fa 2c 3f 9b ce 35 3e
       -0.4551194 -0.6204287 0.6756932 0.17754595
0001d0 07 28 0d 3f 64 bd 86 3f 75 1d 01 bf e2 e8 0f be
       0.551392 1.0526547 -0.5043557 -0.14053681
0001e0 c4 9f 82 bd bf 04 c3 3e 7c 00 65 bf 33 ed 01 be
       -0.06378129 0.38089558 -0.89453864 -0.1268814
0001f0 8d b0 35 3f 3b 5e ff bd ba 3e 96 bf 3e a0 cb 3f
       0.7097252 -0.12469145 -1.1737893 1.5908277
000200 32 08 b6 3b 4b 7b 8a bd db 21 f2 3c 96 09 41 bd
       0.005555176 -0.067617975 0.02955716 -0.047128282
000210 fa 2f 2d bf 78 2d cc 3e 8b cc ab be 3b a1 1f bf
       -0.6765133 0.3987844 -0.3355449 -0.62355393
000220 b0 35 e5 bf e7 49 aa 3e 63 2f f1 3c 42 8e 32 bf
       -1.7907009 0.33259508 0.029441541 -0.6974832
000230 f2 e2 a9 3e b6 cb b7 bf 95 b8 9e be 9e 63 c7 bf
       0.33180958 -1.4359043 -0.310002 -1.5577276
000240 d8 d6 72 3f 33 26 49 bf 52 67 31 bf d9 b3 26 3f
       0.94859076 -0.7857391 -0.6929828 0.65118176
000250 bd d3 75 bf 30 dd 4e bf 09 55 f8 bd f2 d7 93 bf
       -0.9602621 -0.80806255 -0.12125594 -1.1550276
000260 ae f5 0c bf 59 d3 3d 3f c1 f8 6a be e3 d2 1f be
       -0.5506238 0.74150616 -0.22946455 -0.1560779
000270 3c 58 00 3d a9 0a 2d bf 5d ef 01 3f f5 26 1b 3e
       0.031334147 -0.6759439 0.50755864 0.1515158
000280 f9 0a 8c bd 7d d7 2b 3f 4a ca cb bc cd 76 61 3e
       -0.0683803 0.67125684 -0.024876732 0.22017975
000290 e4 a4 89 be 97 ae db be 5d ee 96 3e fb 80 47 bf
       -0.26883614 -0.4290664 0.29478732 -0.77931184
0002a0 49 4a 43 3d 15 c2 02 3f 1f 0c 0e bf 25 57 3e 3f
       0.047678266 0.51077396 -0.55487245 0.7435172
0002b0 f2 77 05 3f f7 31 c2 3e 79 43 c1 bf 8c 0d e6 be
       0.5213615 0.37928745 -1.5098716 -0.4493221
0002c0 0f 25 07 bf 92 8e 1f 3f b6 18 5f bf 1d 6e f0 3c
       -0.5279092 0.6232692 -0.8714708 0.029349381
0002d0 cc b3 96 bf dc 2a 1f 3e 84 45 c4 3e 1a 41 1a bf
       -1.177362 0.15543693 0.38334286 -0.6025559
0002e0 29 ed 85 be 5b 46 73 be ad 45 48 bf 76 60 69 3e
       -0.261575 -0.23757307 -0.78231317 0.22790703
0002f0 e8 fc d6 3c d0 f5 62 bf 5a a0 9d 3e 0e ef 19 bf
       0.026243642 -0.8865633 0.307864 -0.60130394
000300 77 7a c0 3e be b7 5c bf c6 24 13 bf 60 44 b5 bf
       0.37593433 -0.8621787 -0.57477987 -1.4161491
000310 15 39 eb bd 49 64 4a bf 79 75 8a bf 5f 88 46 bf
       -0.11485497 -0.79059273 -1.08171 -0.77551836
000320 44 2d 12 bf 5a 03 52 3e 97 e6 8a bf c4 7a 8a bf
       -0.5710032 0.20509091 -1.085162 -1.0818715
000330 25 5f 52 bf 81 43 53 be a5 d1 16 3e 89 81 f2 be
       -0.8217643 -0.2063122 0.1472841 -0.47364452
000340 99 52 b0 3e 15 8c 59 3d 86 ea 6f bf 58 e2 ad be
       0.34438017 0.05311211 -0.9371723 -0.3396175
000350 c4 70 b1 be 35 ba 91 be 67 8d fd bd 17 8f 8b be
       -0.34656346 -0.28462377 -0.12380486 -0.27257606
000360 eb 0f 10 3e 87 f4 5e be 5a 43 71 bf a6 36 2a bf
       0.14068572 -0.21772967 -0.94243395 -0.66489637
000370 ce 84 1d bf fb 1b bc be f7 ea c7 3d 3f d9 32 be
       -0.6153077 -0.36740097 0.09761613 -0.17465685
000380 0a ab a3 bf 4c 61 4c be 6c b6 32 bf 68 4f 06 bf
       -1.2786572 -0.19958991 -0.69809604 -0.52464914
000390 e9 6a 7a bd 15 67 87 3e c7 04 51 3d 6c 9a e2 bf
       -0.061137114 0.26445833 0.051029947 -1.7703376
0003a0 f6 94 c2 bd 51 88 93 be e2 32 f2 bd d4 35 23 bf
       -0.09501068 -0.2881494 -0.118261114 -0.6375401
0003b0 02 b0 82 bf 16 b5 82 3f a0 9d 41 bf 09 9b 43 bf
       -1.0209963 1.0211513 -0.7563114 -0.7640844
0003c0 dc 70 ec 3e ec 3e 09 3f 7d 2b 07 bf 15 96 23 be
       0.46179855 0.53611636 -0.5280073 -0.1597522
0003d0 3d 5d af bf a1 85 96 be c5 52 73 3e f4 7a b0 be
       -1.3700329 -0.29398826 0.23762043 -0.34468806
0003e0 7a d4 3a 3f 45 19 84 bf 32 7c dd 39 ef 55 b9 3e
       0.72980464 -1.0320212 0.00042244938 0.36198375
0003f0 e8 d8 46 3e b1 5f 99 be 22 99 af bc 5c 4a 67 bf
       0.1941868 -0.2995582 -0.021435324 -0.9034784

fc2.bias f4 [128]
000000 1f 5e 45 3f 50 d5 45 bc 41 25 a8 be 74 6c 0e bf
       0.7709674 -0.012074783 -0.32840922 -0.55634236
000010 3e 42 75 bf c8 14 ba 3f 25 d9 cc bd a5 4d 0e 3e
       -0.958042 1.4537592 -0.100023545 0.13896807
000020 c3 55 25 be c8 b7 8b 3e 5e de 8f 3f c2 e2 99 3c
       -0.16145997 0.2728865 1.1239736 0.018784884
000030 34 4e 1b be 23 bc 3f 3e c5 18 72 bf 5b 7c 0e be
       -0.15166551 0.18724112 -0.94569045 -0.13914625
000040 3b 91 6a be aa 9d 81 3f 28 2f d1 3e 5c 19 93 3e
       -0.22906964 1.012624 0.4085629 0.28730285
000050 a0 ee 43 3d 65 7e c5 be 06 5a 0d bf 1f 7c 2a be
       0.047834992 -0.38572994 -0.5521549 -0.16648911
000060 42 de e0 3e 1a 33 33 bf c0 95 fb be 73 9c 86 be
       0.4391957 -0.6999985 -0.49137688 -0.26291236
000070 88 a5 b3 be ca 98 52 be b1 0d 8e bd 13 83 02 3f
       -0.35087228 -0.20566097 -0.06936205 0.50981253
000080 88 47 d2 3e 36 48 f9 bd 89 6a 38 3e 01 84 e7 bd
       0.410702 -0.12171976 0.1800939 -0.113044746
000090 67 af fe bd c2 4a e2 3e 78 99 c2 bd 44 57 a6 bf
       -0.12435799 0.4419766 -0.09501928 -1.2995381
0000a0 47 15 f1 3d e9 b6 49 be f7 9d 84 3e 34 70 71 bd
       0.117716365 -0.19698681 0.25901768 -0.058944896
0000b0 47 18 1d be 50 e6 83 bf 2b e6 b5 3f 71 9f 1f be
       -0.15341292 -1.0304661 1.4210867 -0.15588166
0000c0 f4 23 2e 3e 0a 20 85 bf 77 c3 2e bf 66 c7 3f be
       0.17005903 -1.0400403 -0.68267006 -0.18728408
0000d0 31 ca b0 3f 78 01 bb 3d cd e7 24 bf e8 55 44 bf
       1.3811704 0.091311395 -0.644162 -0.7669358
0000e0 23 e8 08 3e 0a 92 98 bf 3c b0 1a 3f 4f 4d 4f be
       0.13369803 -1.1919568 0.6042516 -0.20244335
0000f0 f1 a3 f4 be b9 b8 b5 3f e3 18 f5 3e 70 55 06 be
       -0.47781327 1.4196998 0.4787055 -0.1311853
000100 f8 74 85 3e 3d 61 ca 3f 64 fd 0e be 1f 09 8c bf
       0.26065803 1.5810925 -0.13963848 -1.0940284
000110 a1 44 2a 3e 58 b5 0c bf 70 1e c3 3e 7f 78 36 3f
       0.16627742 -0.5496421 0.3810916 0.7127761
000120 15 6d 99 3f 03 72 52 be c4 95 6b 3e e1 f5 9b be
       1.1986414 -0.20551305 0.2300635 -0.30461028
000130 eb 9c f9 bd b0 9e a7 3e 90 08 9f bf 96 3d ed 3e
       -0.12188133 0.32738256 -1.2424488 0.4633605
000140 26 06 99 3c 82 22 01 3f 29 22 80 3d da 80 08 40
       0.01867969 0.5044328 0.062565155 2.1328645
000150 05 fe 91 3d 61 df 0a 3e ee 03 41 3d b9 76 61 bf
       0.071285285 0.13561775 0.04712289 -0.8807178
000160 3f b9 53 be 12 c0 e9 be b2 8b 9f 3d 14 b1 4d bf
       -0.20676135 -0.4565435 0.07790317 -0.80348325
000170 15 3b f7 be 63 d2 38 3f 51 f7 8b be 25 0f 27 be
       -0.48287264 0.72196025 -0.27337125 -0.16314371
000180 71 24 8d bf 52 f8 30 be 7c af 55 be 80 77 ad be
       -1.1026746 -0.17282227 -0.20867723 -0.33880234
000190 2d 3e 21 bf c3 3e 7b be 21 b9 26 bf 7f b2 44 bd
       -0.629855 -0.2453566 -0.65126234 -0.04802179
0001a0 d4 18 bd 3f 13 6d 3d 3f 31 6e 0f bf dc 3a de 3d
       1.4773202 0.7399456 -0.56027514 0.1085107
0001b0 55 d6 ba 3f df 5c 6a bf ca bd 73 be e3 e2 15 be
       1.4596659 -0.9154796 -0.23802868 -0.14637332
0001c0 4b 53 74 be aa 54 10 be f5 07 5a 3f 0b d5 01 3f
       -0.23859899 -0.14094797 0.8516839 0.507157
0001d0 13 0b fb bd 98 23 7c be 91 0f 51 be 1e 08 93 3e
       -0.122579716 -0.24622953 -0.20416094 0.2871713
0001e0 50 a0 92 be 1d 41 23 be cd 6e a7 3e 7a 14 15 3d
       -0.28637934 -0.15942807 0.32701722 0.03639648
0001f0 7f 09 79 be d8 96 b1 bd cb c3 1d 3f b0 2c 94 3d
       -0.24320029 -0.08671349 0.6162688 0.07235086

fc3.weight f4 [1, 128]
000000 c8 cf 21 3d ea 9d 90 bc 3b 8f 72 3c b2 ca 3f bd
       0.039504796 -0.017653424 0.014804657 -0.046824165
000010 ba fa 04 bd 0f 17 9b 3d c5 46 6e bd 8b e2 9c 3d
       -0.032465674 0.075727575 -0.05817296 0.07660397
000020 d0 9a 11 bd 7c 17 2c 3d 47 1d 86 3d fe ac 06 be
       -0.03554803 0.042014584 0.06548553 -0.13151929
000030 a5 5d 58 bb 54 66 5e bd 6a 92 32 bd 76 f0 03 be
       -0.00330148 -0.054296806 -0.043596663 -0.12884697
000040 3f 41 d3 bc ee 9f 78 3d 6b be 0d 3d bf 43 06 3d
       -0.025787948 0.060699396 0.034605425 0.03277945
000050 5e 0c 83 bd 62 a8 11 be 0d fd 93 3d 45 61 0d be
       -0.06398843 -0.14224389 0.07226 -0.13806637
000060 97 c2 79 3d e1 1d 3f be 0c 2d 87 bc 80 6d b4 bc
       0.06097659 -0.18663742 -0.016500972 -0.02202487
000070 89 72 2d bd dc 48 0c bc b5 f5 18 be 19 14 57 3d
       -0.042345557 -0.008562293 -0.1493748 0.0525094
000080 de 68 89 3e 45 69 d5 3d a1 68 5d 3d 2f 6e 21 3e
       0.2683782 0.10420469 0.05405486 0.15764688
000090 63 3f 56 bc 03 69 f2 3c 67 73 da 3b 90 e1 b7 3a
       -0.013076636 0.02959109 0.006666589 0.0014029015
0000a0 e2 52 35 3d f5 12 cb 3d 5f dc 89 3c d5 bd b6 3d
       0.044268496 0.09915725 0.016828714 0.08922926
0000b0 f9 de 86 bd 0e d1 07 bd a3 f7 96 3d 70 7a 30 3c
       -0.065854974 -0.033158354 0.07371452 0.010771379
0000c0 91 55 da 3d 80 6b 61 bd 15 f5 66 bd 72 8c 93 3d
       0.10660852 -0.05503416 -0.056386072 0.07204522
0000d0 65 26 5b 3d 4b fa 89 3d 79 ae d1 bd ab 43 39 bd
       0.053503413 0.06737193 -0.10238356 -0.04523055
0000e0 be b0 1d 3e ff 60 c9 bc 56 22 29 3d a8 24 a2 3c
       0.15399453 -0.024582384 0.04129251 0.01979287
0000f0 55 c4 0d be 23 28 d3 3d 75 86 49 3d 5a 5f 09 be
       -0.13844426 0.1031039 0.049200494 -0.1341528
000100 37 14 62 3d 1b 3d 8e 3d 02 d3 1c 3c a6 ee 26 bd
       0.05519506 0.06945249 0.009571793 -0.040754937
000110 f4 cc fc 3c 06 3d b7 bd 63 69 66 3d ef 86 86 3d
       0.030859448 -0.08947186 0.05625285 0.06568705
000120 2d cc b3 3d 81 e7 34 bc 7d 32 5d bd ab 36 7b 3c
       0.08779178 -0.011041523 -0.054003228 0.015332858
000130 9d ff 71 3b 94 62 2b 3d e5 97 d6 3c 0a c5 99 3c
       0.003692604 0.04184206 0.026195476 0.018770713
000140 41 18 17 be 05 11 38 3d 91 ce e8 3c 5f 6c b2 3e
       -0.14755346 0.044938106 0.028418811 0.34848306
000150 c1 b7 bf bd b0 57 84 3d 0b 15 a4 bc 64 12 58 bd
       -0.0936122 0.064620376 -0.020029565 -0.052751914
000160 52 ed 8c bb 36 ad 8b bc 14 ea bd 3d 32 07 1e bc
       -0.0043007517 -0.017050367 0.092731625 -0.00964527
000170 86 87 b1 bd 55 d7 1c 3d 3e 93 82 bd f2 7b 59 bd
       -0.08668427 0.038291294 -0.063757405 -0.05309672
000180 f3 05 1b be 83 94 58 bc a4 5f 9c 3c 3a 17 82 bd
       -0.15138988 -0.013219002 0.019088574 -0.06352086
000190 a1 8f 05 3d ee 79 2e 3d 29 a1 0d bd 0b ce 83 3c
       0.03260768 0.04259675 -0.034577522 0.01608946
0001a0 a3 42 a4 3d 65 47 46 3d 6d 68 78 bd 0e 1a ed 3d
       0.080205224 0.04840793 -0.060646463 0.11577235
0001b0 a3 da 9b 3d d6 03 2f bd b4 ff 50 3d 2d 0e eb 3c
       0.07610061 -0.042728268 0.051025108 0.028693283
0001c0 af eb bd 3a 5b 76 a6 bb d3 a3 ec 3d 8c 3d 64 3d
       0.0014489795 -0.005080027 0.115546845 0.05572276
0001d0 24 eb 85 3b 1b 23 32 bd 87 41 c6 bc 93 18 6e 3d
       0.004086869 -0.04349051 -0.024201168 0.058128905
0001e0 54 6f a2 3c 44 42 8a 3c d9 60 9e 3d 07 ba 03 3e
       0.019828476 0.016877301 0.07733316 0.12863933
0001f0 81 95 1f be de f2 b0 bd ee f3 21 3d e3 65 09 3d
       -0.15584375 -0.08640073 0.03953927 0.033544432
